pabbo_method/results/PABBO/PABBO_GP1D_quick_20251103_211924/ckpt.tar (torch, 517281 bytes, 162 tensors)

x_embedders.0.0.weight f4 [32, 1]
0	0x3e998064	0.29980767
1	0xbe3e4880	-0.18582344
2	0xbf37e927	-0.7184014
3	0xbf65360f	-0.8953561
4	0xbe567920	-0.20944643
5	0xbead1187	-0.33802435
6	0x3f3822c7	0.71928066
7	0x3f8654b2	1.0494597
8	0x3effae3b	0.49937615
9	0x3f49e5b0	0.788661
10	0xbe090b60	-0.13383245
11	0xbe908f8c	-0.28234518
12	0x3f2131d4	0.62966657
13	0xbf84416e	-1.0332468
14	0xbe917aba	-0.28413945
15	0x3f2e01d7	0.6797156
16	0xbf1bd4f1	-0.608718
17	0x3f269050	0.65063953
18	0x3f3371a6	0.7009529
19	0x3f44a562	0.76814854
20	0xbe651206	-0.22370157
21	0xbe412df8	-0.18865192
22	0x3f7ab0d7	0.97926086
23	0x3ef163bb	0.471464
24	0x3d03417c	0.032044873
25	0x3f17cb35	0.59294444
26	0xbf78f394	-0.9724667
27	0x3f4d2074	0.80127645
28	0x3e9cf1fc	0.3065337
29	0xbf44d096	-0.76880777
30	0x3f727d67	0.947226
31	0x3e790698	0.24318922

x_embedders.0.0.bias f4 [32]
0	0xbf0e5f18	-0.5561385
1	0xbf0cf2d2	-0.55058014
2	0xbeca4753	-0.3950754
3	0x3f56bc8b	0.83881444
4	0xbf00c1a6	-0.50295484
5	0x3f40f23a	0.7536961
6	0xbeba8ca7	-0.36435434
7	0xbf4de137	-0.80421776
8	0x3f304e92	0.6886989
9	0x3ded9b90	0.11601937
10	0xbf68a4da	-0.90876544
11	0x3e7c5d75	0.24645026
12	0x3ddac0be	0.10681294
13	0x3f4688fb	0.77552766
14	0x3f6bdd88	0.92134905
15	0xbf2f5e36	-0.6850313
16	0x3f73c4b5	0.95222026
17	0xbf450944	-0.76967263
18	0xbf58180a	-0.8441168
19	0x3ed3be3c	0.41356075
20	0x3e4e2047	0.201295
21	0xbf08050e	-0.5313271
22	0xbece8722	-0.40337473
23	0x3ee08889	0.43854168
24	0x3f238f22	0.6389028
25	0x3f6f327d	0.93436414
26	0x3ec210b4	0.37903368
27	0x3f092676	0.5357431
28	0x3f112cc0	0.5670891
29	0xbe61f223	-0.22065024
30	0xbf1571cf	-0.58376783
31	0xbf76bf78	-0.9638591

x_embedders.0.2.weight f4 [32, 32]
0	0xbd67fe68	-0.056639105
1	0xbe173c9b	-0.14769213
2	0xbe2f5c33	-0.17125015
3	0x3e02a755	0.12759145
4	0x3e20d68d	0.15706845
5	0xbdd98eb5	-0.10622922
6	0xbde6ba92	-0.11266054
7	0x3d43ed64	0.047833815
8	0x3e19e5ae	0.15029022
9	0xbcb120c3	-0.021622067
10	0x3c83e50e	0.016100433
11	0xbe310a35	-0.1728905
12	0xbc8f80e0	-0.017517507
13	0xbd361cfe	-0.044461243
14	0xbd758b96	-0.059947573
15	0x3d8c7766	0.06858711
16	0xbe0436d2	-0.12911537
17	0xbdb6b947	-0.089220576
18	0xbd9576b2	-0.0729803
19	0xbdf527ea	-0.11970504
20	0xbdde3b85	-0.10851196
21	0xbd68dcf8	-0.056851357
22	0xbd3d1b2c	-0.04616849
23	0xbe0819e3	-0.13291125
24	0x3e1496f2	0.14510706
25	0x3e2581f9	0.16162862
26	0xbc13fbee	-0.009032233
27	0x3d2c04b6	0.04199668
28	0xbd9f994e	-0.077929124
29	0xbe4f3b2d	-0.20237418
30	0xbcb4d07a	-0.022072066
31	0xbd80fd75	-0.06298343
32	0x3e0b51d9	0.13605441
33	0xbd05dcc2	-0.032681234
34	0x3e339aff	0.17539595
35	0xbcb3d4cb	-0.021952054
36	0xbe163276	-0.14667687
37	0x3d37df45	0.04489066
38	0xbd850945	-0.06495909
39	0x3defbbb4	0.117057234
40	0x3da3c040	0.07995653
41	0x3e27c489	0.16383566
42	0xbe0a13d0	-0.1348412
43	0xbbc28ba1	-0.005937055
44	0x3ddb4c38	0.10707897
45	0x3deae346	0.1146913
46	0xbdf548c8	-0.119767725
47	0x3d67d5fd	0.05660056
48	0xbd26ffae	-0.04077118
49	0x3e061066	0.13092193
50	0x3da9734c	0.08273944
51	0xbd2bd01b	-0.04194651
52	0x3e501c98	0.20323408
53	0x3d7814c6	0.060566686
54	0xbe2f4792	-0.17117146
55	0x3d81d6e3	0.063398145
56	0x3de29781	0.11064053
57	0xbe15e93a	-0.1463975
58	0x3e467a40	0.19382572
59	0xbd1bf866	-0.038078688
60	0x3d24068e	0.040045314
61	0x3dbcf355	0.092260994
62	0xbe0e609e	-0.13904044
63	0x3df2df17	0.11858957
64	0xbdf674ac	-0.12033972
65	0x3dd5d5b0	0.10441148
66	0x3e391900	0.18075943
67	0xbdbc955d	-0.09208176
68	0x3d86489a	0.065568164
69	0x3c87bdf1	0.016570063
70	0x3e58d0cc	0.211734
71	0x3ea7e86a	0.32794505
72	0x3e08739e	0.13325354
73	0x3d380d99	0.044934843
74	0xbd11d310	-0.035601676
75	0xbe31ad0d	-0.1735117
76	0x3e1a0977	0.15042673
77	0xbda14e8d	-0.078763105
78	0xbb8a3c07	-0.0042185816
79	0x3e393f94	0.1809066
80	0x3d8a4811	0.06752027
81	0x3e16eee1	0.14739563
82	0xbd635c75	-0.055508096
83	0xbdee4b4b	-0.11635455
84	0xbe13dcbc	-0.14439672
85	0xbd742ad9	-0.059611175
86	0x3e97768b	0.2958263
87	0x3e0a9913	0.13534956
88	0xbc438b68	-0.0119350925
89	0xbda9adf2	-0.082851306
90	0x3dee253d	0.116281964
91	0xbe272b5f	-0.16325139
92	0xbd94073c	-0.07227942
93	0x3dc316d7	0.09525841
94	0x3dd2567e	0.10270403
95	0xbca18258	-0.019715473
96	0x3dc62906	0.09675793
97	0xbd4041db	-0.046937805
98	0xbd8786c7	-0.066175036
99	0xbd27cc30	-0.040966213
100	0xbe091c6d	-0.1338975
101	0x3e0da1d8	0.1383127
102	0x3d147983	0.036248695
103	0x3bf472a8	0.007459957
104	0xbe12f68d	-0.14351864
105	0xbe266c8e	-0.16252348
106	0xbcc4ef7a	-0.024039973
107	0xbd8e4b6d	-0.0694798
108	0xbdda8123	-0.10669162
109	0xbe3d04df	-0.1845889
110	0xbe23880a	-0.15969864
111	0xbddbc529	-0.10730965
112	0xbd1a7fc0	-0.03771949
113	0xbdea7216	-0.114475414
114	0x3e297ba1	0.16551067
115	0x3d8b54b5	0.06803266
116	0x3dc897c5	0.09794573
117	0xbe1b695e	-0.15176913
118	0x3dce30dc	0.10067913
119	0xbd7a0368	-0.061038405
120	0x3da66567	0.0812481
121	0x3e030d7c	0.12798113
122	0xbde64795	-0.11244122
123	0xbdb38a41	-0.08766604
124	0xbd53bd3a	-0.051694132
125	0xbe4964a7	-0.19667302
126	0xbe4ef7e4	-0.2021175
127	0xbd24368f	-0.040091094
128	0xbd89ab19	-0.067220874
129	0x3e2cbaaa	0.16868082
130	0x3e08c713	0.13357191
131	0xbcd57889	-0.026058452
132	0x3dc8046e	0.0976647
133	0x3dadbc7b	0.084832154
134	0xbd671b79	-0.056422684
135	0x3e5d6c77	0.21623407
136	0x3e1a18e1	0.15048553
137	0x3e316367	0.17323075
138	0x3da03b7f	0.07823848
139	0xbd1cc9a8	-0.038278252
140	0x3e806328	0.2507565
141	0xbb133779	-0.0022463484
142	0x3dc03137	0.09384387
143	0xbdeabf23	-0.11462238
144	0xbe3d9ca8	-0.18516791
145	0xbe2c6f76	-0.16839394
146	0x3d4a8be0	0.0494498
147	0x3e1e8e1c	0.15483898
148	0x3c7fb60f	0.015607371
149	0x3ddb18cd	0.1069809
150	0x3e7a58b4	0.244479
151	0x3e72f441	0.23725988
152	0xbdd40787	-0.10352998
153	0x3df44b90	0.11928475
154	0xbe6cb725	-0.23116739
155	0x3d5045c4	0.050847784
156	0x3d924b64	0.07143286
157	0xbe68d572	-0.22737673
158	0x3e1b251e	0.15150878
159	0x3de0ca5f	0.10976099
160	0x3c6ef13e	0.014583884
161	0xbe14fc8f	-0.14549468
162	0x3e5b6295	0.21424325
163	0xbd12240d	-0.035678912
164	0xbe2f3d23	-0.17113166
165	0xbc959de8	-0.018263772
166	0x3dc96e16	0.0983545
167	0x3dfec207	0.124393515
168	0xbd9bb78b	-0.076033674
169	0x3e3f2018	0.18664587
170	0xb9c6414c	-0.00037814153
171	0xbdf2cdb4	-0.11855641
172	0x3e2af633	0.1669548
173	0x3d358e9a	0.04432545
174	0x3d1d3268	0.03837815
175	0x3d8c4d62	0.06850697
176	0xbd26586f	-0.04061168
177	0xbe094957	-0.13406883
178	0xbe031c42	-0.12803748
179	0x3d98b78d	0.074568845
180	0xbe40af11	-0.18816783
181	0xbb5e8db7	-0.003395898
182	0x3dd7ab59	0.10530729
183	0x3d7c7a0c	0.06163983
184	0x3db284f7	0.08716767
185	0xbdb71826	-0.08940153
186	0xba023644	-0.00049671927
187	0x3d82921a	0.06375523
188	0xbd87e096	-0.06634633
189	0x3e6e6e0f	0.23284172
190	0x3e4c2ce9	0.19939007
191	0x3d9550d5	0.07290808
192	0xbe267427	-0.16255246
193	0x3dbbd104	0.09170726
194	0x3ea420ce	0.32056278
195	0xbe17905e	-0.14801165
196	0x3b6386dc	0.0034717834
197	0x3d30b117	0.043137636
198	0x3e7c5e64	0.24645382
199	0x3d0b1522	0.0339557
200	0x3c965d85	0.01835514
201	0x3e73886a	0.23782507
202	0xbe2cc7ff	-0.16873167
203	0xbdcf318c	-0.10116872
204	0xbc785ed3	-0.015159327
205	0x3dbe7764	0.09300116
206	0xbd9ba068	-0.075989544
207	0xbbb97334	-0.0056594852
208	0xbdf6dc75	-0.120537676
209	0x3e09e91f	0.13467835
210	0xbde74952	-0.112932816
211	0x3e07d051	0.1326306
212	0xbd0c4249	-0.034242902
213	0x3bd963f4	0.00663423
214	0x3a9234eb	0.0011154687
215	0xbe001476	-0.12507805
216	0xbe196270	-0.14978957
217	0xbe099323	-0.13435034
218	0xbe243eed	-0.1603963
219	0x3e3b0159	0.18262233
220	0x3e3130c9	0.17303766
221	0x3da223f2	0.07917012
222	0x3e58dda3	0.21178298
223	0x3dc5161a	0.09623356
224	0x3e181867	0.14853059
225	0xbd176f32	-0.03697128
226	0x3e661d38	0.22472084
227	0x3d02e049	0.031952176
228	0xbd48c277	-0.04901358
229	0xbe381db0	-0.17980075
230	0x3cfa8253	0.030579722
231	0x3e5f8bb7	0.2183064
232	0x3dcac3c2	0.09900619
233	0x3e60bf22	0.21947911
234	0x3b6216cf	0.0034498458
235	0xbc945b82	-0.01811004
236	0x3d8baebf	0.068204395
237	0xbd85ad7a	-0.06527229
238	0x3da201aa	0.07910474
239	0x3d882090	0.06646836
240	0xbdb16b9a	-0.086631015
241	0x3d878840	0.066177845
242	0x3e34eeff	0.17669295
243	0x3e2367bb	0.15957539
244	0xbdc75ac9	-0.09734113
245	0xbe147ec0	-0.14501476
246	0xbce8864e	-0.028384354
247	0x3cf13d7e	0.029448267
248	0xbe201ac1	-0.15635206
249	0xbc4e6818	-0.01259806
250	0xbd5367ad	-0.051612545
251	0x3df70971	0.12062348
252	0x3dcea21f	0.10089516
253	0xbd13a773	-0.036048364
254	0x3ddf2547	0.10895782
255	0x3c18e530	0.009331986

x_embedders.0.2.bias f4 [32]
0	0x3a8cc3df	0.0010739526
1	0xbd3ed616	-0.046590887
2	0xbb812573	-0.003941232
3	0xbddc66e7	-0.107618146
4	0x3d76c2fa	0.060244538
5	0xbda2a85a	-0.07942267
6	0xbdfb4b73	-0.1227025
7	0xbd4d9cc6	-0.05019834
8	0x3d7058fb	0.05867861
9	0x3cff2e06	0.031149875
10	0xbe3019fc	-0.17197412
11	0x3e27f973	0.16403751
12	0xbda8c736	-0.082411215
13	0x3d521eb4	0.051298812
14	0x3c4d8cf9	0.0125458175
15	0x3db7e264	0.089787275
16	0x3d4492d3	0.047991585
17	0x3b08ab15	0.0020853926
18	0xbda8f049	-0.08248956
19	0xbd952cfb	-0.0728397
20	0x3df34b56	0.118796036
21	0xbe183c6e	-0.14866802
22	0xbe0b7f2d	-0.13622732
23	0x3cb12864	0.021625705
24	0xba811184	-0.0009847139
25	0xbc638777	-0.013887278
26	0x3db6140f	0.088905446
27	0x3da00ecb	0.078153215
28	0x3d889d8c	0.06670675
29	0xbde35443	-0.11100056
30	0xbe1155f1	-0.1419294
31	0xbd114973	-0.035470437

x_embedders.1.0.weight f4 [32, 1]
0	0x3eb7c6cc	0.35893857
1	0x3ed3be08	0.4135592
2	0xbe53dd35	-0.20689853
3	0x3db00870	0.08595359
4	0x3f69a866	0.9127258
5	0xbf1ee04e	-0.6206101
6	0xbf8c6294	-1.0967584
7	0xbf413efb	-0.75486726
8	0xbe65a910	-0.22427773
9	0x3f1c3154	0.6101277
10	0xbf01a7a9	-0.50646454
11	0xbf9229e7	-1.1419038
12	0xbf6e569f	-0.93100923
13	0xbf2526ec	-0.64512515
14	0x3ef920ff	0.48657987
15	0xbefa5efc	-0.48900592
16	0xbf280e04	-0.65646386
17	0x3f83a956	1.0286052
18	0x3e223c78	0.1584338
19	0xbef89ed0	-0.48558664
20	0x3f89ad57	1.0756024
21	0x3e4d27fd	0.20034786
22	0xbf75ac7f	-0.95966333
23	0xbe7e4930	-0.24832606
24	0xbf59b75f	-0.8504543
25	0xbf6f3cb2	-0.9345199
26	0xbf7bdf1c	-0.9838731
27	0xbe7ad840	-0.24496555
28	0xbeb22700	-0.3479538
29	0x3f203163	0.6257536
30	0x3f13ad52	0.5768634
31	0x3e03e340	0.12879658

x_embedders.1.0.bias f4 [32]
0	0xbf0b045e	-0.5430354
1	0xbf779abc	-0.9672048
2	0x3d860548	0.06543976
3	0xbf204680	-0.62607574
4	0x3e177c2a	0.14793459
5	0x3e710620	0.23537493
6	0xbe0ed0b2	-0.13946798
7	0xbedb9c35	-0.42892614
8	0xbf5b0c72	-0.85565865
9	0x3e94eadd	0.29085436
10	0x3ed173bc	0.4090861
11	0xbf17ac61	-0.59247404
12	0x3f7c8ade	0.98649395
13	0xbe6fb2bd	-0.23408027
14	0x3f7b4672	0.98154366
15	0xbf567c60	-0.8378353
16	0xbf2bb99a	-0.6708008
17	0x3e5d3512	0.21602276
18	0xbe9baf00	-0.30406952
19	0x3e6b08a6	0.22952518
20	0x3f3a7526	0.72835004
21	0xbd0585ab	-0.03259818
22	0x3f5910c4	0.8479121
23	0x3f59129c	0.8479402
24	0xbf213530	-0.6297178
25	0xbf7a7c7a	-0.97846186
26	0xbdf1d49e	-0.11808132
27	0xbf131884	-0.5745928
28	0xbf12a7ac	-0.57287097
29	0x3d048d61	0.032361392
30	0x3eaa4a83	0.33259973
31	0xbf03b4ba	-0.5144764

x_embedders.1.2.weight f4 [32, 32]
0	0x3e1f3d3e	0.15550706
1	0xbe1f666a	-0.15566412
2	0xbdf2d5ea	-0.11857207
3	0x3d5d0f04	0.0539694
4	0xbe3ecac8	-0.18632042
5	0x3e1715ed	0.14754458
6	0xbd4dcba2	-0.050243028
7	0xbe481862	-0.19540551
8	0x3e0d63b9	0.13807572
9	0xbddfd5f5	-0.10929481
10	0x3d12e30f	0.03586107
11	0xbded9a5f	-0.116017096
12	0xbd4ac0ad	-0.049500156
13	0xbe08f9af	-0.13376497
14	0xbc9afca8	-0.018919304
15	0xbe01738c	-0.12641734
16	0xbd8987e7	-0.067153744
17	0xbe8237d8	-0.2543323
18	0xbdc332c0	-0.09531164
19	0xbdfb66c3	-0.122754596
20	0xbe14da9a	-0.14536515
21	0xbe1f0907	-0.15530787
22	0xbd3a8e06	-0.0455456
23	0x3e010a5a	0.12601605
24	0xbe4f6e7a	-0.20256987
25	0x3daa5a09	0.08317954
26	0xbdafd216	-0.085849926
27	0xbddf33a7	-0.10898524
28	0x3df778b6	0.12083571
29	0xbde26ab9	-0.11055512
30	0x3d2824f9	0.041050885
31	0x3dcc6b53	0.09981408
32	0x3e270678	0.16311061
33	0xbd58a410	-0.052890837
34	0xbe15fd54	-0.14647418
35	0xbd3ca4fc	-0.04605578
36	0xbdd9af44	-0.106291324
37	0xbdd5fa15	-0.1044809
38	0xbe91e63d	-0.2849597
39	0xbeaf9d98	-0.34299922
40	0x3d94918d	0.07254324
41	0x3db55b1b	0.088552676
42	0x3da5a71d	0.08088515
43	0xbe4a84f8	-0.19777286
44	0xbd609416	-0.054828726
45	0xbdd483ee	-0.10376726
46	0x3dac7476	0.08420651
47	0x3e1e68b6	0.15469632
48	0xbda988b5	-0.08278028
49	0xbd85df1b	-0.065366946
50	0xbe05e815	-0.13076814
51	0xbe39c6ce	-0.18142244
52	0x3e1938da	0.14963093
53	0xbe27e3c4	-0.1639548
54	0x3de6ab6e	0.11263166
55	0x3b28315c	0.0025664186
56	0xb9d11d44	-0.0003988539
57	0x3dad8612	0.084728375
58	0xbe9aba47	-0.30220243
59	0x3b2ddb11	0.0026528279
60	0x3c4bbf8e	0.012435807
61	0xbd63c5bd	-0.0556085
62	0xbca7ea56	-0.020497482
63	0x3e246290	0.16053224
64	0x3df2bcb5	0.11852399
65	0xbd30b413	-0.043140482
66	0x3d183dc4	0.03716828
67	0xbc99b4f2	-0.01876304
68	0x3e03b37d	0.12861438
69	0xbe067a68	-0.13132632
70	0xbd86d2d7	-0.06583183
71	0xbd9db66b	-0.07700809
72	0xbe2702c8	-0.16309655
73	0xbd964a95	-0.07338444
74	0xbd16b336	-0.036792003
75	0xbd638eb2	-0.055556007
76	0xbe14e186	-0.14539155
77	0xbe129e80	-0.14318275
78	0x3e1e7bde	0.15476939
79	0xbca93def	-0.020659415
80	0x3d8feb73	0.0702733
81	0xbc07dab5	-0.00829189
82	0xbcc50910	-0.024052173
83	0xbe4533fc	-0.19258112
84	0xbd35ddd9	-0.044401024
85	0xbe10f89d	-0.14157338
86	0x3de282e3	0.11060121
87	0xbc936e8f	-0.017997054
88	0x3d83a779	0.06428427
89	0xbe2b3d17	-0.16722523
90	0xbdf88595	-0.12134854
91	0xbe1c60e3	-0.15271334
92	0xbd666ab7	-0.056254115
93	0x3df35c10	0.11882794
94	0xbe172077	-0.14758478
95	0x3df80fae	0.12112366
96	0x3df236ae	0.118268356
97	0x3dd69f80	0.10479641
98	0xbe12ffcd	-0.14355393
99	0x3e2160a3	0.1575952
100	0xbce9607a	-0.028488386
101	0x3cd97682	0.026545767
102	0xbdf219df	-0.11821341
103	0x3c959f42	0.018264417
104	0xbc39c1e7	-0.011337734
105	0xbdf31e89	-0.118710585
106	0xbca076a0	-0.019587815
107	0xbe1a19b8	-0.15048873
108	0xbdfca225	-0.12335614
109	0xbde2ed2f	-0.110803954
110	0xbc0461cf	-0.00807996
111	0x3d91ba53	0.07115617
112	0xbe1ec766	-0.15505752
113	0x3c5d1801	0.0134944925
114	0xba89cfae	-0.0010514164
115	0xbe333982	-0.17502406
116	0xbdc1be5f	-0.094601385
117	0xbe2cbf83	-0.16869931
118	0xbda4a661	-0.08039547
119	0x3c73228f	0.014839782
120	0x3bf10ca7	0.0073562446
121	0x3c1864f0	0.009301409
122	0xbe304b3d	-0.17216201
123	0xbb540ad2	-0.0032355082
124	0x3d3b2ed0	0.04569894
125	0x3d998f88	0.074980795
126	0xba0149e1	-0.0004931968
127	0xbd6942c5	-0.056948442
128	0xbd1a967d	-0.037741173
129	0x3dec5964	0.115404874
130	0xbb807fab	-0.003921469
131	0xbdaaf4a4	-0.08347443
132	0xbc9cc781	-0.0191381
133	0xbdc574ce	-0.09641419
134	0x3dfa9dd1	0.12237132
135	0x3d8dae8f	0.0691806
136	0xbc9fc9e8	-0.019505456
137	0xbd9f0482	-0.07764532
138	0xbdf461f4	-0.119327456
139	0x3ca1b009	0.01973726
140	0xbbe4680f	-0.0069704126
141	0x3d97cc9f	0.07412075
142	0x3c798467	0.015229321
143	0x3e080149	0.1328174
144	0xbe1c9bfd	-0.1529388
145	0x3d5152e2	0.051104434
146	0xbe0ad83b	-0.13559048
147	0xbdf5b477	-0.119973116
148	0xbcf9c030	-0.03048715
149	0x3dc561bb	0.09637781
150	0xbd2feddc	-0.04295145
151	0x3d0840b0	0.033264816
152	0xbd56f7ac	-0.052482292
153	0xbc1dd38d	-0.009632957
154	0x3d82d641	0.06388522
155	0xbd537f25	-0.051634926
156	0x3d8db2e9	0.0691889
157	0xbd6e2e74	-0.05814977
158	0xbe0b819e	-0.13623664
159	0xbd866c72	-0.06563653
160	0x3df4e0d4	0.11956945
161	0x3d8a77c2	0.06761123
162	0xbda43925	-0.08018712
163	0x3e334334	0.17506105
164	0x3e917c9d	0.28415385
165	0x3d83a4aa	0.064278916
166	0xbdad725b	-0.08469077
167	0x3d95d7e3	0.07316568
168	0x3cf78b65	0.030217836
169	0x3e221153	0.15826921
170	0xbd28f438	-0.04124853
171	0xbbcf5be9	-0.006328095
172	0xbe80dd50	-0.25168848
173	0x398f8efa	0.0002738161
174	0x3d443c4a	0.04790906
175	0x3e11988c	0.14218348
176	0x3cf56a45	0.0299579
177	0x3e4c96cb	0.19979398
178	0x3db46eb9	0.08810181
179	0xbe6308bc	-0.221713
180	0x3e7ecc8c	0.24882716
181	0x3dbf0ee0	0.09329009
182	0xbdb5c518	-0.08875483
183	0x3ddcc249	0.107792445
184	0x3d410eb1	0.04713315
185	0x3d372f4d	0.044722844
186	0xbe06d97c	-0.13168901
187	0xbce13d8d	-0.02749517
188	0xbd900a50	-0.07033217
189	0x3e81ccd3	0.2535158
190	0x3a588db4	0.00082608615
191	0x3dd0ce41	0.1019559
192	0xbd9ffd4e	-0.07811986
193	0xbdd3a2da	-0.10333796
194	0x3d1ce19b	0.03830109
195	0x3d4b45c1	0.04962707
196	0xbbf50073	-0.00747686
197	0x3df81703	0.12113764
198	0xbe4439f6	-0.19162735
199	0xbcefbe8e	-0.029265668
200	0xbc4de078	-0.012565725
201	0x3d80ade0	0.06283164
202	0x3e235613	0.15950803
203	0xbd951eef	-0.07281291
204	0x3e0c4710	0.13698983
205	0xbce3a1f0	-0.027787179
206	0x3d0e1027	0.034683373
207	0x3b4a2760	0.0030846223
208	0x3db7d450	0.08976042
209	0xbdba680a	-0.09101875
210	0xbcf83e12	-0.030303035
211	0xbcd5abe7	-0.026082946
212	0xbca9cf3a	-0.020728696
213	0xbd8907a1	-0.06690908
214	0x3e0e1c22	0.1387792
215	0xbe27bc53	-0.16380434
216	0xbc79a203	-0.0152363805
217	0xbe2db26a	-0.16962591
218	0x3c7cc4ea	0.015427807
219	0x3cea3ae0	0.028592527
220	0xbd2e8099	-0.04260311
221	0xbddd9299	-0.10818977
222	0xbe201adb	-0.15635245
223	0xbc3e25ac	-0.011605661
224	0xbde72cd6	-0.11287849
225	0x3d015d7a	0.031583287
226	0x3d0c2125	0.034211297
227	0xbe2c4ec0	-0.16826916
228	0xbdb98671	-0.09058846
229	0x3dca3d15	0.09874932
230	0x3bbd3170	0.0057737157
231	0xbdceb1a8	-0.10092479
232	0xbd8320e1	-0.064027555
233	0xbe0ae86d	-0.13565226
234	0x3e10d0db	0.14142172
235	0xbd274bd4	-0.0408438
236	0x3dc0504f	0.09390318
237	0xbc0712af	-0.008244201
238	0xbcc87771	-0.024471017
239	0x3c0f9aec	0.008764964
240	0xbdb72425	-0.08942441
241	0xbc3e4427	-0.0116129285
242	0xbe1295ba	-0.14314929
243	0xbd0e7eb8	-0.034788817
244	0xbe0f27be	-0.13980004
245	0xbe202da7	-0.15642415
246	0x3d905629	0.07047684
247	0xbe0295d4	-0.12752467
248	0xbe093932	-0.13400725
249	0x3e2262fa	0.15858069
250	0x3e35422b	0.17701022
251	0xbce6914c	-0.028145455
252	0x3e1b266e	0.15151379
253	0xbc8bc0f9	-0.01705979
254	0x3dd1d8cb	0.10246428
255	0x3dd75e87	0.105160765

x_embedders.1.2.bias f4 [32]
0	0xbdbdc4a9	-0.092660256
1	0xbe0217fb	-0.1270446
2	0x3deaff78	0.11474508
3	0xbd3ae93d	-0.04563259
4	0xbd72f0fc	-0.05931185
5	0x3d828c38	0.06374401
6	0x3d8b7d94	0.068110615
7	0x3c8ed1e9	0.017434077
8	0xbe23ee70	-0.16008925
9	0x3c1de9ef	0.009638294
10	0x3dd7cc53	0.105370186
11	0x3e217fe4	0.15771443
12	0x3d85f1d0	0.06540263
13	0x3e1ad793	0.15121298
14	0xbe3da03c	-0.18518156
15	0xbe16ef3f	-0.14739703
16	0x3dd8d5e6	0.10587673
17	0x3e13ebd1	0.14445426
18	0xbd2ad575	-0.041707475
19	0xbc857071	-0.016288968
20	0x3c78261d	0.015145806
21	0xbbce9e73	-0.0063055097
22	0x3955fb84	0.0002040696
23	0x3e33b5ae	0.17549774
24	0x3d5e5a34	0.054285243
25	0xbcb8fedc	-0.022582464
26	0xbd72cc60	-0.05927694
27	0x3e1dd9ed	0.15415163
28	0x3cf17d5c	0.029478721
29	0xbd4f0e50	-0.05055076
30	0x3e2cad77	0.16863047
31	0xbcf5582e	-0.029949274

c_embedder.weight f4 [3, 32]
0	0x3f861faa	1.0478413
1	0xbfaed06e	-1.3657358
2	0xbf200f6a	-0.6252352
3	0x3f896ddd	1.0736653
4	0xbee20fd7	-0.4415271
5	0x3f5b2ca1	0.85614973
6	0x3f9fd4d5	1.2486826
7	0xbf898ce5	-1.0746123
8	0x3e6422d1	0.22278906
9	0xc00b5ce5	-2.1775448
10	0x3ebe11f3	0.3712307
11	0xbf77a663	-0.9673826
12	0xbf8586de	-1.0431783
13	0xbfb0f227	-1.3823899
14	0xbe2fa1c5	-0.17151554
15	0x3d9a64b7	0.07538741
16	0x3d1f10e7	0.03883448
17	0xbe7c6691	-0.24648501
18	0xbe81ab57	-0.25326034
19	0x3eea394e	0.45746845
20	0xbe154309	-0.14576353
21	0xbf08179d	-0.5316103
22	0xbe80fb72	-0.25191838
23	0xbdf85287	-0.12125116
24	0x3f92dfc5	1.1474539
25	0xbf3626fd	-0.7115324
26	0xbe985bc0	-0.297575
27	0x3d690776	0.05689188
28	0x3f219262	0.6311399
29	0xbf03fedc	-0.5156076
30	0xbf62d82a	-0.8861109
31	0xbf295e89	-0.66159874
32	0xbf9da673	-1.2316421
33	0xbf8c8f37	-1.0981206
34	0x3e8d717b	0.2762564
35	0x3eb1cbe1	0.3472586
36	0xbfca1ce0	-1.5790062
37	0xbf8547be	-1.0412519
38	0xbc7778f4	-0.015104521
39	0xbf6bcb9e	-0.9210757
40	0xbf59b098	-0.85035086
41	0xbef52f1b	-0.478875
42	0x3f57aafd	0.8424528
43	0xbd09c18f	-0.033631857
44	0x3d12ed8f	0.035871085
45	0xbfaffb33	-1.3748535
46	0x3e287501	0.16450883
47	0xbeb65c4f	-0.356173
48	0xc0327062	-2.7881093
49	0xbf945033	-1.1586975
50	0x3e9219e1	0.2853537
51	0xbf8d98c0	-1.1062241
52	0x3f13f60a	0.577973
53	0x3dab7dc6	0.08373599
54	0xbf54f60b	-0.8318793
55	0x3f28ffff	0.6601562
56	0x3e99190a	0.29901916
57	0xbd041106	-0.032242797
58	0xbe891d1d	-0.26780024
59	0xbd2edd6b	-0.04269163
60	0x3fcefe3e	1.6171339
61	0xbd700c24	-0.05860533
62	0xbf07e19c	-0.5307863
63	0x3f9c78dc	1.2224383
64	0x3efb5bae	0.49093384
65	0x3e607022	0.21917775
66	0x3f86be32	1.0526793
67	0xbf0a0524	-0.53914094
68	0xbd90215b	-0.07037612
69	0x3ee2fd68	0.4433396
70	0x3faa2aad	1.3294274
71	0x3fa904d5	1.32046
72	0x400e387d	2.2221978
73	0xbfc0ca0c	-1.506166
74	0xbfc652db	-1.5494035
75	0xbfa57890	-1.2927418
76	0xbfca9f00	-1.5829773
77	0xbf547d94	-0.83004117
78	0x3fab728f	1.3394336
79	0x3e2ae888	0.16690266
80	0x3e9272e2	0.28603274
81	0xc0078f85	-2.1181347
82	0xbf40f4be	-0.75373447
83	0x3f93f006	1.1557624
84	0x3eefac7d	0.46811286
85	0xbce70374	-0.028199889
86	0x3f91a7d1	1.1379339
87	0xbefc220d	-0.4924473
88	0xbca00d46	-0.01953758
89	0xbf647733	-0.89244384
90	0x3f7a8a3d	0.97867185
91	0x3fd12650	1.6339817
92	0x3f916354	1.1358438
93	0x3e88c182	0.26710135
94	0x3fa89dd1	1.3173162
95	0x3f32dcc1	0.69868094

encoder.layers.0.self_attn.in_proj_weight f4 [96, 32]
0	0x3cdb2078	0.02674888
1	0xbb1d7ac4	-0.0024029473
2	0xbe49af96	-0.19695887
3	0x3e37efbd	0.17962547
4	0xbc06d152	-0.008228617
5	0xbdcb8210	-0.09936917
6	0x3e2e68cf	0.17032169
7	0x3d5f573d	0.054526556
8	0x3e605b24	0.21909767
9	0x3e243086	0.16034135
10	0xbe7d8ae3	-0.24760012
11	0x3e419f7f	0.18908499
12	0xbd137c94	-0.03600748
13	0xbdfb9b95	-0.12285534
14	0x3d429247	0.047502782
15	0x3cdc14ee	0.026865449
16	0x3d9e863e	0.077404484
17	0xbe04d282	-0.12970927
18	0x3dcaf4b8	0.09909958
19	0xbe062c1a	-0.13102761
20	0x3d0d1504	0.03444387
21	0x3e3566a1	0.17714931
22	0x3d4b08a7	0.0495688
23	0x3e73a851	0.23794676
24	0x3e30b123	0.17255072
25	0x3c5605af	0.0130628785
26	0x3e471d5a	0.1944479
27	0x3d554143	0.05206419
28	0x3dc32987	0.09529405
29	0x3d8e0f5b	0.069365226
30	0x3e517664	0.20455319
31	0x3d960cd9	0.07326669
32	0xbe313f2d	-0.17309256
33	0xbd0095f2	-0.031393
34	0xbe098070	-0.13427901
35	0xbe6be0a9	-0.2303492
36	0xbe4097f5	-0.18807967
37	0x3b8b5593	0.0042521446
38	0x3cd61a9e	0.026135739
39	0xbe218fdb	-0.15777533
40	0x3d56b5a3	0.052419316
41	0x3d30ab66	0.04313221
42	0x3d733e67	0.059385683
43	0x3d858dd4	0.06521192
44	0xbdc29790	-0.095015645
45	0xbdd866c0	-0.10566473
46	0xbcd8bce4	-0.026457258
47	0x3dc3d41c	0.09561941
48	0xbe088c74	-0.13334829
49	0x3c907385	0.017633209
50	0x3d7dd6dc	0.061972484
51	0x3d4088d1	0.04700548
52	0xbc9e9b92	-0.019361291
53	0xbe091f3a	-0.13390818
54	0x3e948986	0.29011172
55	0x3e74dc4e	0.23912165
56	0xbe5befe4	-0.2147823
57	0x3e00d793	0.12582235
58	0xbddcf303	-0.10788538
59	0xbe7d3092	-0.2472556
60	0x3e11c749	0.14236178
61	0x3d225c08	0.03963855
62	0xbd565662	-0.052328475
63	0x3d0686b4	0.032843307
64	0xbe4fe084	-0.2030049
65	0x3caec821	0.021335663
66	0xbd7992b1	-0.06093091
67	0xbdfb1318	-0.12259501
68	0xbd9afb47	-0.075674586
69	0x3dc244a6	0.0948575
70	0xbe344edb	-0.17608206
71	0xbddd60b0	-0.10809457
72	0x3e2d344b	0.1691448
73	0x3d946619	0.07246036
74	0xbdbc227d	-0.091862656
75	0xbe193ec2	-0.14965346
76	0x3da6a5c3	0.08137085
77	0xbcc0c40b	-0.02353098
78	0xbdd92fb6	-0.10604803
79	0xbdc0ccb4	-0.09414044
80	0xbdf79d04	-0.12090495
81	0xbe17bc89	-0.14818014
82	0xbe8424da	-0.25809366
83	0xbdc74fc3	-0.0973201
84	0xbe3102d3	-0.17286234
85	0xbe58374d	-0.21114846
86	0xbd93b421	-0.07212091
87	0xbe449a1a	-0.1919941
88	0xbe2baea2	-0.16765836
89	0x3d42ef95	0.047591764
90	0xbe3f6c70	-0.1869371
91	0xba36c953	-0.00069727487
92	0x3e065421	0.1311803
93	0x3d3547c9	0.044257913
94	0x3d6be1b4	0.057588294
95	0x3e39ce30	0.1814506
96	0xbcae80ec	-0.02130171
97	0xbda0dae3	-0.07854249
98	0xbcedf6fb	-0.029048434
99	0xbe03f2a4	-0.12885529
100	0xbd8e9e7e	-0.06963824
101	0x3de0d29a	0.10977669
102	0x3e83da19	0.25752333
103	0xbde3bee9	-0.111203976
104	0x3dafd211	0.08584989
105	0xbc40a869	-0.011758902
106	0x3e07e722	0.13271764
107	0x3d0fe327	0.03512874
108	0x3e0e1859	0.13876475
109	0x3e2e538c	0.17024058
110	0xbaaefd52	-0.0013350642
111	0xbe28f34e	-0.16499063
112	0xbdc00f7c	-0.093779534
113	0xbe8a4a5d	-0.2700986
114	0xbd18fab9	-0.037348483
115	0xbd04f2de	-0.03245818
116	0x3da7b7ea	0.08189376
117	0xbd2844fb	-0.04108141
118	0x3dbc621d	0.09198401
119	0x3e34048c	0.1757986
120	0xbdf4b11b	-0.11947843
121	0xbd12ad0f	-0.035809573
122	0x3d7fee26	0.062482975
123	0x3e686e88	0.22698414
124	0xbc061b24	-0.008185182
125	0xbd026bf1	-0.031841222
126	0x3db8c5ac	0.09022078
127	0x3c9582f6	0.018250924
128	0xbd2985b1	-0.041387264
129	0x3c7d8100	0.0154726505
130	0x3e366d21	0.17815067
131	0x3e3aa8c7	0.18228446
132	0x3bdef3c1	0.00680396
133	0xbe447218	-0.19184148
134	0x3e2134db	0.15742819
135	0x3da4bff7	0.08044427
136	0xbe0cf1f2	-0.1376417
137	0xbdb06eb8	-0.08614868
138	0x3e3f7559	0.18697108
139	0xbda9c7ca	-0.0829006
140	0x3dc7e654	0.097607285
141	0x3d4f2295	0.05057009
142	0xbd0f302f	-0.03495806
143	0x3de06e2f	0.10958516
144	0x3ca28f5d	0.019843752
145	0xbbf0a5e9	-0.007343997
146	0xbc1e241f	-0.009652167
147	0xbba10fa0	-0.0049151927
148	0x3e876259	0.2644222
149	0x3e56144c	0.2090618
150	0xbe6f4095	-0.2336448
151	0x3d1acdec	0.03779404
152	0x3e4f8b2f	0.20267938
153	0x3e4a1295	0.19733651
154	0x3d83f448	0.06443077
155	0xbd6a7a8a	-0.05724577
156	0xbe24a4fe	-0.16078565
157	0xbd8a09c0	-0.06740141
158	0xbd33baa2	-0.04387916
159	0x3ced20a3	0.028946226
160	0x3e608595	0.21925958
161	0x3dc5a237	0.09650081
162	0x3e26ce21	0.1628957
163	0x3db23dbe	0.08703183
164	0x3d016942	0.031594522
165	0xbe3156f8	-0.17318332
166	0x3d8b7adb	0.06810542
167	0x3e7adf07	0.2449914
168	0xbe5c4658	-0.21511209
169	0xbe337e79	-0.17528714
170	0x3d8197a7	0.063277535
171	0xbd205d2b	-0.039151352
172	0x3e18d536	0.14925084
173	0x3e2bd72f	0.16781305
174	0x3e6c0c25	0.23051508
175	0xbd98f74d	-0.07469044
176	0xbcb2d77b	-0.021831265
177	0xbe7f1bad	-0.24912901
178	0x3e785c07	0.24253856
179	0xbdcb2931	-0.09919966
180	0x3db073d7	0.08615845
181	0xbe052950	-0.1300404
182	0xbd8b5fd6	-0.06805389
183	0xbe3525c5	-0.17690189
184	0xbd70fc0f	-0.05883413
185	0x3d5ea210	0.054353774
186	0x3e34b12f	0.17645715
187	0xbd4bcfa2	-0.04975856
188	0xbe3158ac	-0.17318982
189	0x3d411ada	0.04714475
190	0x3e370111	0.178715
191	0xbccda51a	-0.02510314
192	0x3e282ff1	0.16424538
193	0xbe13e915	-0.14444382
194	0x3bb601ba	0.005554405
195	0x3e05c594	0.13063651
196	0x3da1984e	0.07890378
197	0xbcc0b6a3	-0.023524588
198	0x3e4be872	0.1991289
199	0x3d880f05	0.0664349
200	0xbd5cb57d	-0.05388402
201	0xbe813912	-0.25238854
202	0x3e55dc9c	0.20884937
203	0x3dc1102e	0.09426914
204	0xbd16b50a	-0.036793746
205	0xbdbcbcbb	-0.09215685
206	0xbe13b55f	-0.14424656
207	0xbe3bb8e8	-0.18332255
208	0x3bffa158	0.007801216
209	0xbd989d17	-0.074518375
210	0xbe104fc9	-0.14092936
211	0x3d88b0e3	0.066743635
212	0x3e61e902	0.22061542
213	0x3db08444	0.08618978
214	0xbe9363e5	-0.2878715
215	0x3d8a12cf	0.06741869
216	0x3e4c9e1f	0.19982193
217	0x3cea05a2	0.028567139
218	0x3d4b242a	0.049595036
219	0xbd95a715	-0.07307259
220	0xbd9a8944	-0.075457126
221	0xbd06ba9e	-0.032892816
222	0x3de379b9	0.11107201
223	0x3dfeec29	0.12447388
224	0xbe242ed2	-0.16033486
225	0x3e27a449	0.16371264
226	0x3e09f8f0	0.13473868
227	0xbe32ab79	-0.17448224
228	0xbd37a387	-0.044833686
229	0x3cfe1a96	0.031018537
230	0x3caec591	0.021334441
231	0xbbdacca7	-0.0066772285
232	0xbe14be97	-0.1452583
233	0x3e29950c	0.16560763
234	0xbe66d83d	-0.22543426
235	0xbdb869d1	-0.09004558
236	0xbe425ed1	-0.18981482
237	0xbe4320a6	-0.19055423
238	0xbda3941b	-0.07987233
239	0xbdf7058a	-0.12061603
240	0xbdea7513	-0.114481114
241	0xbd611ace	-0.054957204
242	0xbd81867c	-0.06324479
243	0x3d0134b8	0.031544417
244	0xbe06f7e5	-0.13180502
245	0xbdaa4f34	-0.08315888
246	0xbe386d9c	-0.18010563
247	0x3d239ce8	0.03994456
248	0x3def2a17	0.1167795
249	0xbe035e11	-0.12828852
250	0xbd475616	-0.048666082
251	0x3dd97fa7	0.10620051
252	0xbe413c2f	-0.18870614
253	0x3de4f6ac	0.111798614
254	0x3ca030fb	0.019554606
255	0x3e08e7d8	0.13369691

encoder.layers.0.self_attn.in_proj_bias f4 [96]
0	0x3ae43c3a	0.0017412968
1	0x3cbda618	0.023150489
2	0x3c89060d	0.016726518
3	0xbcbde4a1	-0.023180308
4	0xbcae086d	-0.021244252
5	0xbbb4fbf9	-0.0055232015
6	0xbc9f61a7	-0.019455744
7	0x3c9f762e	0.019465532
8	0x3d1577e7	0.0364913
9	0x3ce04250	0.02737537
10	0x3cf8f134	0.030388452
11	0xbca3f8c1	-0.020016076
12	0x3c597f3a	0.013274962
13	0xbc6ef4e1	-0.014584751
14	0xbd4adedf	-0.049528953
15	0xbc801933	-0.015637016
16	0x3d9839f2	0.07432927
17	0xbcc328df	-0.0238232
18	0x3bc14a56	0.005898754
19	0xbbdb9a9d	-0.006701781
20	0xbd98c88a	-0.07460125
21	0x3dd756be	0.10514592
22	0x3c0005a9	0.0078138495
23	0xbc1e4491	-0.009659902
24	0x3dc4e108	0.09613234
25	0x3bfa83d2	0.0076451087
26	0x3cf86bfc	0.030324928
27	0x3c9396e6	0.01801629
28	0xbce00c1a	-0.02734952
29	0x3bc1f89b	0.0059195287
30	0xbd245cb8	-0.040127486
31	0xbbcb92aa	-0.006212552
32	0x38b5adf9	8.6631575e-05
33	0xb917a7ef	-0.00014463042
34	0xb806813e	-3.2068456e-05
35	0xb909ac8a	-0.00013129614
36	0xb6e42c98	-6.800121e-06
37	0x3906a813	0.00012841848
38	0x38975204	7.215518e-05
39	0xb884f254	-6.3393876e-05
40	0xb8ebd14c	-0.00011244658
41	0x380afe60	3.313867e-05
42	0x383af34f	4.4572454e-05
43	0x37cf3ec0	2.4705543e-05
44	0x39241fa4	0.00015652046
45	0xb914e035	-0.00014197904
46	0x37ce5d88	2.4600668e-05
47	0x388235ba	6.2088904e-05
48	0x39207f10	0.00015306124
49	0x37294b2c	1.0090687e-05
50	0x399bfa6d	0.00029750486
51	0x370423e7	7.876172e-06
52	0xb6e9b081	-6.964489e-06
53	0x38c0ba5e	9.189987e-05
54	0xb886076a	-6.390999e-05
55	0xb7ba74a2	-2.222724e-05
56	0xb70c4afb	-8.362108e-06
57	0x3487b176	2.527483e-07
58	0xb904659a	-0.0001262635
59	0x38debeef	0.00010621349
60	0xb897e366	-7.242597e-05
61	0xb8b870e0	-8.794828e-05
62	0xb9811508	-0.00024620467
63	0xb984c5e1	-0.00025324433
64	0x3b6903c0	0.0035555214
65	0x3c3b1886	0.011419421
66	0xbce6e68d	-0.028186107
67	0xbc6644d5	-0.014054497
68	0xbaba5863	-0.0014217015
69	0xbbb28c0f	-0.005448825
70	0xbac84d81	-0.0015281887
71	0x3b0426a9	0.0020164645
72	0xbbe33f2d	-0.0069350214
73	0x3c22dec8	0.0099408105
74	0x3a90e1e8	0.0011053653
75	0xbcbcf90d	-0.023067975
76	0x3b0cadf0	0.002146598
77	0xbc3be320	-0.011467725
78	0x3b5323d3	0.0032217398
79	0x3c7c6f90	0.015407458
80	0xbbfdbc08	-0.0077433623
81	0xbc51005c	-0.012756433
82	0xbc32ccfa	-0.010913128
83	0xbb453847	-0.0030093358
84	0x3c4a5518	0.0123493895
85	0xbba8e9d0	-0.0051548257
86	0x3baa18b5	0.0051909336
87	0xbc45ac9b	-0.012065078
88	0x3a1bc782	0.000594251
89	0xbbe8499f	-0.0070888544
90	0x3c3229be	0.01087421
91	0x3b99f4ed	0.004698387
92	0xbb9b1d8d	-0.0047337473
93	0x3b4bcabb	0.0031096179
94	0x3b8572e4	0.004072534
95	0x3acbcd34	0.0015548826

encoder.layers.0.self_attn.out_proj.weight f4 [32, 32]
0	0x3df3982c	0.11894259
1	0xbd4fe583	-0.05075599
2	0x3d99e90e	0.07515155
3	0xbe4116b8	-0.18856323
4	0xbc6f44bf	-0.014603793
5	0x3e2ce54a	0.16884342
6	0x3e055ea1	0.1302438
7	0x3dba50d1	0.09097446
8	0x3dedcea1	0.11611677
9	0xbca9bfc6	-0.020721328
10	0x3d1f262e	0.03885477
11	0x3c85511d	0.01627403
12	0x3e160fed	0.14654513
13	0xbe1bcdfb	-0.15215294
14	0x3a40fc60	0.00073618256
15	0x3d2ef9d5	0.042718727
16	0xbe152d2a	-0.1456801
17	0x3c4c9087	0.01248563
18	0x3df86095	0.121277966
19	0x3e2af7af	0.16696046
20	0x3dbf37f6	0.093368456
21	0xbddee55b	-0.1088359
22	0x3cdc439e	0.026887711
23	0xbd9c73b8	-0.07639259
24	0xbdf17bcb	-0.1179119
25	0x3da6d67c	0.081463784
26	0x3e381e03	0.17980199
27	0xbcc0d6a0	-0.023539841
28	0xbdd3ab12	-0.103353634
29	0xbdf7849b	-0.12085839
30	0xbd79f3f9	-0.061023686
31	0x3dc0cecb	0.09414443
32	0x3da7c40d	0.081916906
33	0xbc55ec79	-0.013056868
34	0xbcc1be7b	-0.023650398
35	0x3d8f46c9	0.06995923
36	0xbd8225f8	-0.06354898
37	0xbbf77399	-0.007551622
38	0xbc055eb6	-0.008140257
39	0x3e001417	0.12507664
40	0x3bff5041	0.0077915494
41	0xbe1b47c7	-0.151641
42	0x3d906dd2	0.070521966
43	0xbd9b0362	-0.075690046
44	0x3d84affe	0.0647888
45	0x3c04d853	0.008108216
46	0xbd8bf10e	-0.06833087
47	0x3b3bd9ce	0.0028663757
48	0x3d8a1531	0.06742323
49	0x3e3b649e	0.18300101
50	0x3e3241ec	0.1740796
51	0xbd8bd191	-0.06827081
52	0xbe0ffe88	-0.1406194
53	0x3c1d46ba	0.009599382
54	0xbdbcc1a4	-0.092166215
55	0xbe1f2e00	-0.15544891
56	0x3e359dac	0.17735928
57	0x3df2859e	0.11841892
58	0x3e25181b	0.16122477
59	0xbc88639e	-0.016649064
60	0xbd06f927	-0.032952454
61	0xbde662b1	-0.11249293
62	0xbdc12992	-0.09431757
63	0xbe1ec76d	-0.15505762
64	0x3a6fca74	0.00091472943
65	0xbbac8085	-0.005264344
66	0x3e115db4	0.14195901
67	0xbd42b7e0	-0.047538638
68	0x3e5e6a74	0.21720296
69	0x3e01ebd0	0.12687612
70	0x3d9f8c32	0.07790412
71	0x3b687dac	0.0035475297
72	0xbe0a0121	-0.13476993
73	0x3dd50ae6	0.10402469
74	0xbd80658b	-0.06269368
75	0x3df3c549	0.119028635
76	0xbe1809c2	-0.14847472
77	0x3de972d3	0.11398854
78	0xbd82dc35	-0.063896574
79	0xbd413640	-0.047170877
80	0xbd67bfe0	-0.05657947
81	0x3e2d5971	0.1692865
82	0xbdfc0649	-0.12305886
83	0x3c5abde1	0.013350935
84	0x3e440d2e	0.19145653
85	0xbcf6b326	-0.030114722
86	0x3d55c281	0.052187447
87	0x3cb7c91d	0.022434765
88	0xbe103f98	-0.14086759
89	0xbdbf8e8a	-0.09353359
90	0xbe467f41	-0.19384481
91	0x3e45caee	0.19315693
92	0xbe4160af	-0.18884538
93	0xbe3f0ad2	-0.18656471
94	0x3d884c81	0.06655217
95	0xbd285c36	-0.041103564
96	0x3e0a59ba	0.1351079
97	0x3d5e04f4	0.054203942
98	0xbe34132e	-0.17585441
99	0xbd02bc9e	-0.03191816
100	0xbe2d2bf4	-0.16911298
101	0x3d5f040e	0.054447226
102	0xbe2c5f48	-0.16833222
103	0xbd58921b	-0.052873712
104	0xbdb33a96	-0.08751409
105	0xbe0c37e1	-0.13693191
106	0x3dd0ef72	0.102019206
107	0x3d309d0c	0.04311852
108	0xbd593c73	-0.053036164
109	0xbe0ad047	-0.13556014
110	0x3d462a77	0.04838034
111	0x3e1e65f0	0.15468574
112	0x3e15aec4	0.14617449
113	0xbc9a6c33	-0.018850422
114	0xbc033ed7	-0.008010588
115	0xbd403fc1	-0.0469358
116	0x3d2008c7	0.03907087
117	0x3c911e6c	0.017714702
118	0xbd1dcf65	-0.038527865
119	0xbda67183	-0.081271194
120	0xbe22fa5a	-0.15915814
121	0x3e17fc4d	0.14842339
122	0xbe31f0b5	-0.17376979
123	0xbc94f624	-0.018183775
124	0xbe22ca59	-0.15897502
125	0x3daf261b	0.0855219
126	0x3db9d790	0.090743184
127	0xbe309562	-0.17244485
128	0x3df083a8	0.117438614
129	0x3dbe2cc5	0.09285883
130	0x3dd38cf1	0.10329617
131	0x3dfae91c	0.12251493
132	0x3dad2890	0.08455002
133	0x3dd6dfc3	0.10491898
134	0xbe49f0f6	-0.19720826
135	0xbda7fe70	-0.08202827
136	0x3d868290	0.065678716
137	0x3d585fcb	0.05282573
138	0xbd854867	-0.0650795
139	0xbd9dfc14	-0.07714096
140	0x3db46180	0.08807659
141	0xbd90c43f	-0.07068681
142	0xbe0a32f7	-0.13496004
143	0x3e303a85	0.17209823
144	0x3e394afc	0.1809501
145	0x3dd90059	0.105957694
146	0xbdcacfdc	-0.09902927
147	0xbe095ae7	-0.13413583
148	0x3df5e76b	0.1200703
149	0x3e2e93ce	0.1704857
150	0x3c6da189	0.014503845
151	0xbd2868a1	-0.041115407
152	0xbd5dd8eb	-0.054161947
153	0xbe128bb3	-0.14311104
154	0xbd82af97	-0.06381147
155	0x3c593920	0.013258249
156	0xbd5fdc2c	-0.05465333
157	0x3db944d3	0.0904633
158	0xbb425284	-0.0029651234
159	0xbdaabd02	-0.08336832
160	0x3b770155	0.0037690003
161	0xbde141a0	-0.10998845
162	0xbc8cb3cf	-0.017175583
163	0x3df5c995	0.12001339
164	0x3e201cac	0.15635937
165	0x3e3d88f6	0.18509278
166	0xbe243331	-0.16035153
167	0x3e151fbe	0.1456289
168	0x3e050e95	0.12993844
169	0x3cb3c8c7	0.021946324
170	0xbd0c1bf9	-0.034206364
171	0x3de7d437	0.11319774
172	0xbdc7a776	-0.097487375
173	0xbdab4863	-0.08363416
174	0x3e00667b	0.12539093
175	0x3d89e34c	0.067328066
176	0xbde763c3	-0.11298325
177	0xbe1f1705	-0.15536125
178	0x3d96408d	0.07336531
179	0xbe163736	-0.14669499
180	0x3d7c8422	0.06164945
181	0x3e250596	0.16115412
182	0x3da55943	0.08073666
183	0x3ca90b52	0.02063528
184	0x3d6d3cb5	0.057919223
185	0x3d59f0d6	0.053208195
186	0xbd480ab8	-0.048838347
187	0x3bf62295	0.0075114467
188	0xbe6a1964	-0.22861248
189	0xbd821bf5	-0.06352989
190	0xbda75cbd	-0.08171985
191	0xbd8b250b	-0.06794175
192	0x3dc7ede4	0.09762171
193	0x3c5d7d61	0.013518662
194	0x3e1bd795	0.15218957
195	0x3df9cce7	0.12197285
196	0xbe07fa56	-0.1327909
197	0x3dcecced	0.1009768
198	0xbdd55de1	-0.104182966
199	0xbd295274	-0.0413384
200	0xbcfdf2ef	-0.030999629
201	0xbddf84e2	-0.10914017
202	0x3deef830	0.11668432
203	0x3e139ea5	0.14415987
204	0xbe302c77	-0.17204462
205	0x3e23d31b	0.15998499
206	0xbe23b97a	-0.15988722
207	0x3e0a6bd0	0.1351769
208	0xbb756af9	-0.0037447794
209	0xbacfe4c3	-0.0015861023
210	0xbdeb297e	-0.114825234
211	0xbd857373	-0.06516161
212	0xbe03f4aa	-0.128863
213	0x3e7bb126	0.24579296
214	0xbd72360b	-0.05913357
215	0xbdd8c994	-0.10585323
216	0xbddd291d	-0.10798857
217	0xbd27d802	-0.040977485
218	0xbe423cf4	-0.18968564
219	0x3dabf720	0.08396745
220	0xbdfae646	-0.122509524
221	0x3bd332ef	0.0064452807
222	0x3d8046ba	0.0626349
223	0x3da17869	0.078842945
224	0x3e302278	0.17200649
225	0x3d529798	0.051414102
226	0x3e32ff10	0.17480111
227	0xbdc656bd	-0.09684513
228	0x3e10b527	0.14131604
229	0x3e265511	0.16243388
230	0x3cacac40	0.021078229
231	0x3ccd06f1	0.025027724
232	0x3d3e75da	0.04649911
233	0x3dc8823e	0.09790467
234	0xbce4dabe	-0.027936336
235	0x3dc9e0f9	0.09857363
236	0xbdd4c5f2	-0.103893176
237	0x3d636907	0.055520084
238	0x3d4ededc	0.050505504
239	0xbd689d4f	-0.056790646
240	0x3e18e63d	0.14931579
241	0x3d87a600	0.06623459
242	0x3dffdd22	0.124933496
243	0xbe0675cf	-0.13130878
244	0x3db18fee	0.086700305
245	0x3e58106e	0.21100017
246	0x3d94adad	0.072596885
247	0x3d993b32	0.07481994
248	0xbd0a3ed1	-0.033751313
249	0x3e0fb97e	0.14035603
250	0xbcb30cde	-0.021856721
251	0x3e2e7363	0.17036204
252	0xbd84bdab	-0.06481489
253	0xbe14455b	-0.14479582
254	0x3c7a0c46	0.015261715
255	0x3e023bc6	0.12718114

encoder.layers.0.self_attn.out_proj.bias f4 [32]
0	0xbb250e8e	-0.0025185677
1	0x3c55713b	0.0130274845
2	0xbc10c79b	-0.008836652
3	0x3c0e41ac	0.00868265
4	0x3ab716c9	0.0013968582
5	0xbc843690	-0.016139299
6	0xbbfdc17f	-0.007744014
7	0xbbd15beb	-0.0063891313
8	0x3a51fd0b	0.00080104236
9	0x3c3c51af	0.011494084
10	0x3b20c1c6	0.002452956
11	0xbc2504fc	-0.010071989
12	0xba8b63e3	-0.0010634627
13	0x3cbd95ef	0.023142783
14	0x3b1de730	0.0024094097
15	0xbb8eb688	-0.0043552555
16	0x3c83595d	0.016033823
17	0xbc7a5670	-0.015279397
18	0xbcd89188	-0.026436582
19	0xbb817e87	-0.003951851
20	0xbbf11535	-0.0073572644
21	0x3a9ee1cb	0.0012121735
22	0x3bb1a707	0.0054215225
23	0xba3c816f	-0.0007190918
24	0x3c60cee7	0.013721204
25	0xbb55c54e	-0.0032618823
26	0x3bf95c84	0.0076099057
27	0x3b763bb2	0.0037572202
28	0x3c463338	0.012097172
29	0xbbafb94a	-0.0053626643
30	0x3c29bad7	0.0103594875
31	0xbbf0f8cb	-0.007353877

encoder.layers.0.linear1.weight f4 [64, 32]
0	0xbcefb548	-0.029261246
1	0x3dc4a992	0.096026555
2	0x3d245cf5	0.040127713
3	0xbdb4b7ef	-0.08824145
4	0x3d63a781	0.055579666
5	0x3e112657	0.14174782
6	0x3dd782e5	0.10523013
7	0xbdbb7966	-0.09154014
8	0xbe15337c	-0.14570421
9	0x3b8a2f03	0.00421703
10	0x3e3b7f86	0.18310365
11	0x3cfe3ee8	0.031035855
12	0x3dec6687	0.11542993
13	0xbde468d4	-0.11152807
14	0xbd07f308	-0.033190757
15	0x3e0b26be	0.13588998
16	0xbe314045	-0.17309673
17	0x3d9a5f49	0.075377055
18	0xbc88da85	-0.01670576
19	0xbdcdb7fe	-0.10044859
20	0xbe0ee2d8	-0.13953722
21	0xbd8b01ad	-0.06787429
22	0x3e23ad92	0.1598418
23	0x3c0b9440	0.008519232
24	0xbe1e602e	-0.15466377
25	0xbd3dd529	-0.046345863
26	0xbb6a2e08	-0.0035733003
27	0x3de367a0	0.11103749
28	0xbcfb801e	-0.03070074
29	0x3d4b84d7	0.049687233
30	0xbda6bbb4	-0.0814127
31	0x3c79b299	0.015240335
32	0xbc1740fb	-0.009231801
33	0x3da2c3ed	0.07947526
34	0x3e76bd48	0.24095643
35	0x3e113a7b	0.14182465
36	0x3e0403e2	0.12892106
37	0x3e046f94	0.12933189
38	0x3c8bb80d	0.017055536
39	0xbda906c4	-0.082532436
40	0xbe450381	-0.19239618
41	0x3d485850	0.048912346
42	0xbc9faeb1	-0.019492479
43	0x3df86769	0.12129099
44	0xbd14efa6	-0.03636136
45	0xbdd42d03	-0.10360148
46	0xbdbdddea	-0.092708424
47	0x3d91af75	0.07113544
48	0xbe40475b	-0.1877722
49	0xbd989ee6	-0.074521825
50	0x3e1cd8f6	0.15317139
51	0xbb264e45	-0.0025376242
52	0x3db2f575	0.087382235
53	0xbe41e4d1	-0.18934943
54	0xbd8251d1	-0.063632615
55	0xbd72a829	-0.0592424
56	0x3e0e6471	0.13905503
57	0xbdc7e5fe	-0.097606644
58	0x3de268b2	0.11055125
59	0xbdd6205b	-0.1045539
60	0x3d6debd3	0.058086228
61	0xbdff6010	-0.12469494
62	0xbb803fea	-0.003913869
63	0xbcc896a9	-0.024485903
64	0xbe2b63a5	-0.1673723
65	0x3c00f44e	0.007870747
66	0x3e463e65	0.19359739
67	0xbe0dec00	-0.13859558
68	0xbe2bfc17	-0.16795383
69	0x3c8c7e89	0.01715018
70	0xbd35129f	-0.04420721
71	0x3e3d0634	0.18459398
72	0xbbac14bb	-0.0052514947
73	0xbde85809	-0.113449164
74	0xbe2b02fa	-0.16700354
75	0x3e11d27d	0.14240451
76	0xbe0ba876	-0.13638481
77	0x3be325ac	0.006931981
78	0xbe438424	-0.19093376
79	0x3ddb54cd	0.10709534
80	0xbdfd7d64	-0.12377432
81	0x3cb75677	0.022380097
82	0x3c8847a1	0.016635718
83	0x3d80861c	0.06275579
84	0xbdca0e4e	-0.0986601
85	0x3dd0969f	0.10184979
86	0x3e4ab2d5	0.19794782
87	0x3e2729ea	0.16324583
88	0xbb997c50	-0.0046840087
89	0xbd98dfd2	-0.07464565
90	0x3dc3f6b1	0.09568537
91	0x3da9248e	0.082589254
92	0x3d73b400	0.059497833
93	0x3e0339e7	0.12815057
94	0xbdad82af	-0.084721915
95	0xbe0844d0	-0.133075
96	0xbc765ec5	-0.015037243
97	0xbd813fa0	-0.06310964
98	0xbb8391f1	-0.0040152003
99	0x3c9587dc	0.01825326
100	0x3e16ef15	0.1473964
101	0x3d874fa2	0.06606986
102	0x3e1b0e99	0.15142287
103	0x3c761d2f	0.015021606
104	0x3e0097c7	0.12557898
105	0x3d09e9c7	0.033670213
106	0xbdce87ed	-0.100845195
107	0x3e10b73d	0.141324
108	0xbcd19a29	-0.025586205
109	0x3e356518	0.17714345
110	0xbd9d0f58	-0.07668942
111	0x3da5454b	0.08069857
112	0x3dc25c40	0.094902515
113	0x3e121056	0.14264044
114	0xbd013201	-0.031541828
115	0x3e43d8bf	0.19125651
116	0xbe56b972	-0.2096918
117	0x3d5fb4f4	0.05461593
118	0x3cc06719	0.02348666
119	0xbd58fa1d	-0.0529729
120	0xbdeec3a8	-0.11658412
121	0xbd83f3b1	-0.06442965
122	0xbe1a82b9	-0.15088929
123	0xbdf454b9	-0.11930222
124	0xbe264c86	-0.16240129
125	0xbdf7d6aa	-0.12101491
126	0xbe38db49	-0.180524
127	0x3db59803	0.088668846
128	0xbe2e34e6	-0.17012367
129	0xbe25d9ea	-0.16196409
130	0x3d14be5e	0.03631436
131	0xbdb0e977	-0.0863828
132	0x3d75e9ae	0.060037307
133	0xbe279f92	-0.16369465
134	0x3e020c65	0.1270004
135	0x3db5f3f0	0.08884418
136	0x3d4bf690	0.049795687
137	0x3db9af21	0.09066606
138	0xbe13cb6a	-0.14433065
139	0xbb7762b3	-0.0037748038
140	0x3e1d6606	0.1537095
141	0xbe37b1d7	-0.17938934
142	0x3e13012b	0.14355914
143	0x3dd5a168	0.104311764
144	0xbd644df6	-0.05573841
145	0xbdf2f623	-0.11863353
146	0x3e964e36	0.29356545
147	0x3dea9ee3	0.114560865
148	0xbd548edf	-0.051894065
149	0x3e15999a	0.14609376
150	0xbe4f68b0	-0.20254779
151	0x3e2eb918	0.17062795
152	0xbd2c38d9	-0.0420464
153	0xbdbafb80	-0.09130001
154	0x3e0c397d	0.13693805
155	0x3d9732ef	0.07382762
156	0xbd975099	-0.0738842
157	0x38f9a12f	0.00011903268
158	0x3deb610c	0.114931196
159	0xbc033fd8	-0.008010827
160	0xbe2dd941	-0.16977407
161	0x3d9918a1	0.07475401
162	0x3e74b8f3	0.23898678
163	0x3d478706	0.048712753
164	0xbe2b75e5	-0.16744192
165	0x3ddf57d0	0.10905421
166	0xbc7c5d1a	-0.0154030565
167	0x3d8dc089	0.06921489
168	0xbc3367e2	-0.010950061
169	0x3d918ee0	0.07107329
170	0xbd956f54	-0.07296625
171	0x3d9d5e9f	0.07684063
172	0x3c32b00e	0.0109062325
173	0xbdf258dc	-0.11833355
174	0xb8ccfa28	-9.774073e-05
175	0xbc866e4e	-0.01641002
176	0xbdffbc3b	-0.12487074
177	0xbcf9f53c	-0.030512445
178	0x3d556211	0.052095477
179	0x3ba2d32a	0.0049690204
180	0x3db330e6	0.08749561
181	0xbca4d0f7	-0.020119173
182	0x3e24ad2b	0.16081683
183	0xbe106059	-0.14099254
184	0x3d2ca8b6	0.042153083
185	0xbe12b6a1	-0.1432748
186	0xbe2bbde5	-0.16771658
187	0xbd20e245	-0.039278287
188	0x3d61bd6c	0.055112287
189	0x3e6ce9e6	0.231361
190	0x3bc55a66	0.006022739
191	0xbda9eaa0	-0.08296704
192	0x3dab6e1d	0.08370612
193	0xbe0a6a78	-0.13517177
194	0x3e179868	0.14804232
195	0xbb91c13b	-0.0044480837
196	0x3e2ee7c2	0.17080596
197	0x3d959e61	0.07305599
198	0xbe09e536	-0.13466343
199	0x3d68f7fa	0.056877114
200	0x3de393b8	0.111121595
201	0xbe2f1da7	-0.17101155
202	0xbe246e64	-0.16057736
203	0x3dcfe960	0.101519346
204	0x3dd30fa3	0.10305717
205	0x3d3d8700	0.046271324
206	0x3e2741a4	0.16333634
207	0x3e121449	0.1426555
208	0xbe07037e	-0.13184926
209	0xbc97ed1a	-0.018545676
210	0xbdf109d0	-0.1176945
211	0xbe05a14d	-0.13049813
212	0xbdc20171	-0.09472931
213	0xbd582486	-0.052769206
214	0x3c14c178	0.00907933
215	0x3dacc6c8	0.08436352
216	0x3e19bc52	0.15013245
217	0x3d6fec81	0.058575157
218	0x3dfb1679	0.12260146
219	0x3b5d9a0e	0.0033813748
220	0x3dd2c4ab	0.10291418
221	0xbe37a9d9	-0.17935885
222	0xbd5ee631	-0.054418746
223	0x3e23c4c2	0.15993026
224	0x3dc46505	0.095895804
225	0xbdc1a774	-0.09455767
226	0xbdef1ec1	-0.11675788
227	0x3e0941d2	0.13404015
228	0x3bd5d1bb	0.006525246
229	0x3cd46dd2	0.025931273
230	0xbe3d7be1	-0.18504287
231	0x3d6016bf	0.054709192
232	0x3da42267	0.08014374
233	0xbdbafc34	-0.09130135
234	0xbe2b280b	-0.16714494
235	0x3c96dd15	0.018415967
236	0xbc247453	-0.0100374995
237	0x3e30ff7c	0.1728496
238	0x3e1f7660	0.155725
239	0xbe0355b8	-0.12825668
240	0x3db090a3	0.08621337
241	0x3dc1c376	0.09461109
242	0xbdb3a107	-0.08770948
243	0x3c143e5c	0.009048071
244	0x3c21f43d	0.009884891
245	0x3c919b4a	0.017774243
246	0x3e235570	0.1595056
247	0x3d48a05e	0.048981063
248	0x3dac4e8d	0.0841342
249	0x3dc6cdef	0.097072475
250	0xbe1467f2	-0.14492777
251	0x3d6891fc	0.056779847
252	0xbd240f1e	-0.04005348
253	0xbe0e7fe6	-0.13915977
254	0xbe0e096e	-0.13870785
255	0xbe106bbf	-0.14103602

encoder.layers.0.linear1.bias f4 [64]
0	0x3dce2787	0.10066133
1	0x3cc1087f	0.023563622
2	0xbd41d71d	-0.04732429
3	0xbe02fb96	-0.12791285
4	0xbd73948d	-0.05946784
5	0xbe056a0a	-0.13028732
6	0xbcc9026a	-0.024537284
7	0x3d397af0	0.045283258
8	0x3d566fe4	0.0523528
9	0x3dcc6ce0	0.09981704
10	0x3e21f22d	0.15815039
11	0x3e13327d	0.14374729
12	0x3d642c82	0.05570651
13	0xbc9fb272	-0.019494269
14	0x3c6c23fd	0.014412877
15	0x3cac64ba	0.021044124
16	0xbe55dfd9	-0.20886172
17	0xbdd22800	-0.10261536
18	0x3dab5938	0.083666265
19	0xbd634976	-0.05548998
20	0x3d98dbd7	0.07463806
21	0xbd999672	-0.07499398
22	0xbdb229a1	-0.08699346
23	0xbd441f25	-0.047881264
24	0x3c438203	0.011932853
25	0xbd6a66b6	-0.05722686
26	0xbd72135e	-0.0591005
27	0xbdfe9ac4	-0.12431863
28	0x3e05cdd2	0.13066795
29	0xbe33538a	-0.17512336
30	0x3dbdc4ab	0.09266027
31	0x3dbc84fd	0.09205053
32	0xbe0a24fa	-0.13490668
33	0xbdad9a73	-0.084767245
34	0xbc4fe7c4	-0.012689535
35	0x3dedc6fd	0.1161022
36	0x3e2e77a4	0.17037827
37	0xbc9d90fa	-0.01923417
38	0x3dc69814	0.09696975
39	0xbdedeb0c	-0.11617097
40	0x3d8af180	0.06784344
41	0x3d0aa396	0.033847414
42	0xbdf3025d	-0.11865685
43	0xbe16c631	-0.14724042
44	0x3b9e0b6b	0.0048231385
45	0xbd755b3c	-0.05990146
46	0x3dd911e4	0.105991155
47	0xbd969f1f	-0.07354569
48	0xbc94c37d	-0.018159622
49	0xbd87f2ad	-0.066380836
50	0x3bb427c4	0.0054979045
51	0xbd6e3611	-0.05815703
52	0x3e150ed9	0.14556445
53	0x3dbfaac8	0.09358746
54	0x3dbc1725	0.09184102
55	0x3d7a4e73	0.06110997
56	0x3d1712d1	0.03688318
57	0x3e0b6cda	0.13615742
58	0x3d608c32	0.0548212
59	0xbdb3519b	-0.087557994
60	0x3d87c04e	0.06628476
61	0x3acf24b7	0.0015803789
62	0x3d5496e1	0.0519017
63	0xbdc16305	-0.094427146
