pabbo_method/results/PABBO/PABBO_GP1D_quick_20251103_233048/ckpt.tar (torch, 517729 bytes, 162 tensors)

x_embedders.0.0.weight f4 [32, 1]
000000 77 4f 80 3f e8 7e a7 3e 01 e5 49 3f e5 1d 73 3f
       1.0024251 0.3271401 0.7886506 0.9496749
000010 bc 2f 72 bf d2 4f 82 3e 9d 0f 60 3f a4 b9 5c 3f
       -0.94604087 0.25451523 0.87523824 0.86220765
000020 a7 51 d2 3e ba ff 78 bf 4d 9d 65 bf 40 64 fe bd
       0.4107792 -0.9726521 -0.89693147 -0.12421465
000030 76 91 2d bf 1e 07 0b bf f1 69 51 3d 48 41 4b be
       -0.6780008 -0.54307735 0.051126424 -0.19849122
000040 40 a5 37 3d f3 c1 5e 3f 5e eb 61 bf 06 e2 c3 3b
       0.04483533 0.87014693 -0.88249767 0.005977872
000050 90 6f ea be 7f 8c 3e bf 78 60 3d bf 70 e1 72 be
       -0.4578824 -0.7443313 -0.73975325 -0.2371881
000060 9e d9 89 3f 10 c4 f3 bd f0 44 ac bd 36 25 30 3f
       1.0769536 -0.1190263 -0.08411586 0.6880678
000070 a9 f5 e3 be 68 29 4b be 5d 11 99 3d ce a7 d5 bd
       -0.4452336 -0.19840014 0.07474015 -0.10432397

x_embedders.0.0.bias f4 [32]
000000 ae 91 5e 3f b0 20 b7 be bd 57 3d 3f 66 80 10 be
       0.8694104 -0.35767126 0.73962003 -0.1411148
000010 ee c0 f1 3e 71 69 b8 3e d1 ce 6c 3e d2 a9 37 3f
       0.47217506 0.36017945 0.23125769 0.717435
000020 36 0d 49 3f 1b de 70 3e 4e db 18 bf 08 7f 47 be
       0.78535783 0.23522227 -0.5970963 -0.19482052
000030 65 69 48 3f d0 7b 3a bf 5b cf dd 3e b8 ba 26 bf
       0.7828582 -0.7284517 0.43322262 -0.6512866
000040 b8 f6 2f bf d5 dd f4 be b9 ec e9 be df de 5b 3f
       -0.6873584 -0.47825494 -0.45688418 0.8588695
000050 d0 2f 2f bf f5 e2 3e bf 8a 38 4a bf f0 27 64 bf
       -0.6843233 -0.7456506 -0.7899252 -0.8912344
000060 90 67 3b bf 00 54 57 be c0 97 f2 be de 2e e3 3e
       -0.732049 -0.21028137 -0.473814 0.44371694
000070 02 4f 32 3f 24 2c 63 3f 34 43 b0 3e c6 24 b1 3e
       0.69651806 0.8873923 0.34426272 0.34598368

x_embedders.0.2.weight f4 [32, 32]
000000 2e 1b 1d bd 1c b1 8d 3d 7f c1 15 3d 1c 94 0e bd
       -0.038356 0.069185466 0.036561485 -0.034809217
000010 3d ba ee bd a8 da 5e 3d c7 49 b7 bd 60 82 4f be
       -0.11656616 0.054407746 -0.08949619 -0.20264578
000020 9c 4d ec bd db 64 5e 3d be 78 ab 3d 0e 7e 28 be
       -0.1153824 0.054295402 0.08372639 -0.16454336
000030 ab 30 12 3e 49 38 de bd 80 a8 e8 bd a0 10 ad 3d
       0.14276378 -0.10850579 -0.11360264 0.084504366
000040 55 91 1d be 6f 24 04 be 7e a9 18 3e 59 2f 9f bd
       -0.15387471 -0.12904523 0.14908406 -0.07772703
000050 4c 44 21 be 56 52 05 bd 45 83 02 3e 98 5e bc 3d
       -0.1574871 -0.032549225 0.12745388 0.0919773
000060 c3 da ff 3c 0d ee 4a 3d 27 d0 79 3b b4 0d c7 3c
       0.031232243 0.04954343 0.0038118453 0.024298526
000070 2c d6 ea 3c 84 1a 52 3d c2 52 e5 3d f5 ec 9c 3c
       0.028666578 0.05129482 0.111974254 0.019155959
000080 b7 14 28 bd 3e a6 a9 3d 75 ea 37 be 92 12 32 be
       -0.04103538 0.08283661 -0.17960532 -0.17389897
000090 d5 ef 9f 3d c8 00 26 3d 5b 78 92 bd d6 e7 8e bc
       0.07809416 0.04052809 -0.07151862 -0.017444532
0000a0 31 85 05 3e a1 87 f9 3d e2 e5 4c 3e e8 03 32 be
       0.1303909 0.12184072 0.20009568 -0.17384303
0000b0 cf ff 8e 3c a5 6f ff 3b 91 64 9c 3d 3a 04 12 bd
       0.017455963 0.0077952915 0.07636369 -0.035648562
0000c0 1c a5 ca 3d 7f 1a 37 3e 1a a0 5b 3e ec 8e 26 bd
       0.09894773 0.17881201 0.21447793 -0.040663645
0000d0 14 d3 27 bd 9e f4 ce 3c 92 33 e4 bc 58 8a 1d 3d
       -0.040972784 0.025263127 -0.027856622 0.038462013
0000e0 4e 4a 4d 3e 0c 37 b4 3d b2 b4 e2 bd 61 2a b2 3d
       0.20047876 0.08799562 -0.11069621 0.086994894
0000f0 86 8e 15 3e cb 55 67 3c 0b 97 ed bd 36 9c 6a 3d
       0.1460515 0.014119576 -0.11601075 0.05727788
000100 92 55 3a 3e 02 95 8e bd 4a f2 19 3e 71 30 eb 3d
       0.18196705 -0.06962015 0.15033832 0.11483849
000110 41 bc d8 bd de 4a 16 be 6b 5d 84 3d b3 6f 24 3e
       -0.105827816 -0.14676997 0.064631306 0.16058235
000120 ff 7b 81 bd 19 58 6f be 0f d9 f2 bc 48 77 d2 bc
       -0.063224785 -0.2337345 -0.029644517 -0.025691643
000130 33 7b a9 3d 6a 64 a1 3d f7 36 7b 3c f3 39 a6 3c
       0.082754515 0.078804806 0.015332929 0.020291304
000140 c7 f7 9d bd 3d 16 0c bd 6a c6 ba bd 7f a9 09 be
       -0.077132754 -0.034200896 -0.09119876 -0.13443564
000150 70 ee 0a 3e 60 b2 06 be a6 26 16 3e 18 66 13 3e
       0.13567519 -0.13153982 0.1466318 0.14394414
000160 49 f1 9f 3c d5 61 bc 3c 55 1a e9 3d 6d 63 b5 3d
       0.019524233 0.022995869 0.113819756 0.088568546
000170 97 7b 53 bd 71 26 12 be 75 df 11 3e ed 6b 27 be
       -0.051631536 -0.14272477 0.14245398 -0.16349764
000180 10 33 83 3d c8 4d 22 be 82 90 1e 3d 24 e3 b5 bd
       0.06406224 -0.15849984 0.038712032 -0.08881214
000190 55 63 58 3e e8 21 d5 bd 12 2e 1b bd 9f 08 29 3e
       0.21131642 -0.10406858 -0.037885733 0.16507195
0001a0 f8 c5 1a be b4 ce 2b 3e 68 3b 5f bb 20 af b2 bd
       -0.15114582 0.1677807 -0.0034062508 -0.08724809
0001b0 78 f3 12 3d 67 72 a7 3c 88 e8 7e bd 12 ef 28 be
       0.03587672 0.020440293 -0.062233478 -0.16497448
0001c0 fb 64 ec bc 04 be 2d bd 01 8f 32 be 01 9c 45 bd
       -0.028856745 -0.04241754 -0.17437364 -0.04824448
0001d0 87 86 f0 bd fe a1 5c bd 7e f6 63 3d 4b 2e 20 3e
       -0.11744409 -0.053865425 0.055654995 0.1564266
0001e0 b7 79 ae 3d f4 d4 bf bd 14 de 06 be c9 a4 93 bd
       0.08519309 -0.093667895 -0.13170654 -0.07209165
0001f0 de 4a a5 3d 60 c7 2b bd 62 79 01 be c5 da 43 3e
       0.080709204 -0.041938186 -0.1264396 0.19126423
000200 58 df 12 be 71 70 25 be 05 35 98 bc e5 e9 bb 3c
       -0.14343011 -0.16156174 -0.01857997 0.022938678
000210 23 74 f0 3d 29 27 ba 3b 63 4b 89 bb 66 08 0c be
       0.11740901 0.005680938 -0.004189895 -0.13675079
000220 5b 44 59 3d 95 a9 b8 bc 26 e6 98 bc 59 b4 32 be
       0.053043704 -0.0225418 -0.01866443 -0.1745161
000230 6d e5 ad bd 14 21 07 bd 36 13 0a 3c c8 72 ee bd
       -0.08491025 -0.03299053 0.008427432 -0.116429865
000240 11 d2 df 3d 6f ad 55 3c 86 dc ba 3d c3 71 58 3c
       0.10928739 0.013041838 0.09124093 0.013210717
000250 ac 85 a9 3d 9a 01 b8 3d 0d 50 34 be 65 33 a7 bd
       0.08277449 0.089846805 -0.17608662 -0.081640996
000260 74 87 9f 3d 10 13 32 3d 91 6e dc 3d cf a7 3e 3c
       0.077895075 0.04347521 0.10763276 0.011636688
000270 c0 65 ba 3d a4 9e 45 3c 2f 37 bb 3d 47 f4 d6 bd
       0.091014385 0.012061749 0.09141385 -0.10495811
000280 78 d4 b2 3d 2a 85 16 3d fc 0f 06 3e a2 90 ac bd
       0.087319314 0.03674809 0.13092035 -0.08426024
000290 4a eb 0b be e9 fa db 3c 27 03 42 be 83 dc d0 bd
       -0.13663974 0.026853042 -0.18946515 -0.10198309
0002a0 c3 48 29 3e cc 1f 2f be 8e 85 03 3d 91 38 a9 bd
       0.16531663 -0.17101973 0.03210979 -0.08262742
0002b0 8c 90 fb 3c 0d c1 61 bd e9 d4 04 3e 5c 6f 21 be
       0.030708574 -0.05511575 0.12971844 -0.15765136
0002c0 c4 76 09 3e 3e 0b ba be fe 6e 98 be f9 63 2c be
       0.13424212 -0.36336702 -0.2977218 -0.16835012
0002d0 62 8c f4 bd e6 d1 e2 bc b3 4d e4 bd 66 e3 e4 bd
       -0.119408384 -0.027687978 -0.111476324 -0.11176185
0002e0 44 4d bf be 90 b0 14 3e b2 9b c6 bd 4c 6f 12 be
       -0.37363636 0.14520478 -0.09697665 -0.14300269
0002f0 36 47 29 3e c7 11 e6 3c 3b df 27 3b c2 87 ec bd
       0.16531071 0.028084649 0.0025615233 -0.11549331
000300 2a 4e b1 bb 76 27 c0 bd b8 80 b7 3d 0b e4 77 be
       -0.005410929 -0.093825266 0.08960098 -0.24208085
000310 d1 05 23 be 33 97 52 3d 4a a8 5d be 36 01 92 3c
       -0.15920188 0.051413726 -0.21646228 0.017822843
000320 30 d5 b8 3d 04 8b f0 bd 83 9f a2 be 37 70 b2 bd
       0.09025037 -0.11745265 -0.31762323 -0.087128095
000330 c6 a9 18 3e 89 fd 54 3d f9 84 d3 3d 46 e6 28 bd
       0.14908513 0.051999602 0.10328097 -0.04123523
000340 09 26 7b 3d 2b 62 c2 be 4a a9 6a be 93 e1 ea bc
       0.06131557 -0.3796552 -0.22916141 -0.028672015
000350 0d 6c 2d bb 9e 43 eb bd 29 f8 40 3c 27 f6 cc 3d
       -0.0026462108 -0.11487506 0.011777916 0.10007887
000360 dc f8 ba bd 53 66 84 3d 23 fd 7a 3d 48 24 b8 bd
       -0.091294974 0.06464829 0.061276566 -0.08991295
000370 c2 93 9a bc 92 f4 cd bc 0b a3 b6 bd 66 13 f8 bd
       -0.018869285 -0.025141034 -0.08917817 -0.12113075
000380 95 1a 36 be 2c 7b 30 3b b8 1f 9f bd 22 86 ef 3d
       -0.17783578 0.0026928885 -0.07769722 0.11695506
000390 85 7a 03 bd 85 f9 d1 3d 10 12 b1 3d 89 5d 29 be
       -0.032099266 0.1025267 0.08646023 -0.16539587
0003a0 b7 a9 cb bc 5a 9b a3 3d 90 6c c1 3e b0 52 52 3d
       -0.0248612 0.07988615 0.3777814 0.05134839
0003b0 c1 23 69 3d af 68 61 bc a7 33 bc 3d e9 28 66 3c
       0.056918863 -0.013757869 0.091895394 0.01404784
0003c0 f7 d1 2f 3e 78 e9 74 3e b3 83 df 3d 3e b3 22 be
       0.17169939 0.23917186 0.109137915 -0.15888688
0003d0 3d 92 bb bd b1 57 a0 3d 97 1d 23 3e 77 1b be bc
       -0.09158752 0.07829226 0.15929256 -0.023206456
0003e0 05 6a df 3d 24 d5 13 3e aa 5c 24 3e 11 6e f5 bc
       0.109088935 0.14436775 0.16050974 -0.02995971
0003f0 31 49 35 be fd b6 1a be 8b b5 ac 3d 26 aa d3 bc
       -0.17703702 -0.15108867 0.08433064 -0.025837969

x_embedders.0.2.bias f4 [32]
000000 9f 1f 47 bd a3 3c 34 3e 1d a1 bc bd d4 24 b5 3d
       -0.04861414 0.17601256 -0.092104174 0.08844915
000010 8d cf 97 3d c5 48 29 bd a2 7d 0d 3e 62 05 18 bd
       0.07412634 -0.041329164 0.13817456 -0.03711451
000020 47 b4 eb 3c ce 73 a4 bb 36 87 4f 3d 22 3b d0 bd
       0.028772486 -0.005018688 0.050666057 -0.10167529
000030 63 30 5d 3b a3 2c b7 3d 0b 4e 8f bd b9 0d d8 3d
       0.0033750765 0.08944061 -0.069973074 0.105494924
000040 57 0a 6e bb 03 af 07 3c e8 14 e4 3d 13 13 a1 3d
       -0.003632208 0.008281472 0.111368 0.07864966
000050 8f 7e 4d 3e 29 fd bc 3b 61 3f 3b 3d 45 37 20 be
       0.2006781 0.0057674837 0.04571474 -0.15646084
000060 bf 7c bd bd a6 28 48 bd 75 a7 01 be 50 9c 70 bd
       -0.09252309 -0.04886689 -0.12661536 -0.05874282
000070 89 c5 00 b9 68 96 91 bd 11 21 22 3e 9c 35 22 3e
       -0.00012280619 -0.07108766 0.15832926 0.15840763

x_embedders.1.0.weight f4 [32, 1]
000000 4f 80 b7 3c 48 bd 7a be 82 46 6a 3f 68 55 32 be
       0.02240005 -0.24486268 0.91513836 -0.17415392
000010 84 8e 15 bf 48 9f 60 bf 62 d7 8d 3f b2 9e 87 3f
       -0.58420587 -0.87743044 1.1081355 1.0595305
000020 bd b2 02 3f b0 4f 59 bf 9e 44 8b bf ea 14 f8 3e
       0.5105398 -0.8488722 -1.0880315 0.48453456
000030 4e c0 20 3f 82 af 35 bf 6a 01 4c 3e e9 8e 48 3f
       0.62793434 -0.7097093 0.19922414 0.78343064
000040 30 c1 64 bf 11 10 51 bf 38 6a 48 3f 0e ac 1b 3f
       -0.8935728 -0.8166514 0.78287077 0.6080941
000050 a3 40 07 3f f8 55 50 bf 00 09 eb bc 7a 89 3d 3f
       0.52833 -0.8138118 -0.028690815 0.740379
000060 6c a1 86 3f 43 08 46 bf 82 75 67 3f 48 e4 0c 3f
       1.0518012 -0.77356356 0.9041368 0.5503583
000070 2e b5 19 be e3 bf 48 bf 76 fb 6d 3e 53 5e 4b 3f
       -0.15010521 -0.78417796 0.23240456 0.794408

x_embedders.1.0.bias f4 [32]
000000 91 dd 37 3f 60 1d cc be 97 7c 1b 3f 16 88 7a bf
       0.7182246 -0.3986616 0.60736984 -0.978639
000010 72 cd 2e 3e 2f a7 41 3f b0 c7 0d 3f 85 87 3d bf
       0.17070559 0.75645727 0.55382824 -0.7403491
000020 38 c6 40 3f 6d a0 8b 3c 6b 91 3b 3f 19 5a db 3e
       0.7530246 0.01704427 0.73268765 0.42842177
000030 a4 b1 5e 3f 00 6a 01 be e8 af 5f 3f 15 2f 85 3e
       0.8698981 -0.12638092 0.87377787 0.26012483
000040 83 ae c5 be 85 87 53 3f ef 59 ea 3d 4e 2a 29 3f
       -0.38609704 0.8262866 0.11442935 0.66080177
000050 7e f0 a8 bd 0a d8 cb be cc e3 ec be 45 07 69 3f
       -0.08248995 -0.39813262 -0.46267545 0.9102672
000060 b0 3f ab be 39 17 e4 be 35 6e 05 bf 42 b6 10 3f
       -0.33447027 -0.44548967 -0.5212129 0.56528103
000070 30 85 00 3e 57 11 6c 3f ed 14 25 3e 86 cd c8 be
       0.12550807 0.9221396 0.16121264 -0.39219302

x_embedders.1.2.weight f4 [32, 32]
000000 00 83 e6 3c ee f1 f2 bb 74 69 1e 3e 49 d4 4a 3d
       0.028138638 -0.007414094 0.15469915 0.049518857
000010 38 b1 ee bd 97 f3 de bd d3 fb 8f bc c4 4e 62 bd
       -0.116548955 -0.10886305 -0.017576134 -0.055250898
000020 57 f4 81 bd b1 86 51 be 56 33 1a be c6 dd 88 bd
       -0.06345432 -0.20461537 -0.15058646 -0.06682925
000030 d1 fa c4 bc 6a 3a 8d 3d c5 16 27 be 6a a2 ef bd
       -0.02404538 0.06895907 -0.1631728 -0.117009
000040 4b a3 23 be 5d bb c1 bc 4c b3 f3 bd 95 a5 a6 3c
       -0.1598026 -0.023648912 -0.118994325 0.020342628
000050 28 18 84 bd 42 ff 40 3b bc d3 26 be 53 0b 97 3c
       -0.0644992 0.002944902 -0.16291708 0.018438017
000060 2c e9 ca 3d 6e 80 29 3e 6e af 55 be 9c 86 2e be
       0.09907755 0.16552898 -0.20867702 -0.17043537
000070 48 f4 7e 3d 20 98 32 be f0 e4 f8 bd 53 76 54 be
       0.062244684 -0.17440844 -0.12153041 -0.20748262
000080 66 c2 21 be ab 40 15 be 5e f2 08 be b5 b2 a9 3d
       -0.15796813 -0.1457545 -0.13373706 0.08286039
000090 db 48 94 bd 60 4a 44 bd 25 4f 0c be 45 30 b7 bd
       -0.072404586 -0.047922492 -0.13702066 -0.089447536
0000a0 59 f5 04 be d3 0f 56 be 53 57 ac 3d e5 3e 0a 3e
       -0.12984218 -0.20904474 0.08415093 0.13500555
0000b0 12 80 b6 3d 6a 38 a8 3d d6 00 22 3d 78 fc 39 bc
       0.08911146 0.08213885 0.03955158 -0.011351697
0000c0 49 4b c6 bd 42 1a 2b bc 2c 0a d4 bd f0 a4 c8 3d
       -0.09682328 -0.010443272 -0.10353503 0.09797084
0000d0 b9 3f 71 be 26 9c cb bd e9 be 2e bd aa 33 22 3c
       -0.23559465 -0.09941892 -0.042662535 0.009900013
0000e0 3d 80 52 be 82 c5 72 bd 1b 92 85 be ee fa 2f be
       -0.20556732 -0.05927039 -0.26088032 -0.17185566
0000f0 f2 4b 30 bd 18 6a 1f 3d 5b d4 03 3e d9 2b 8c be
       -0.043041177 0.03891954 0.12873976 -0.27377203
000100 0d 34 8f bd b6 1c fd bd c0 e3 3e be 64 6a ed 3d
       -0.0699235 -0.12358992 -0.18641567 0.11592558
000110 fe 0d ba 3d 9d 22 1b 3d 99 64 d9 3d 08 8b 8c be
       0.090847 0.037874807 0.106148906 -0.27449822
000120 1a 53 bc 3d bd e0 d2 bd 5e 15 2a 3d 77 85 05 be
       0.09195538 -0.10296772 0.041524284 -0.13039194
000130 7e a3 aa bd 91 1d be 3c b3 87 20 3e b3 4e 05 3d
       -0.08331965 0.023207458 0.15676765 0.032545757
000140 3d 4c d4 3d 34 9d 68 3e 6c 98 0f 3d 1e 4d 07 be
       0.10366104 0.22716218 0.03505747 -0.13213012
000150 c1 81 ce bd de 86 f2 bc d8 e3 ce bd 5a 9d 1d be
       -0.10083342 -0.029605325 -0.101020515 -0.15392056
000160 e1 65 54 be bf 36 63 bd b6 7e a6 bd 63 ce 19 3e
       -0.20741989 -0.05547213 -0.08129637 0.15020137
000170 46 b8 16 3e e2 00 e5 3d 16 9e 02 3c 42 9d ad 3d
       0.14718732 0.11181809 0.007972261 0.0847726
000180 df 64 90 bd ee 7a 1a 3e bd 7c ff bd 6c 9d 4e 3d
       -0.0705049 0.15085956 -0.12474964 0.050443098
000190 34 31 93 3d 73 5b 2d be c2 47 f2 3c ea b1 54 bc
       0.07187119 -0.16929416 0.029575232 -0.012981871
0001a0 50 3c fd bc cc 51 31 be c6 7a 16 be 66 4d ad 3d
       -0.030912548 -0.1731636 -0.14695272 0.08462028
0001b0 1f fd 3b bd c1 21 38 be 34 87 d1 3d a7 75 13 3e
       -0.045895692 -0.17981626 0.10230866 0.1440035
0001c0 3c c1 91 bd 0e 63 88 3b b4 ea e9 3d 7a 8a 58 bd
       -0.07116935 0.004162199 0.11421719 -0.052866437
0001d0 34 fd 4a ba 1e 28 d1 bd 41 d4 22 bd 0f b8 ca 3b
       -0.00077434187 -0.1021273 -0.039753202 0.0061864923
0001e0 ca a9 11 3d c1 90 15 3c 8a b1 d5 bd f9 83 b9 3d
       0.035562314 0.00912875 -0.104342535 0.09058375
0001f0 e6 dd a6 3c 4c 63 1e be 71 6f 54 3e a6 c9 56 be
       0.020369481 -0.15467566 0.20745637 -0.2097536
000200 6b f2 d3 3c a7 f6 84 3d f9 51 78 3d a4 d4 bf 3d
       0.02587243 0.06492358 0.06062505 0.0936673
000210 1e f1 06 bd 7c a2 fd 3d 39 ad 77 bd 84 0e 1c 3c
       -0.03294479 0.12384507 -0.060467932 0.009524945
000220 2c f7 c2 3d 4e f8 ac bb f4 ed 93 3d 1a 31 b3 bd
       0.095198005 -0.0052786237 0.0722312 -0.087496
000230 18 db b7 bd 9c b4 27 bd 88 30 01 3e d9 54 ae 3d
       -0.08977336 -0.040943727 0.1261617 0.08512277
000240 9f e5 b5 bd 65 0a a3 bd 2d d6 fb bc 0d 76 4a bd
       -0.088816874 -0.07960967 -0.030741775 -0.04942899
000250 b6 9a 72 3e 68 dc 13 3e 0d 1e f2 bd a7 8f fc bd
       0.2369183 0.14439547 -0.11822138 -0.12332087
000260 90 20 35 3e c0 8b 2d 3e a2 83 8d bd 32 f2 01 bc
       0.17688203 0.16947842 -0.069098726 -0.007931279
000270 31 31 32 bd 82 d6 34 be c1 9b 2c 3e eb c8 17 3c
       -0.043503944 -0.17659953 0.1685629 0.009264211
000280 bd ad 5e 3d 0d f5 75 bd a7 ae 9f 3d 27 26 17 3e
       0.05436491 -0.06004815 0.07796984 0.14760648
000290 5e 3a 87 3d 74 46 5a 3e 57 1b b2 bd 71 54 29 3d
       0.066029295 0.21315938 -0.08696621 0.041340295
0002a0 c8 35 3f bd c1 aa 20 3e 9f a3 c7 3d 94 0b 56 bc
       -0.04668215 0.15690137 0.09748005 -0.013064284
0002b0 ba ed 09 3c e4 6f e9 3c 58 93 21 bd 6e 62 bd 3d
       0.008418495 0.028495736 -0.03944716 0.092472896
0002c0 7a a5 0d 3d 9a c7 62 3e e6 a0 3b be b4 64 22 be
       0.03458164 0.22146454 -0.18323097 -0.15858728
0002d0 e7 a8 28 3e 37 7d 93 3d 16 7f 45 3d f8 48 dd bd
       0.16470681 0.07201617 0.0482169 -0.10804933
0002e0 1a 2f 10 bd b7 2c a7 3d c9 34 45 3e 92 4f 39 be
       -0.03520117 0.081628256 0.19258417 -0.1809676
0002f0 f8 ac 5c 3e 9d cd cc 3c 1f 5a 82 bd e7 04 77 3e
       0.21550357 0.025000388 -0.063648455 0.24122964
000300 40 29 96 3d 4e ab 16 3e 0c 66 dc 3c 0d 50 36 3d
       0.073320866 0.14713785 0.026904128 0.044509936
000310 4b bb 19 be a1 a2 14 be 7c 12 1e 3e 59 94 63 3c
       -0.15012853 -0.14515163 0.15436739 0.013890349
000320 45 00 bf 3d 3d f4 f1 bc 97 97 09 3e e9 52 16 bb
       0.09326223 -0.029535407 0.13436733 -0.0022937602
000330 5a 34 a7 bd 5b bb 20 3d 88 9f b7 bd 05 2c 18 bd
       -0.08164282 0.039241176 -0.08965975 -0.037151355
000340 82 2a b8 3d fa 55 d1 3c 2d 36 84 bd 80 98 e9 3d
       0.08992483 0.025553692 -0.06455646 0.1140604
000350 a7 f1 0c 3c 8b 8e 22 bd c7 3e 10 be a3 ad ad 3d
       0.008602536 -0.03968672 -0.14086448 0.08480384
000360 ef 3a 4a 3e e9 45 76 3e 67 5b 0e 3e 6c b7 3b bd
       0.19749044 0.24050106 0.13902055 -0.04582922
000370 be 54 45 bd 76 13 e6 bd 7a 20 89 3d ae 7d 35 3e
       -0.04817652 -0.11234181 0.066956475 0.17723724
000380 e1 93 01 3d 5e 72 21 3e f2 91 2a be 6b 2e 47 3d
       0.03163517 0.15766284 -0.16657236 0.048628252
000390 2b 1b ce bd d7 1e 8a bd 79 dc 27 3e a4 88 b3 3d
       -0.10063776 -0.067441635 0.16392697 0.087662965
0003a0 9c 06 65 bd bf 0c fb 3d 31 20 15 3e 5d 78 bb bc
       -0.055914506 0.122582905 0.14563061 -0.022884542
0003b0 36 9b 8d 3c 33 f8 09 be a7 0b 8d 3d e8 18 19 3c
       0.017285924 -0.13473587 0.06886988 0.009344317
0003c0 b5 fc 21 3e 0e e7 47 bd 8b 41 10 be b9 78 d0 bc
       0.15819056 -0.048804335 -0.14087503 -0.02544819
0003d0 e4 b7 9f bd 2b d1 fe bd 09 ae 9a 3d 4f 58 e9 b9
       -0.07798746 -0.124422394 0.07552726 -0.00044507018
0003e0 49 dc cc 3d e6 89 94 bd 60 df 2e be 03 ec bf 3d
       0.100029536 -0.072528645 -0.17077398 0.093711875
0003f0 42 88 65 3d 6a a0 04 3d 08 eb b4 3d 64 e1 17 be
       0.05603815 0.032379545 0.08833891 -0.14832073

x_embedders.1.2.bias f4 [32]
000000 db 36 34 be bd a8 1a 3e 90 00 91 bb 29 fa be 3d
       -0.1759905 0.15103431 -0.004425116 0.09325058
000010 ab f2 2a be 0c 2c 89 3c c5 f1 1d be 09 16 61 bd
       -0.16694133 0.016744636 -0.15424259 -0.054952655
000020 ae 39 19 3e 8f 9d 84 bd 67 f2 97 bd a5 7d 0c 3e
       0.1496341 -0.064753644 -0.074192815 0.13719805
000030 2a f1 95 bd 68 60 e1 3d 9f 4f 44 be a1 fa 97 3d
       -0.07321389 0.11004716 -0.19170998 0.074208505
000040 5d dc d6 3d 91 8c 0f 3e 85 ce 1f be 85 24 0d 3e
       0.1049125 0.14018466 -0.15606125 0.13783462
000050 ab cc 3f 3e fd 59 8c bd 76 36 ca 3c a5 38 06 be
       0.18730418 -0.068531014 0.024684172 -0.13107546
000060 df 6b 93 3d 8d 00 82 3d 93 32 02 be 51 fa 35 be
       0.07198309 0.06347761 -0.12714605 -0.1777127
000070 47 99 88 3d f5 ec d6 bd b7 b5 d2 bd 77 75 34 be
       0.0666986 -0.10494415 -0.102885656 -0.17622934

c_embedder.weight f4 [3, 32]
000000 a2 dc bc 3f 17 ff 02 be 43 03 a9 3f f3 a9 e8 bf
       1.4754832 -0.12792622 1.320412 -1.8176864
000010 25 19 a0 bf da de e7 bf b7 3b cd bd 7e 1e 15 3e
       -1.2507674 -1.8114884 -0.10021155 0.14562413
000020 19 c9 a7 bf da d6 0d 40 f9 6b 7c bd 6c 58 36 bf
       -1.3108245 2.2162385 -0.06162641 -0.7122867
000030 b7 98 1a 40 41 73 c1 3f d2 14 d5 3f 6f 1b b6 3e
       2.415571 1.5113298 1.6646979 0.35567805
000040 8a ae 81 3f 9d a2 ae bf 25 88 ad bf 9d 22 6e be
       1.013139 -1.3643376 -1.3557173 -0.23255391
000050 f9 03 ea bd d6 dd 78 be c6 08 c8 bd f5 5a de bf
       -0.11426539 -0.24303374 -0.097672984 -1.7371508
000060 c0 b1 8d 3f 80 e7 37 3f 1a 34 c0 3f 84 fb 3a 3d
       1.106987 0.71837616 1.50159 0.04565002
000070 72 43 98 be d7 94 57 3f 11 85 00 c0 7d 86 c8 3f
       -0.29738957 0.84211487 -2.0081217 1.5666043
000080 4f c3 9b bd a9 53 9d be 88 d8 a7 3e 54 61 c1 3e
       -0.076056115 -0.3072789 0.32782388 0.37769568
000090 c1 eb 8f 3e c8 79 a5 3e 9d 4a b1 3f 5c 65 0e 3f
       0.28109553 0.32319474 1.3850895 0.5562341
0000a0 64 19 a4 bf 97 f6 f5 bf 1f f9 1b c0 85 84 46 bf
       -1.2820249 -1.9215878 -2.4370801 -0.7754596
0000b0 0b f4 e9 be 35 99 69 bf c5 d0 b2 3f 19 43 e0 3f
       -0.45694003 -0.912494 1.3969961 1.7520477
0000c0 28 c5 61 3e 79 0a 95 bd 62 31 b9 bf 68 eb 5f bf
       0.22047865 -0.07277388 -1.4468195 -0.87468576
0000d0 3c f5 4d bf be d8 06 bf ec de 88 bf 0a 25 dc 3f
       -0.8045232 -0.5267447 -1.069303 1.7198803
0000e0 50 91 ef bd 68 3e 87 3e 04 64 92 3f 03 9a 39 3e
       -0.11697638 0.264148 1.1436772 0.18125157
0000f0 ea e6 68 3f 5c 56 5c 3e d0 31 1f bf 18 89 79 3f
       0.90977347 0.21517318 -0.6218538 0.97474813
000100 8f c3 4f 3f 33 88 fe 3e ca c2 58 3f be b4 d5 3f
       0.81157774 0.49713287 0.84672225 1.6695783
000110 7d f0 8d 3d f6 c7 10 c0 a7 cb c9 3d 03 68 d1 bf
       0.06930635 -2.2622046 0.09853297 -1.6359867
000120 0f e6 d7 3e 56 3f 4f 3e 35 27 51 bf 10 c4 37 3e
       0.42167708 0.20239004 -0.8170045 0.17945886
000130 40 a4 c6 3c 8a cf 14 bf a2 8b 99 3c 20 b7 9b 3c
       0.024248242 -0.5812918 0.01874334 0.01900822
000140 b7 a4 e7 3e ee 25 62 bf 5f 33 3d 3f b4 cd 85 be
       0.45242855 -0.88339126 0.7390651 -0.26133502
000150 b8 51 22 3f 55 16 77 be 0c f5 4d bf 91 62 16 3e
       0.6340594 -0.24129613 -0.80452037 0.14686038
000160 db da 8c bf 5f 56 c9 bf 1c bb 82 be d9 41 49 bf
       -1.1004289 -1.5729483 -0.25533378 -0.786161
000170 2a c1 14 3f 63 78 ba be e2 31 52 bf a6 96 2a bf
       0.58107245 -0.36419973 -0.82107365 -0.6663612

encoder.layers.0.self_attn.in_proj_weight f4 [96, 32]
000000 e3 00 c9 3b 7a 3d 1b be eb 89 c4 3d 38 58 09 ba
       0.006134139 -0.1516017 0.09596618 -0.0005239281
000010 52 9e 04 be 07 91 a0 3d c4 8f 5d be 9c 5c 8c bc
       -0.1295102 0.07840162 -0.21636873 -0.017134003
000020 b0 43 00 bc 25 01 4f bd e2 57 af 3d 6e 43 21 be
       -0.007828638 -0.0505382 0.08561684 -0.15748379
000030 6a 28 51 3e 84 aa 0d be ed 57 56 3e 5f 12 21 bd
       0.20425573 -0.13834578 0.20931979 -0.03932416
000040 a5 54 e4 3c eb b3 02 bd 02 21 56 3e 99 c8 58 3e
       0.027872393 -0.031909864 0.20911029 0.21170272
000050 d9 92 d6 ba c2 3f 48 3e 97 e6 37 3c 23 be d3 3b
       -0.0016370668 0.19555572 0.0112244105 0.006461875
000060 c7 01 63 be 9e 0c 17 be da 74 64 be 5d c2 6c 3e
       -0.22168647 -0.14750907 -0.223102 0.23121019
000070 94 c2 18 3b f6 92 50 3e f8 c3 2f 3e 0b 54 9d 3d
       0.0023309337 0.20368561 0.171646 0.076820455
000080 30 9d 97 3c a0 28 f6 3d 7b eb 3c be 6c aa 0c be
       0.01850757 0.12019467 -0.18449204 -0.13736886
000090 88 66 ef 3c 6f ce cb bd 20 2a 45 be f6 a6 bb 3d
       0.029223695 -0.099514835 -0.1925435 0.09162705
0000a0 45 2e 3e 3d b2 55 0d 3e a9 43 37 be a0 f9 5a bd
       0.046430845 0.13802221 -0.17896904 -0.053460717
0000b0 15 cc 05 bd af f4 16 3d 63 ab cf 3d cc ce 3a be
       -0.03266533 0.036854442 0.10140111 -0.18242949
0000c0 31 ad 92 bc 27 c5 e0 3c f4 01 a9 3d 33 9a 3c 3e
       -0.01790485 0.02743776 0.08252326 0.18418197
0000d0 36 c2 14 3e ec 23 e7 3d 2b e1 87 bd 53 89 23 bd
       0.1452721 0.112861484 -0.06634744 -0.039925884
0000e0 88 8d 5c be 29 ab 2d 3e 99 90 ac 3d e0 15 3e be
       -0.21538365 0.16959824 0.08426017 -0.18563032
0000f0 0c 79 da bd 58 26 ed 3d a2 d9 f1 3d 78 7e fb 3a
       -0.10667619 0.11579579 0.11809088 0.0019187471
000100 f6 3b 1a 3e 6e b5 0f be e7 6d ed 3d 42 50 6c 3e
       0.15061936 -0.14034054 0.11593228 0.23077491
000110 81 81 46 3e ad b4 4b be c9 0c 63 be 89 13 58 3d
       0.1938534 -0.19893141 -0.22172846 0.052753005
000120 a5 b4 b0 bd 03 76 ae bd 4c 4f 42 3e ca b4 89 be
       -0.08628205 -0.08518603 0.18975562 -0.26895744
000130 af 19 24 3e 0c 00 51 3c 15 52 4d bd 05 43 8d bd
       0.16025423 0.012756359 -0.050127108 -0.068975486
000140 0a bd 1d 3e 26 3c fc bd 37 e1 4c be ec 18 a5 3d
       0.15404144 -0.1231616 -0.20007788 0.08061394
000150 67 d8 5f be 6e a4 17 3e 8c 17 71 3d d9 9d 27 3e
       -0.21859895 0.14808819 0.058860347 0.16368808
000160 39 f0 af bd 3b 97 cb bc 4a d6 e4 3d 99 9d 33 3e
       -0.08590741 -0.024852386 0.11173685 0.17540587
000170 15 18 fb 3d c0 ef 80 be bc 1f a0 bd c3 14 df 3d
       0.12260453 -0.25182915 -0.07818553 0.10892632
000180 0d 8f 91 3d a1 90 3c be 3d a7 0c 3e 01 ec 3c bc
       0.07107363 -0.18414547 0.13735671 -0.011530877
000190 c6 1e e0 bc d8 8d ae bd b3 ba 09 3e 5c 11 52 3c
       -0.027358424 -0.08523148 0.13450126 0.012821522
0001a0 be 11 c9 bd ee 22 f9 3d 45 10 ca ba 81 04 50 3e
       -0.09817837 0.121648654 -0.0015416226 0.20314218
0001b0 c1 1a 73 bd a6 87 c3 bd 8b 7f 0e 3e 46 42 6e 3d
       -0.059351686 -0.09547357 0.13915841 0.058168672
0001c0 56 fc db bc 5c 1e 4f 3e cc 78 2c 3e e8 8a 56 3e
       -0.026853722 0.20226425 0.16842955 0.20951426
0001d0 d4 98 de bd 29 0d 58 3e 93 11 bb 3d b5 06 2a be
       -0.108689934 0.2109877 0.091342114 -0.16604121
0001e0 33 9b 3d be 1b d6 e5 bd d3 b6 91 bd ee 29 4a be
       -0.18516235 -0.11222478 -0.07114949 -0.19742557
0001f0 e7 07 10 be 20 ab 15 3e 77 db 2b 3e 6e 3a a6 3d
       -0.14065515 0.1461606 0.16782938 0.08116613
000200 bf 7b 2d 3e c1 e8 1c be 1c 2c 65 3d 41 1b 1a 3c
       0.16941737 -0.15323164 0.05595027 0.009405912
000210 3a 67 39 3e a9 2b fe bd 03 bb df 3d 22 55 d6 bb
       0.18105784 -0.12410671 0.109243415 -0.0065409103
000220 5c b3 af 3d 90 75 ab 3d 26 af e3 3d c2 ed f2 b9
       0.08579132 0.08372033 0.11117391 -0.0004633498
000230 5b af b9 bc 49 13 7a 3c 03 0e 38 3e 87 50 4e 3e
       -0.022666624 0.015263387 0.17974095 0.20147906
000240 8a c3 61 3b b3 8c f6 bd 70 71 39 be 1d 7b 78 3d
       0.0034448826 -0.12038555 -0.18109679 0.060664285
000250 59 a2 10 3e b9 61 05 3e 4d 78 ce 3c 17 44 56 bc
       0.1412443 0.1302556 0.025203848 -0.013077757
000260 ea e4 24 3d 99 d4 3c 3d c4 89 cd 3d 90 64 05 bd
       0.040257372 0.046101186 0.10036042 -0.032566607
000270 76 ff 28 bd a6 74 dc 3d 4d 78 e1 bc fa 06 11 be
       -0.04125925 0.107644364 -0.027523184 -0.14162818
000280 23 cf 79 3d cb 36 de 3c ea 48 4e 3d ba 38 b7 bd
       0.060988557 0.027125737 0.050362505 -0.089463666
000290 92 4e df bd 84 53 15 3d 3b 8c 27 be 1a b9 c0 bc
       -0.10903658 0.0364566 -0.16362087 -0.023525763
0002a0 34 63 60 3d 06 aa 32 3e 6c 27 09 be fa 41 0a bc
       0.054782107 0.17447671 -0.13393945 -0.008438582
0002b0 4f 3c dd bc 64 61 03 be 9f e7 5b 3e ce a0 73 3d
       -0.027006296 -0.1283012 0.21475075 0.059479527
0002c0 25 e2 5c be b9 d5 3a 3e 0e 79 02 be f2 f7 e0 bc
       -0.21570642 0.18245591 -0.12741491 -0.02746198
0002d0 c0 50 d5 3d b6 65 36 3e ac 7f cc bd a6 63 48 3d
       0.104157925 0.17812237 -0.09985289 0.048923157
0002e0 96 3c 41 bd 96 3c 15 3e 46 6f c7 bd f9 a7 17 3e
       -0.04717692 0.14573893 -0.097380206 0.1481017
0002f0 23 8b 26 3e 87 4e 16 3e 8d 85 17 3e 8f 58 7f bd
       0.16264014 0.14678393 0.1479704 -0.062340315
000300 03 87 04 3e 42 bf ea bd 31 87 08 be 0b 32 0e be
       0.12942128 -0.11462261 -0.13332821 -0.13886277
000310 8f c6 18 be ef 7f 0d be 66 94 30 3d 10 a5 42 3e
       -0.14919494 -0.13818334 0.043110274 0.19008279
000320 d2 32 91 3d 20 ab 5d be 1d 87 6f be f3 2a 77 3e
       0.07089771 -0.2164731 -0.23391385 0.24137478
000330 8e 6a 67 bc b5 d9 ae bd 30 a5 87 3d 29 36 1a 3e
       -0.014124526 -0.08537618 0.06623304 0.15059723
000340 1b 52 bc bc fa 05 2f bd 7e e5 1b bd 57 fa a9 bd
       -0.02298837 -0.04273031 -0.038060658 -0.08299702
000350 5b ec 16 3e 87 1e 2b 3e f3 7d 25 3e 73 1e db 3d
       0.147386 0.16710864 0.16161327 0.10699167
000360 ae 88 7c 3d 73 5d a3 bd 3a 09 be 3c 74 68 e0 bc
       0.061653785 -0.079768084 0.023197759 -0.027393557
000370 d4 2e 06 be 14 82 8c 3d 59 63 0c 3e b8 0d 52 3e
       -0.13103801 0.06860748 0.13709773 0.20513046
000380 48 b5 8d 3d a2 5b 2d be e6 96 1c bd 39 4d 6e bd
       0.06919342 -0.16929486 -0.038229845 -0.058179114
000390 37 d4 80 bd e0 1f 9c bd b1 df 47 3e 7f 97 16 3e
       -0.06290477 -0.07623267 0.19518925 0.14706229
0003a0 69 67 ff 3c 67 3e 6d 3e c6 be 2f 3e 81 8b 3c 3e
       0.03117724 0.23168336 0.17162618 0.18412592
0003b0 49 55 13 be e1 61 22 be bd 3c 3d 3d 70 7c d0 bd
       -0.14388002 -0.1585765 0.046200503 -0.101799846
0003c0 a9 bb 07 bd 23 fc 7d 3e 63 a6 08 3e 9a 47 a7 3c
       -0.03313795 0.24803214 0.13344721 0.020419884
0003d0 f6 13 c0 3d 02 88 23 3d 08 bc 5a 3e 54 b8 32 bd
       0.09378807 0.03992463 0.2136079 -0.04363282
0003e0 63 e9 10 3e 7f bb b2 3d da 63 b4 3d c4 a3 22 be
       0.1415153 0.08727168 0.08808108 -0.15882784
0003f0 bd ba 6b bd fb d8 c4 3d 01 c4 5d 3e 72 f8 fb 3d
       -0.057551134 0.09611698 0.21656801 0.123032466

encoder.layers.0.self_attn.in_proj_bias f4 [96]
000000 0b 8c 0d 3c 1c ce 1f 3b 6b 15 7a ba 3b 4d 35 bc
       0.008639346 0.0024384325 -0.00095399347 -0.011065776
000010 e5 a1 b1 3b c8 05 f8 bb 49 34 ae bc fe e3 1b bc
       0.0054209107 -0.0075690486 -0.021265166 -0.009514807
000020 91 e0 98 3c 83 c9 87 3d a8 91 b3 3a a2 e0 72 bb
       0.01866177 0.06630232 0.0013700025 -0.003706016
000030 f5 27 1d 3b 6c e5 83 bb ff 33 4d bd c4 f3 c6 3b
       0.0023980115 -0.004025152 -0.050098415 0.0060715396
000040 27 ce 51 39 b3 81 be bc 2b ef 8e 3d 6a 7a c8 bd
       0.00020008591 -0.023255205 0.069792114 -0.09788974
000050 59 a7 06 3d 08 07 56 bd ac 04 18 3d ae 07 43 bb
       0.03287444 -0.0522528 0.03711383 -0.0029759216
000060 10 99 05 bc e4 98 01 bd 79 c8 1f bd 7a e8 e9 3b
       -0.008154169 -0.03163995 -0.039009545 0.007138309
000070 19 18 d4 3d 03 42 18 be 72 01 86 bb 30 bd 06 bd
       0.10356159 -0.14868931 -0.0040895278 -0.032895267
000080 da c4 11 b9 60 9f 3a 39 54 9a 31 b9 13 44 4c 39
       -0.0001390161 0.00017797714 -0.00016937527 0.00019480316
000090 38 ea a5 37 c8 e8 90 b8 37 d7 53 38 2d a9 a9 39
       1.97786e-05 -6.909814e-05 5.0506755e-05 0.00032360238
0000a0 4f 60 60 b8 1e b5 17 b8 e4 03 13 b8 34 7f 45 b9
       -5.3495456e-05 -3.6169884e-05 -3.5051155e-05 -0.00018834771
0000b0 92 0a 55 b8 02 1e 1e b8 60 d5 6b b8 8b 74 d9 38
       -5.0793e-05 -3.7698082e-05 -5.6227087e-05 0.00010369074
0000c0 ea 84 df 37 d7 23 4f b5 86 10 bf 37 50 5b 2f b8
       2.6645565e-05 -7.7165663e-07 2.2776669e-05 -4.1808293e-05
0000d0 14 4a bb 38 67 8a 5c 37 6c 43 65 b8 a4 ee f9 b8
       8.930653e-05 1.3145246e-05 -5.4660646e-05 -0.000119176955
0000e0 64 92 ac b8 a7 3d cd b8 5e 95 c3 b8 70 09 a7 38
       -8.2288665e-05 -9.7866454e-05 -9.3261464e-05 7.9649384e-05
0000f0 34 b1 cb b8 b5 b8 de b8 0a 16 3d 38 12 2e d7 b8
       -9.712801e-05 -0.00010620189 4.5081637e-05 -0.0001026058
000100 76 2b ac 3c 24 d7 81 bc 3a 51 47 bc f2 42 c8 3b
       0.021016818 -0.015849657 -0.012165362 0.006111496
000110 0b 30 13 bd 4e fa 68 3c b5 f1 39 3a af 38 2b bc
       -0.03593449 0.014219834 0.0007093207 -0.010450526
000120 8b a5 27 3c 29 17 cd ba 87 83 89 39 7c 91 5e ba
       0.01023234 -0.0015647161 0.00026228672 -0.0008490307
000130 fa eb 86 bc c6 33 3c 3c 58 b9 9c ba a3 8c fe b9
       -0.016469944 0.011486953 -0.0011957092 -0.00048551438
000140 e9 25 13 3b 73 01 f8 ba f1 6d 8b b9 45 58 1d bc
       0.0022453016 -0.001892133 -0.0002659406 -0.009603565
000150 b1 f6 35 3c be b0 ea 3b 29 e2 80 3c 1d 78 de ba
       0.011106179 0.0071621826 0.015732842 -0.0016973052
000160 ad 34 29 bc 33 9c 67 bb 24 2d aa bb 8f e5 28 bc
       -0.0103275 -0.0035340905 -0.0051933695 -0.010308637
000170 2b a7 5a ba cf a5 04 bc 7c da 0c bc 00 28 b5 bb
       -0.000834095 -0.0080961725 -0.008597013 -0.00552845

encoder.layers.0.self_attn.out_proj.weight f4 [32, 32]
000000 54 d2 8b bd 8b 44 29 3c 20 51 89 bd 87 6c c3 3d
       -0.06827226 0.010331283 -0.067049265 0.09542184
000010 5d ec de 3d 7b c4 af bd 9d 1f 10 3d c5 2e e4 bc
       0.108849265 -0.085823976 0.0351864 -0.027854333
000020 7a 8e 9e 3d 90 9b 95 3d 87 48 13 bd a6 95 54 3d
       0.07742019 0.07305062 -0.03595784 0.05190053
000030 b8 c9 f1 3c ff 35 0e be 5d d4 50 3e 44 6c 1a be
       0.029515132 -0.13887785 0.2039351 -0.15080363
000040 6e aa c4 3d dc 4e 1f 3e 0f a1 bc bd f4 03 8d 3d
       0.096028194 0.15557426 -0.09210407 0.068855196
000050 31 e3 c7 3d b5 8f e8 bd 83 eb df 3d 35 64 f4 bc
       0.0976013 -0.11355535 0.10933592 -0.029832939
000060 c8 e3 b3 3c a8 45 9f 3d 54 c4 11 3c de 40 2c 3e
       0.0219592 0.07776958 0.008896906 0.1682162
000070 a3 01 e9 bd 04 d5 27 3e 6d 7d 12 3e e8 61 8f 3a
       -0.11377265 0.16389853 0.14305659 0.0010939213
000080 dc 12 f5 bd 43 50 b6 3c 0a df 36 be 11 10 d7 bd
       -0.11966488 0.022255069 -0.1785852 -0.10501111
000090 dc a5 b6 bd d6 9e 31 3d 0f 0c 0a bd 60 6d 41 3d
       -0.08918354 0.04336437 -0.033702906 0.04722345
0000a0 ec 71 8f bc 88 3e 80 bd dc 2a fe 3c fe 03 5a 3c
       -0.017510377 -0.06261927 0.031026296 0.013306616
0000b0 c5 d6 f8 3d 62 57 c0 3d e9 c3 1e 3e c9 d5 d2 3c
       0.12150339 0.09391667 0.15504421 0.025736706
0000c0 12 21 28 be b7 89 b2 bd 33 03 81 3d 76 a2 0e 3e
       -0.16418865 -0.08717673 0.06299438 0.13929161
0000d0 92 64 14 3e 8f e0 4a 3e da c5 b4 3d 36 3d 88 bd
       0.1449149 0.19812225 0.088268 -0.066523
0000e0 83 b3 79 bd d4 51 6d 3d fc 81 62 3d b0 f5 1b be
       -0.06096221 0.057939366 0.055299744 -0.15230441
0000f0 ab a2 b4 3c 25 c3 fb 3d d0 93 09 3d 3f 78 30 bd
       0.022050222 0.1229308 0.03358823 -0.043083426
000100 c9 7e cc bd 64 47 de 3d 7b d4 94 3d 67 1f 02 be
       -0.0998512 0.108534604 0.0726709 -0.12707292
000110 16 a1 ce 3d ee 5f 16 be 3e e6 db bd cd f6 ec 3d
       0.100893185 -0.14685032 -0.107372746 0.11570511
000120 f0 48 b2 3d 1f d4 44 be 6e e2 a9 3d f9 eb 4d 3e
       0.08705318 -0.19221543 0.08295141 0.20109548
000130 70 c0 f9 bb 38 54 5d bd fb 86 ea bd c0 5c 0c be
       -0.0076218173 -0.054035395 -0.11451527 -0.13707256
000140 c3 6e a9 bd cf 91 9f 3d c2 0d 24 be 72 af 7b 3d
       -0.08273079 0.07791483 -0.16020873 0.061446615
000150 2a 1d d4 bd 21 7b 65 3d 40 52 dc bd 9b e4 c8 bd
       -0.10357125 0.056025628 -0.107578754 -0.09809228
000160 fe ec 08 3e 95 ca 98 bd 8d ba 07 be fc 8f 45 3d
       0.13371655 -0.074605145 -0.13254757 0.048233017
000170 f6 86 24 3e cc 1d 34 be c3 3a c8 3d 88 13 3c be
       0.16067109 -0.17589492 0.09776833 -0.18366826
000180 87 5e 08 bd 24 12 f9 bd b0 35 cc 3c 5a 19 fc 3d
       -0.033293273 -0.12161663 0.024927944 0.12309523
000190 03 3b 01 bd f0 14 19 3e b6 36 af 3d b2 4d 37 be
       -0.03155042 0.14949393 0.08555357 -0.17900732
0001a0 d4 d1 e6 3d 08 db a3 3d d7 de e4 bd 70 48 97 bc
       0.1127049 0.08000761 -0.11175316 -0.018467158
0001b0 c7 3d 42 3d 97 f1 e0 bd 41 95 1a 3e 7c 31 cc 3c
       0.047422197 -0.109835796 0.15095998 0.02492594
0001c0 02 9b 20 3e 77 a3 4a bd 30 7f bd 3c 08 b5 06 be
       0.15684131 -0.0494723 0.023131937 -0.13154995
0001d0 84 31 4f 3d 12 bd 35 ba f9 a4 01 3e 5e 8c 24 3e
       0.05058433 -0.0006932776 0.12660588 0.16069171
0001e0 0d 9c 9e bd 70 7a e3 bc c3 68 cd 3d 4e 08 ba 3d
       -0.07744608 -0.027768344 0.10029747 0.09083615
0001f0 a3 e1 b8 bd 97 da 12 be 19 f1 1b be 46 10 9b 3d
       -0.09027412 -0.14341198 -0.1522869 0.07571463
000200 44 b3 e0 bd ee 4f a5 bd a4 a1 2c be 77 bc 18 3e
       -0.10971692 -0.08071886 -0.16858536 0.14915644
000210 e5 5e 99 bb 67 03 22 bd 56 e0 41 3d d6 60 6a 3d
       -0.0046805018 -0.039554026 0.047333084 0.057221256
000220 2e 6e ef 3c 9c 0b 67 3d 3d 28 2c be 27 7a 8a 3d
       0.029227342 0.056407556 -0.16812225 0.0676158
000230 c6 1a 90 bd 83 60 30 be 39 80 f7 bc a6 c0 d2 3c
       -0.07036357 -0.17224316 -0.030212509 0.025726628
000240 89 c2 6d 3d 77 9a 14 be 67 c8 48 3e 1c 95 02 be
       0.05804685 -0.14512049 0.19607697 -0.12752193
000250 0a d4 18 bd c9 03 a7 3d 6a 37 0f 3e 32 1b de bd
       -0.03731159 0.08155019 0.13985983 -0.10845031
000260 b1 f2 97 bd 14 a4 d8 3d e2 a9 56 bd c0 05 01 3e
       -0.074193366 0.105781704 -0.052408107 0.1259985
000270 53 9b 1e be 0e 69 6f bd 08 18 60 3d 0e d2 00 3d
       -0.15488939 -0.058449797 0.054710418 0.031450324
000280 6d 01 c4 bd da a5 19 3e 39 7e 1d 3c aa 6e cb bd
       -0.095705844 0.15004674 0.009612613 -0.09933217
000290 e6 d2 a1 bc 18 35 2c 3e 20 55 1a 3c 57 7f 55 3d
       -0.019753885 0.16817129 0.009419709 0.052123394
0002a0 8c 02 e4 3c 1b bf d7 bc 9d e7 1e be ab 12 0f 3e
       0.027833246 -0.026336243 -0.15518041 0.13971965
0002b0 26 86 9e bd ef 73 84 3d b1 f2 7d 3d bd 7d 0f 3e
       -0.077404305 0.06467425 0.061999027 0.14012809
0002c0 14 9c 69 ba 0c d2 28 3e ec e7 98 3b 7b 99 e4 3b
       -0.0008911502 0.16486377 0.004666319 0.006976304
0002d0 57 5c b4 bd 8e 4e 9f 3d d0 73 bb bc 73 e6 99 bd
       -0.08806675 0.07778655 -0.022882372 -0.07514658
0002e0 8f 0a 2f be 28 d4 e0 3d 70 91 75 3d 6a 1d 55 3d
       -0.17093872 0.109779656 0.059953153 0.052030005
0002f0 bf 1e bd bd 44 51 21 be c3 df f0 bd 91 89 c6 bd
       -0.0923438 -0.15753657 -0.11761429 -0.096942075
000300 7a d5 8f 3d 7a 6d 18 be 66 23 f2 3c 58 32 e9 bd
       0.07023139 -0.14885512 0.029557895 -0.113865554
000310 73 3b 8d 3d 10 00 fb 3d d1 9a b8 bb 6e 60 f8 3b
       0.06896105 0.12255871 -0.00563369 0.0075798547
000320 38 59 47 3e 70 23 9a 3d c2 08 7b bd 95 88 1c bd
       0.19467628 0.075262904 -0.06128765 -0.038216192
000330 58 7c 2a 3e 4f f1 4d 3a 9e 0d 3d 3e cb 11 3c 3e
       0.16648996 0.0007856087 0.18462226 0.18366162
000340 1d 90 e4 3d 36 3a f6 3d 55 d0 a2 bd 10 33 a8 3d
       0.111603 0.120228216 -0.079498924 0.082128644
000350 c7 75 12 3e bc 53 5c bd 1a d0 79 3d c0 be 7d bd
       0.14302741 -0.053790793 0.060989477 -0.06194949
000360 cf 35 aa 3d 75 bc 90 3d 3e d6 ac 3d a7 48 bb 3d
       0.083110444 0.07067195 0.08439301 0.09144717
000370 0e d8 35 3e 7a 29 0e be d9 ea 4f 3e 1a fe 6d be
       0.177582 -0.1388301 0.20304431 -0.23241463
000380 f9 74 98 bd 2e f4 c8 bc 01 c8 8b 3d d7 70 ad 3d
       -0.07444186 -0.024530496 0.06825257 0.08468788
000390 f5 e3 c0 bd b3 c9 d7 bd b7 8c 81 bb 5c 35 33 3d
       -0.09418479 -0.10536518 -0.003953542 0.04375206
0003a0 1f 89 92 bc 70 42 a8 3d 8d dd 44 bd 1b 7e e3 3d
       -0.01788765 0.08215797 -0.04806285 0.11108037
0003b0 0d 74 2a be 8c 60 ef bc 3a dd c4 bd cf 9f fc bd
       -0.16645832 -0.029220842 -0.09612508 -0.123351686
0003c0 18 16 05 be fe c5 98 bd a5 6f 1b be b0 71 dc 3d
       -0.1299671 -0.07459639 -0.15179308 0.10763872
0003d0 83 6f 1e be cb 69 f6 bc 31 4b 99 3d 1e 72 0e 3c
       -0.15472226 -0.030079743 0.07485045 0.0086942
0003e0 27 fe 04 3e ae a8 7a bd b5 c8 0a 3e 83 e3 79 3d
       0.12987576 -0.06119602 0.13553126 0.061007988
0003f0 4f 61 52 bd 8b ed d7 bc 2b 7a 08 be eb 12 fb bd
       -0.051362332 -0.026358387 -0.13327853 -0.12259468

encoder.layers.0.self_attn.out_proj.bias f4 [32]
000000 e0 20 ba ba da f9 e0 3c f1 55 ab bc 64 ee 3d 3c
       -0.0014200471 0.027462889 -0.020915003 0.011592481
000010 2c 07 1f 3c c2 cd 23 bb 80 a4 a5 3c 31 c3 7c bc
       0.0097063 -0.0024994467 0.020220041 -0.015427397
000020 63 62 d8 3c 5e 12 b4 bc 5b 27 18 bc d1 da 3d 3b
       0.026414102 -0.021981414 -0.009286727 0.0028969536
000030 7d 4d ac bc df 13 30 bc 6d 02 df bc 73 c6 2f ba
       -0.021033043 -0.010746925 -0.027222836 -0.00067052915
000040 d1 45 a0 bc 7b b0 36 bb 77 7a c6 3a f6 ad 39 bc
       -0.019564541 -0.0027876187 0.0015142699 -0.011332979
000050 46 b7 b6 3c 44 d3 41 bc 83 9e 93 3c e5 af 24 3b
       0.022304188 -0.011830155 0.01801992 0.0025129255
000060 c7 2f 20 3c b8 4d 74 bb 0a 1e 05 3c 3b e2 05 bc
       0.009777016 -0.003727777 0.008124838 -0.008171613
000070 81 6f 75 bc 9e 37 ab 3b ab 72 00 3c 59 70 54 bc
       -0.014980198 0.005225136 0.007839839 -0.012966239

encoder.layers.0.linear1.weight f4 [64, 32]
000000 73 30 33 be 8d 7f 26 3e 95 c8 08 bd 57 ca f0 bd
       -0.1749895 0.16259594 -0.033394415 -0.11757343
000010 7a 36 30 3e 07 79 04 be 3b bf 7d bd 78 55 06 3e
       0.17208281 -0.12936793 -0.06194995 0.13118541
000020 f7 41 e3 3d 03 ee 9a bd 86 79 ed 3d a7 28 31 bc
       0.11096566 -0.075649284 0.115954444 -0.010812915
000030 97 e1 7e 3d f5 78 c7 3c 27 7a 2f ba 14 ce d2 3d
       0.062226858 0.024349669 -0.00066939223 0.102932125
000040 bc f1 06 3d 36 f2 1a 3e 61 33 27 be a1 bd 80 3c
       0.03294538 0.15131459 -0.16328193 0.015715422
000050 2e 69 99 3d 2b 61 86 be d6 13 e1 bd 13 f4 df bc
       0.074907646 -0.26246008 -0.109901115 -0.027338063
000060 1c 3a c1 bd dc 15 04 3e d0 ca 21 3e b9 fe 99 3d
       -0.094349116 0.12898964 0.15800023 0.075192876
000070 6e 49 11 be a2 d8 93 3d d7 56 bf bd 5a e4 c8 bc
       -0.14188167 0.07219054 -0.09342735 -0.024522949
000080 f4 71 fb 3d 41 dd f6 3d 4f d1 d8 3c 68 21 10 be
       0.12277594 0.120539196 0.026466994 -0.14075243
000090 8a d3 79 bd 58 c4 44 be 01 2d 2f be 11 a6 37 be
       -0.060992755 -0.19215524 -0.17107011 -0.17934443
0000a0 75 8d a7 3d ff d6 a1 bd 74 11 82 3c 87 3d 8d 3d
       0.08181278 -0.079023354 0.015877463 0.06896501
0000b0 3a 55 37 be 30 2e 9c bd 73 97 e7 bd 8e 81 45 be
       -0.17903605 -0.07625997 -0.113081835 -0.19287702
0000c0 ef 7a f6 3c ee c7 fd 3d cb 23 21 3e 0e 74 76 3d
       0.030087916 0.12391649 0.1573631 0.060169272
0000d0 67 55 71 bb 5e b0 30 3e 53 04 85 3b a7 fa 81 3b
       -0.0036824585 0.17254779 0.0040593534 0.0039666477
0000e0 26 67 d7 bd 98 83 fd bd 15 13 a6 bd 21 fe 4b be
       -0.10517721 -0.12378615 -0.08109108 -0.19921161
0000f0 4a ef 2a 3d 5a be 1c 3d 8b f5 26 bd 4f 0b 5e 3e
       0.04173211 0.03826747 -0.04076151 0.21684001
000100 b4 01 31 bd 4f 65 53 3d c3 56 b3 3b e6 54 d4 bd
       -0.043214515 0.051610287 0.0054729893 -0.103677556
000110 9e eb 9f 3c f1 68 12 3e 9c 54 4b 3d 60 b4 f7 bd
       0.01952153 0.14297844 0.049641237 -0.12094951
000120 66 5c 1e bc 2b 10 e9 bd 4c bf 97 3c 6c 04 56 3d
       -0.009665584 -0.11380037 0.018523835 0.05225031
000130 71 c6 cc bd b4 70 d8 bd ba d1 a5 bd ec 04 0e be
       -0.09998787 -0.105683714 -0.08096643 -0.13869065
000140 03 9d 50 bd 95 10 1c 3d 8c 52 d1 3d 3d be 16 3d
       -0.050930988 0.03810175 0.10220823 0.03680252
000150 5f f4 86 bd 56 e9 2a be 7d 2e c4 bd 20 04 4a 3d
       -0.06589579 -0.16690573 -0.095791794 0.04932034
000160 12 41 d3 bd c0 eb 05 be 4b db 2b 3e 0e c3 e0 3c
       -0.103151456 -0.13078213 0.16782872 0.02743676
000170 c2 83 71 3d 29 9c be 3d 26 93 a2 3d d9 49 d1 3c
       0.058963545 0.09307129 0.079382226 0.025547909
000180 7c 43 81 3d db db 38 bd 90 73 aa bc a8 62 0c 3e
       0.063117 -0.045131546 -0.020807058 0.1370951
000190 1f 81 0f 3d 96 f9 5f be d0 c1 30 3d d8 f3 0f be
       0.03503525 -0.21872553 0.043153584 -0.14057863
0001a0 6f 88 81 bd 04 0d 3d 3e b7 2d 92 bd ce 14 16 3e
       -0.06324851 0.18461996 -0.07137626 0.14656374
0001b0 27 5c 96 bc 82 2d e3 3d cc 56 e2 bb 56 af df bb
       -0.018354489 0.11092664 -0.0069073197 -0.0068263216
0001c0 5f 6b e7 bd c5 06 01 3e 2d cc e6 3d d3 a4 34 3e
       -0.11299776 0.12600239 0.11269412 0.17641
0001d0 2e 14 ef ba ce 97 fb 3d fd 1c 16 be 60 ce 48 bd
       -0.0018240267 0.12284814 -0.14659496 -0.04902494
0001e0 8d 26 56 bd 0d 7c f2 bd 3a 67 f7 bd 38 e3 77 3d
       -0.05228286 -0.11840067 -0.12080236 0.060519427
0001f0 18 f0 85 3d 3b 62 3e be 1b bf 6a bd bf 99 02 3e
       0.06539935 -0.1859216 -0.05731116 0.12753962
000200 1a 49 43 bd eb 95 b0 bc c6 6d 16 3e c7 1f 95 3d
       -0.047677137 -0.021555861 0.14690313 0.07281452
000210 90 26 10 bd 2d 2b 53 bd fd e6 bd bd f9 fd 45 be
       -0.035193026 -0.051554848 -0.09272573 -0.19335164
000220 50 d1 fe bc af 85 de bd 2f 4e 85 bd 38 c2 98 bc
       -0.031105667 -0.10865342 -0.06509053 -0.018647298
000230 a3 61 56 3d e6 99 87 bd b7 11 89 bc 0e ea 7c 3d
       0.052339207 -0.06621151 -0.01673208 0.06174665
000240 3d 3f 54 bd ac aa 09 be aa e9 d0 3d fa 29 8e bd
       -0.05181812 -0.13444012 0.10200818 -0.069416
000250 02 0c 76 3e f6 55 01 3e 3b fc 50 3e cf 85 90 3c
       0.24028018 0.12630448 0.20408718 0.01764193
000260 3d 48 da bd b0 45 0e 3e 41 95 2f 3e 20 db d8 3d
       -0.106583096 0.13893771 0.1714678 0.1058867
000270 aa d5 df bd 6c ae d3 3d f3 f3 9d 3d 56 ad b2 3d
       -0.10929425 0.10336003 0.07712545 0.087244675
000280 7a 0e 3f 3d 61 63 a2 3d c4 22 5f 3d 69 49 11 be
       0.046644665 0.07929111 0.054476514 -0.1418816
000290 d1 87 68 bd b4 cb 86 bc 04 dc 05 be db 26 de 3c
       -0.05677015 -0.016454555 -0.1307221 0.027118137
0002a0 0a 8d 17 3e be f7 39 be 02 e7 37 3e 74 2c 18 be
       0.14799896 -0.18160912 0.17959216 -0.14860708
0002b0 83 1a 44 be 8e 25 36 3d a1 6b 85 bd 55 00 83 3d
       -0.19150738 0.04446941 -0.06514669 0.06396548
0002c0 ff 77 63 bc 41 05 3a be bb 50 25 be 1f 55 d7 3d
       -0.01388359 -0.18166067 -0.16144077 0.105142824
0002d0 ea 75 ea 3d e9 6b 60 3d e3 84 c0 3d 98 dc 1f 3e
       0.114482716 0.05479041 0.09400346 0.15611494
0002e0 ba d6 18 3e 52 9a a5 bd 7c c6 94 be 85 14 72 3e
       0.14925662 -0.08086075 -0.29057682 0.2364064
0002f0 86 9b 68 3d 69 8d 2a 3e 91 0d 07 be b6 d8 c0 bd
       0.056788944 0.16655506 -0.13188769 -0.09416334
000300 32 b8 34 be 8c 5a 42 be 81 33 2d bd b6 9c 0e be
       -0.1764839 -0.18979853 -0.042285446 -0.13926968
000310 6a 7a 9e bb 01 a9 1c 3e 15 9b 3c be f8 8e da 3d
       -0.0048363702 0.15298845 -0.18418534 0.106718004
000320 77 88 06 bd 78 1d 04 3e 4f ad 11 3e 34 f4 35 3e
       -0.032844987 0.12901866 0.14226268 0.17768937
000330 0c 02 0a be 1a fa 24 be 1a b3 c2 3b 00 28 88 bc
       -0.13477343 -0.16111031 0.0059417607 -0.016620636
000340 e4 8b d7 3c 41 d2 76 3d cc f5 98 bd bd 44 31 3d
       0.026311822 0.060259108 -0.07468757 0.043278445
000350 ed 94 20 bd 49 6d d1 3d 94 6f b5 bd 9b 25 2d bd
       -0.039204527 0.102259226 -0.088591725 -0.04227219
000360 20 d1 56 bc f7 d6 3a be 62 c7 31 be e5 5f fb 3d
       -0.013111383 -0.18246065 -0.17361215 0.1227415
000370 3e 03 b6 bd 5d 65 cd bd 00 96 26 3d ff 82 26 bd
       -0.08887337 -0.10029099 0.040670395 -0.04065227
000380 5e d8 11 be 04 66 5a bd fa ff 11 3e 58 30 e4 3c
       -0.14242694 -0.053319946 0.14257804 0.027855083
000390 84 39 19 bd d7 24 6b 3d af de c6 bd eb 33 0d be
       -0.037408367 0.05740818 -0.09710442 -0.13789336
0003a0 a9 29 0e be 13 15 5d bd 72 70 10 bd b0 7a e6 bc
       -0.1388308 -0.053975176 -0.035263486 -0.028134674
0003b0 8f cf 19 3e 60 01 45 3e d3 d7 8c 3d 81 57 03 3e
       0.15020584 0.19238806 0.06877103 0.12826349
0003c0 6c 15 49 bd 52 ac 54 3d f5 dd 37 be f9 7f 17 be
       -0.049092695 0.05192215 -0.17955764 -0.14794911
0003d0 6a fe c5 3d 3d 6b c9 3d 09 d9 57 3d dc d8 b5 3d
       0.09667666 0.09834907 0.052697215 0.08879253
0003e0 28 a9 7a bd 25 04 97 bd 9a 4e 0d 3e 91 b0 15 3e
       -0.061196476 -0.073738374 0.13799515 0.14618136
0003f0 f1 38 55 3d c7 83 b0 bc a1 9a 37 bd e6 81 c9 bd
       0.052056257 -0.021547211 -0.0448252 -0.09839229

encoder.layers.0.linear1.bias f4 [64]
000000 53 4f 6d bb 6f 17 18 be 01 af cf 3d 7f c8 3f 3e
       -0.003621061 -0.14852689 0.10140801 0.18728827
000010 37 9a 54 be e8 ed 4c 3d fe 7a 9d 3d 42 c2 3b 3e
       -0.20761953 0.050031573 0.076894745 0.18335822
000020 b8 d0 ba bd 18 e4 ed bd e1 8a aa bd 1c a6 56 3d
       -0.09121841 -0.11615771 -0.0832727 0.052404508
000030 2c 22 ec bd 96 ec 80 3d 1a 79 7d bc 24 df e2 bd
       -0.11529955 0.06295125 -0.015470767 -0.11077717
000040 d0 01 29 3c 3b 1c 72 bd cf 92 ef bd ba bf 18 3d
       0.010315374 -0.059108954 -0.116979234 0.03729222
000050 0d ac c1 3d a7 35 90 bd 1e d5 de 3b fc ad 48 bd
       0.09456644 -0.07041483 0.006800308 -0.04899405
000060 f1 7a e4 3d 4d 04 ed bd 86 4f 26 3e 66 0f ca bc
       0.11156262 -0.11573086 0.16241273 -0.024665546
000070 b6 63 b8 3d 80 8a d3 bd 93 0d 21 be 03 52 c7 3d
       0.09003393 -0.10329151 -0.15727834 0.09732439
000080 6f 33 32 3e 44 a3 7f bd 6f af 21 3e 38 cb 06 be
       0.17402433 -0.06241156 0.15789579 -0.1316346
000090 ad 4e 16 be 66 a4 10 be 66 75 1d bd f8 7f 82 3d
       -0.1467845 -0.14125213 -0.038442038 0.06372064
0000a0 87 00 57 bd 24 db bf bd d3 1b c0 bd cf 41 96 bd
       -0.052490737 -0.0936797 -0.09380307 -0.07336771
0000b0 0b b0 9e bd 03 3b 52 3d 95 a1 d8 3d 50 23 f3 3d
       -0.07748421 0.05132581 0.10577694 0.1187197
0000c0 99 63 1a bd 9c f0 e1 3c 92 35 59 bc 3d 9a ad 3d
       -0.03769264 0.027580552 -0.013257401 0.08476684
0000d0 3e 2f 0c be c5 69 18 bd 4f f3 ad bc 9b 40 a8 bd
       -0.13689896 -0.037210245 -0.021234183 -0.082154475
0000e0 fd 55 03 3e e9 a3 44 3d 7c 48 28 bd 10 c9 27 bd
       0.1282577 0.04800788 -0.04108475 -0.040963233
0000f0 d1 55 14 bc 19 2f 19 be 00 25 a1 3d 48 a8 34 be
       -0.009053663 -0.14959373 0.07868385 -0.17642319
