pabbo_method/results/PABBO/PABBO_GP1D_quick_20251104_040211/ckpt.tar (torch, 517729 bytes, 162 tensors)

x_embedders.0.0.weight f4 [32, 1]
0.21638542 0.37389135 -0.7322768 0.5485376 0.39980632 0.31159103 -0.2880662 0.53162444
-0.74593014 0.7387461 -0.46150005 -0.8036977 0.1926918 0.26114178 -0.37789583 0.84597504
0.3657863 0.7803931 1.0024219 -0.8912557 0.6689848 -0.049120545 1.0554161 0.3347587
0.13209194 0.13365674 0.3349718 0.98125756 0.063312575 -0.035320163 0.81793255 0.61943
00000000: 2494 5d3e b06e bf3e 7e76 3bbf f66c 0c3f
00000010: 6ab3 cc3e dc88 9f3e 6a7d 93be 8a18 083f
00000020: 47f5 3ebf 771e 3d3f bc49 ecbe 22bf 4dbf
00000030: 0051 453e 60b4 853e 907b c1be d291 583f
00000040: 5848 bb3e d8c7 473f 5c4f 803f 5529 64bf
00000050: 9642 2b3f a032 49bd e017 873f 7e65 ab3e
00000060: 1c43 073e 50dd 083e 6c81 ab3e b233 7b3f
00000070: 06aa 813d e0ab 10bd 0764 513f f792 1e3f

x_embedders.0.0.bias f4 [32]
-0.07007749 -0.92985487 -0.21543193 0.47932 0.39382607 0.65079564 -0.13826822 0.18610457
0.22769491 -0.42538142 -0.56789815 -0.8575988 -0.85837317 -0.54902744 0.8214785 0.043770134
-0.5637928 0.569396 -0.09488385 -0.5490069 0.071949 -0.60474086 0.61821055 0.8633369
0.952451 0.11812139 -0.67181206 -0.7029754 0.761583 -0.76202166 -0.3769229 -0.61971086
00000000: c984 8fbd f80a 6ebf 309a 5cbe 6e69 f53e
00000010: 92a3 c93e 8b9a 263f 2f96 0dbe 3292 3e3e
00000020: db28 693e 98cb d9be c661 11bf 988b 5bbf
00000030: 58be 5bbf 108d 0cbf 6a4c 523f 5048 333d
00000040: ba54 10bf f0c3 113f 7752 c2bd b78b 0cbf
00000050: ff59 933d 4cd0 1abf 0c43 1e3f a603 5d3f
00000060: d4d3 733f a1e9 f13d e0fb 2bbf 32f6 33bf
00000070: 1af7 423f da13 43bf 0afc c0be 5fa5 1ebf

x_embedders.0.2.weight f4 [32, 32]
0.1427236 0.10808342 -0.12875329 0.18385726 -0.0076578683 0.06814194 -0.09722171 0.051123086
0.15496649 -0.24672261 -0.06114932 0.167314 -0.10420722 -0.032216545 0.020028744 0.08930818
0.08103444 -0.14085113 -0.13500294 0.051942237 0.12840395 -0.1259915 0.027005415 -0.07024506
-0.03075093 0.1486279 -0.006482691 -0.07840793 0.010949111 -0.14586495 -0.25436482 -0.114329115
0.23072009 -0.14408292 0.15525737 0.11116482 0.21659157 -0.057481386 -0.09591949 0.23844382
-0.0012009206 0.028306253 0.05031244 0.07707506 0.008050659 -0.026580269 -0.05108684 -0.07228023
-0.04813642 -0.04886692 0.07327901 0.11102076 -0.079496205 -0.13290268 0.03881584 -0.10364484
-0.08276416 0.032986477 -0.03802773 0.31332 -0.06754251 0.16552384 0.33986253 0.05678665
-0.26122183 0.1419131 0.013948472 -0.143761 -0.17772941 -0.06057636 -0.06115105 -0.26088917
-0.06295949 -0.24484836 -0.055587374 0.13503258 -0.1121115 0.14801896 0.1738893 0.025179088
-0.068606004 -0.11243026 -0.18008439 -0.15794738 0.03489353 0.08280545 -0.2252382 0.12289105
-0.14836603 -0.06403681 0.043753613 -0.3173241 0.029932886 -0.039093774 -0.13907778 0.1399014
-0.17813912 0.038664717 0.24530199 -0.23793645 -0.0908242 0.08865858 0.23946868 -0.21471548
0.19219747 -0.37716413 -0.040671602 -0.1327167 0.0980433 -0.10952351 -0.019823872 -0.2569929
0.07738319 0.0018695194 -0.18056099 -0.031989176 -0.012935917 0.16343816 -0.1970182 0.04538878
0.048530433 0.040948942 0.009047011 -0.038188778 0.06520218 -0.15015088 -0.115666345 -0.0043312237
-0.025417391 -0.08332708 0.0400306 0.029715516 0.14786994 -0.12565443 -0.13019332 0.11065044
-0.101746365 -0.22718552 0.022003626 -0.10892052 0.027428389 -0.14072552 -0.103882894 0.08980627
-0.09247863 0.036455315 -0.11789114 -0.101745576 -0.14854485 -0.1628519 0.027327778 0.0723385
0.027114874 -0.16024828 -0.06926634 -0.11588278 0.15106574 0.13342771 -0.26962507 0.087105975
0.10337721 -0.058762927 0.099256374 -0.008536603 -0.13382906 -0.18758945 -0.035805736 0.09133633
0.18907766 0.35722867 -0.08660058 0.17184003 0.16269627 0.05470016 0.110581875 0.031228472
0.16157864 0.15367816 0.12745044 0.3297898 0.11310588 -0.015757738 0.0005064174 0.07423853
-0.06733481 -0.12692408 -0.14732035 0.30498028 -0.048088133 -0.16094792 0.07789741 0.00982633
0.017510837 0.16780494 -0.13866323 -0.0047368673 0.08108261 0.18623117 -0.25834033 0.026780684
-0.07342232 -0.013494848 -0.013453253 0.036175776 0.11901652 0.16064093 -0.17657381 -0.05645715
0.07657619 0.024067355 -0.075250305 -0.21302444 -0.06480709 0.11530098 -0.001232374 0.03253988
0.041955993 -0.034366053 0.17401618 -0.23803478 0.10092551 -0.049902014 0.096349254 -0.104245864
-0.12785852 -0.04039097 -0.111905225 -0.090920344 -0.17079905 0.02616952 0.2343162 0.04509972
0.18460622 0.033919662 -0.040686544 0.019814814 -0.012270149 -0.10976607 -0.05864723 0.05952346
0.020418989 0.08372222 0.096917905 0.058838993 0.08335508 0.14280285 0.14599206 -0.17590114
0.14167932 -0.09098362 -0.1724571 0.13655931 -0.09442723 -0.10514848 0.2123495 0.010299336
00000000: 2326 123e d75a dd3d e7d7 03be 1445 3c3e
00000010: dbee fabb 008e 8b3d 2d1c c7bd 7166 513d
00000020: 89af 1e3e daa4 7cbe b677 7abd 5c54 2b3e
00000030: 986a d5bd 7ff5 03bd 5213 a43c 35e7 b63d
00000040: 62f5 a53d 473b 10be 363e 0abe 62c1 543d
00000050: 537c 033e ea03 01be 763a dd3c a4dc 8fbd
00000060: 60e9 fbbc ea31 183e c16c d4bb 5694 a0bd
00000070: e663 333c 9f5d 15be 1b3c 82be 6225 eabd
00000080: e341 6c3e 798a 13be cafb 1e3e 62aa e33d
00000090: 2eca 5d3e 9a71 6bbd 7071 c4bd 9e2a 743e
000000a0: 3568 9dba 84e2 e73c 6b14 4e3d 87d9 9d3d
000000b0: e9e6 033c ddbe d9bc 6f40 51bd a807 94bd
000000c0: b22a 45bd ae28 48bd 4e13 963d da5e e33d
000000d0: e8ce a2bd a417 08be 5cfd 1e3d bf43 d4bd
000000e0: 4280 a9bd d41c 073d f7c2 1bbd 7b6b a03e
000000f0: ba53 8abd 157f 293e 7602 ae3e 1e99 683d
00000100: debe 85be ab51 113e 2288 643c 1536 13be
00000110: b3fe 35be eb1e 78bd 8679 7abd 4493 85be
00000120: e8f0 80bd 87b9 7abe 96af 63bd fb45 0a3e
00000130: b79a e5bd 4892 173e 0910 323e 6044 ce3c
00000140: 4e81 8cbd d641 e6bd 0b68 38be f5bc 21be
00000150: 85ec 0e3d e795 a93d d8a4 66be 4eae fb3d
00000160: 44ed 17be bb25 83bd fd36 333d 4e78 a2be
00000170: d035 f53c cb20 20bd 686a 0ebe 5042 0f3e
00000180: 1a6a 36be e55e 1e3d 7230 7b3e 9da5 73be
00000190: 0a02 babd a192 b53d 4737 753e 60de 5bbe
000001a0: 6acf 443e a81b c1be 4497 26bd e3e6 07be
000001b0: edca c83d dd4d e0bd ac65 a2bc 9394 83be
000001c0: 147b 9e3d a90a f53a fbe4 38be 1507 03bd
000001d0: 2bf1 53bc 555c 273e 24bf 49be 96e9 393d
000001e0: d9c7 463d 14ba 273d ea39 143c d66b 1cbd
000001f0: b888 853d 27c1 19be 7ae2 ecbd f0ec 8dbb
00000200: 2238 d0bc 63a7 aabd 20f7 233d f46d f33c
00000210: 386b 173e 8eab 00be 6651 05be b39c e23d
00000220: 6660 d0bd 52a3 68be f340 b43c b911 dfbd
00000230: 80b1 e03c 5a1a 10be 8ec0 d4bd 5aec b73d
00000240: 7065 bdbd 2b52 153d e970 f1bd fc5f d0bd
00000250: 241c 18be a6c2 26be 81de df3c 3526 943d
00000260: 0320 de3c 2018 24be 83db 8dbd f353 edbd
00000270: fab0 1a3e 46a1 083e 4c0c 8abe 9e64 b23d
00000280: 6eb7 d33d 65b1 70bd ed46 cb3d 1cdd 0bbc
00000290: 7c0a 09be 7317 40be 09a9 12bd 8b0e bb3d
000002a0: 939d 413e ade6 b63e a55b b1bd d5f6 2f3e
000002b0: da99 263e 460d 603d c078 e23d dad2 ff3c
000002c0: df74 253e cf5d 1d3e 5e82 023e 35da a83e
000002d0: 0ea4 e73d 5f16 81bc 19c1 043a 5f0a 983d
000002e0: d5e6 89bd 63f8 01be 25db 16be 6026 9c3e
000002f0: 10f8 44bd 88cf 24be ad88 9f3d 9dfe 203c
00000300: e372 8f3c 0fd5 2b3e bcfd 0dbe b937 9bbb
00000310: a40e a63d 62b3 3e3e 2f45 84be 2a63 db3c
00000320: 715e 96bd 7f19 5dbc 086b 5cbc 0d2d 143d
00000330: efbe f33d 0e7f 243e c4cf 34be 9d3f 67bd
00000340: fad3 9c3d e728 c53c d51c 9abd 1423 5abe
00000350: 94b9 84bd ec22 ec3d 9c87 a1ba 8a48 053d
00000360: 0cda 2b3d 6bc3 0cbd 4c31 323e 64bf 73be
00000370: 09b2 ce3d 0e66 4cbd c252 c53d db7e d5bd
00000380: 58ed 02be 0071 25bd 912e e5bd 7234 babd
00000390: f2e5 2ebe 7661 d63c 96f0 6f3e 7cba 383d
000003a0: 6a09 3d3e 58ef 0a3d efa6 26bd ad52 a23c
000003b0: bc08 49bc 09cd e0bd 1438 70bd dfce 733d
000003c0: b945 a73c 8e76 ab3d e57c c63d 2801 713d
000003d0: 11b6 aa3d e93a 123e f17e 153e 6e1f 34be
000003e0: 6214 113e 9f55 babd 9898 30be 34d6 0b3e
000003f0: 1063 c1bd 1658 d7bd 2672 593e 8cbe 283c

x_embedders.0.2.bias f4 [32]
0.03749717 0.10493488 0.106915876 0.047075767 0.13911575 0.016660437 -0.10737768 0.05737075
-0.06660422 0.032205425 -0.1313843 -0.03717946 -0.06722886 -0.13196608 -0.00567236 0.01601797
0.072777204 0.09347213 -0.12484194 -0.14270772 0.121744886 -0.08932533 0.13305901 0.16206019
0.022879204 -0.14923187 0.13883074 -0.18147299 -0.07038549 -0.078454204 0.11470509 -0.02920522
00000000: a296 193d 19e8 d63d b6f6 da3d 85d2 403d
00000010: 5c74 0e3e 787b 883c d4e8 dbbd 97fd 6a3d
00000020: cb67 88bd d6e9 033d 9b89 06be 7d49 18bd
00000030: 49af 89bd 1e22 07be 34df b9bb 1e38 833c
00000040: 370c 953d 516e bf3d 22ad ffbd f921 12be
00000050: 6255 f93d 33f0 b6bd 9f40 083e 1bf3 253e
00000060: 2b6d bb3c 3dd0 18be a529 0e3e 0ed4 39be
00000070: 4526 90bd 99ac a0bd 81ea ea3d c93f efbc

x_embedders.1.0.weight f4 [32, 1]
0.4703777 0.5349056 0.1697047 0.7217992 0.022476077 0.7490992 -0.002653591 0.51936793
0.21105774 0.25120082 0.48386455 0.13176453 0.5081815 -0.6799382 -0.77632874 0.28635636
-0.34032598 0.71519125 -0.569371 0.48247334 0.5183547 0.014747858 0.890321 -0.5467328
0.42392826 0.44822806 0.057497382 -0.22602475 -1.1553446 0.23932299 0.02307668 0.08937949
00000000: 59d5 f03e 93ef 083f 12c7 2d3e d5c7 383f
00000010: c01f b83c f7c4 3f3f dfe7 2dbb 4cf5 043f
00000020: 851f 583e 659d 803e 18bd f73e 48ed 063e
00000030: 2f18 023f 6e10 2ebf 7bbd 46bf 4d9d 923e
00000040: 353f aebe c616 373f 4cc2 11bf bf06 f73e
00000050: e5b2 043f 00a1 713c 14ec 633f aef6 0bbf
00000060: 200d d93e 267e e53e 6082 6b3d 0873 67be
00000070: 55e2 93bf 1611 753e 4e0b bd3c 980c b73d

x_embedders.1.0.bias f4 [32]
0.03596153 0.91305965 -0.029797368 0.16715822 -0.58938766 0.75360084 0.5648423 -0.9895011
0.6715706 0.2916698 -0.9999018 -0.46099067 0.32428047 -0.8344797 -0.77989054 0.62635416
0.57119286 -0.38022172 0.7213715 0.21147075 -0.5244888 -0.64854276 -0.023079894 0.72219735
0.37231627 -0.08183144 -0.50957 -0.86605895 0.4570176 0.21593828 0.850343 0.8735415
00000000: 664c 133d 47be 693f 9c19 f4bc 862b 2b3e
00000010: 1ce2 16bf fceb 403f 8199 103f f24f 7dbf
00000020: 0dec 2b3f be55 953e 90f9 7fbf f806 ecbe
00000030: 1708 a63e 76a0 55bf e8a6 47bf bf58 203f
00000040: b239 123f 6cac c2be cdab 383f ca8b 583e
00000050: e644 06bf e606 26bf 0c12 bdbc ede1 383f
00000060: 3da0 be3e 3e97 a7bd 2e73 02bf 0ab6 5dbf
00000070: 36fe e93e ed1e 5d3e 14b0 593f 6aa0 5f3f

x_embedders.1.2.weight f4 [32, 32]
0.076385945 -0.16963848 -0.22678636 -0.23529275 -0.11334908 -0.013766446 -0.017090674 0.17656942
0.058017947 -0.051977932 -0.011502654 -0.056604017 -0.13940923 0.0055174227 0.14651951 0.089648046
-0.11521034 0.12045535 -0.046483494 -0.1277146 -0.04601258 0.1432717 0.04826249 -0.081045
0.07672732 0.07222299 -0.16924931 -0.064977415 0.11388709 -0.014619475 0.11993551 0.011846562
-0.0007619661 0.1451754 0.001017782 -0.011726004 -0.11727586 -0.032915756 -0.020502346 0.015120835
0.1425256 0.14764827 0.118276805 -0.019770391 -0.000529875 0.0139907515 0.0062114564 -0.040657055
0.14911759 -0.1763468 -0.015691238 -0.20088525 -0.11215698 0.017078977 -0.22659585 -0.046118908
0.08679917 -0.10064463 -0.068074934 0.13768376 -0.14505634 0.16048665 -0.03169429 0.16418146
0.019615691 0.06263566 0.04294701 0.041715868 0.12540177 0.012571011 -0.027892662 -0.114142075
0.11731736 -0.1522338 0.055720154 -0.06061699 -0.025436101 -0.06576101 -0.08534181 0.11577314
0.121638924 -0.107215434 -0.12683482 0.11860266 0.079641625 -0.054735564 -0.022773389 0.15660425
0.08858041 -0.2201705 -0.10940211 -0.06488724 -0.13205831 0.15738131 -0.055180684 -0.06763845
0.1278091 0.11527351 0.067749545 -0.13374598 -0.00585759 0.18644407 -0.10287639 0.053200323
0.07300813 0.17259532 -0.11289541 -0.05776356 0.16415615 0.09821088 0.09226868 0.100768365
-0.1719386 -0.032171246 -0.1252503 0.059825312 0.031280074 0.01667755 0.1369042 0.04276202
-0.108561575 -0.011610386 0.10095049 -0.124978386 -0.07817476 0.17887473 0.07752743 0.07495481
0.16025494 0.08282013 -0.04196868 0.06330605 -0.09700655 -0.13706745 0.043218166 0.06749523
-0.14387384 0.111775436 0.02660916 0.04111777 0.02011272 -0.1427726 0.14092791 -0.041181568
0.16551307 0.32042235 -0.03198173 0.08617387 -0.034974553 -0.09635684 -0.08272574 0.12678488
0.0010781569 -0.00850761 0.017381698 -0.17198221 0.2179065 -0.058416136 -0.1468915 -0.111840725
0.17640184 0.15824458 -0.0273781 0.023504594 0.11277487 -0.0686139 -0.015482994 0.059111185
0.03955112 0.04041096 0.124945655 0.05324622 0.09551959 -0.0863665 -0.049474984 -0.09675403
-0.16260259 0.34791368 -0.07625438 -0.11007491 0.021173092 -0.048927095 -0.06972233 -0.1650062
0.15123461 0.113912426 0.06795395 -0.10565911 -0.19298363 -0.07396404 0.037709508 0.023864461
0.09056236 0.16397169 0.0639728 0.16249144 -0.0051737153 -0.16496035 -0.0459793 -0.0015044106
0.1496766 -0.03688194 -0.14259247 0.16316594 -0.062144637 0.016973462 0.08703979 -0.09254125
0.11539152 -0.08994026 -0.15508638 0.016145313 0.0014053944 -0.0021619226 -0.05514629 0.011424269
0.070725776 0.09199377 -0.009689308 -0.13566811 -0.16319947 -0.024312947 -0.15860061 -0.040753324
0.08106125 0.10445932 0.13573742 0.15091448 0.07021703 -0.00086973317 0.053592958 0.13543868
0.10432764 -0.04781746 0.066630855 -0.012415745 0.17686479 -0.10155306 -0.010438157 0.09845686
0.13259001 -0.049004477 -0.103684165 0.15109484 -0.11138968 -0.041059162 -0.09575784 -0.0010057443
-0.058977492 -0.043350413 0.017870853 -0.13398993 0.04540033 -0.0105759045 0.0636707 0.08764574
00000000: 3c70 9c3d b6b5 2dbe af3a 68be 95f0 70be
00000010: 9023 e8bd a98c 61bc be01 8cbc 9dce 343e
00000020: 3aa4 6d3d d0e6 54bd a175 3cbc 9dd9 67bd
00000030: 4bc1 0ebe 7fcb b43b 3609 163e 6599 b73d
00000040: 66f3 ebbd 4bb1 f63d 7a65 3ebd 9ec7 02be
00000050: b077 3cbd d1b5 123e e4ae 453d ecfa a5bd
00000060: 3723 9d3d a6e9 933d b14f 2dbe e112 85bd
00000070: a23d e93d 8686 6fbc c0a0 f53d 1518 423c
00000080: aebe 47ba dca8 143e 1967 853a 6d1e 40bc
00000090: 532e f0bd acd2 06bd 89f4 a7bc 61bd 773c
000000a0: 3bf2 113e 1c31 173e 1c3b f23d 84f5 a1bc
000000b0: 4fe7 0aba 7739 653c 7989 cb3b 0388 26bd
000000c0: 48b2 183e 4194 34be e98a 80bc ddb4 4dbe
000000d0: 8fb2 e5bd 36e9 8b3c be08 68be 2ee7 3cbd
000000e0: c3c3 b13d c61e cebd df6a 8bbd f9fc 0c3e
000000f0: a689 14be 9d56 243e dfd1 01bd 2f1f 283e
00000100: 16b1 a03c 2047 803d 34e9 2f3d 42de 2a3d
00000110: 5269 003e a4f6 4d3c 277f e4bc 52c3 e9bd
00000120: 1644 f03d 2de3 1bbe d13a 643d 8549 78bd
00000130: 5f5f d0bc b5ad 86bd b0c7 aebd 781a ed3d
00000140: d41d f93d c493 dbbd fde0 01be f4e5 f23d
00000150: 261b a33d 6632 60bd 428f babc dd5c 203e
00000160: a569 b53d 6074 61be 370e e0bd 9ae3 84bd
00000170: 4b3a 07be 9128 213e 2405 62bd 0786 8abd
00000180: 64e0 023e 8514 ec3d 46c0 8a3d b5f4 08be
00000190: 07f1 bfbb 32eb 3e3e dbb0 d2bd 95e8 593d
000001a0: 4985 953d d4bc 303e b535 e7bd 7c99 6cbd
000001b0: 8d18 283e c922 c93d 5df7 bc3d a55f ce3d
000001c0: ac10 30be ffc5 03bd 9d41 00be 630b 753d
000001d0: 891f 003d 5b9f 883c 9d30 0c3e 3a27 2f3d
000001e0: 8855 debd 7d39 3ebc 21bf ce3d abf4 ffbd
000001f0: 171a a0bd f02a 373e b4c6 9e3d e881 993d
00000200: df19 243e 9a9d a93d 5ae7 2bbd 9aa6 813d
00000210: 5fab c6bd 695b 0cbe 8805 313d f03a 8a3d
00000220: aa53 13be 85ea e43d 74fb d93c 1b6b 283d
00000230: 6ec3 a43c fb32 12be 684f 103e 01ae 28bd
00000240: 427c 293e 660e a43e 46ff 02bd ed7b b03d
00000250: 7a41 0fbd bc56 c5bd 1d6c a9bd e5d3 013e
00000260: f150 8d3a 8163 0bbc 1064 8e3c 1b1c 30be
00000270: e222 5f3e c245 6fbd ba6a 16be c00c e5bd
00000280: afa2 343e de0a 223e 0a48 e0bc b58c c03c
00000290: 83f6 e63d 7285 8cbd 62ac 7dbc 921e 723d
000002a0: 5b00 223d f685 253d 82e3 ff3d b518 5a3d
000002b0: c69f c33d ebe0 b0bd 48a6 4abd fa26 c6bd
000002c0: 4b81 26be be21 b23e 422b 9cbd f46e e1bd
000002d0: 3173 ad3c c767 48bd 95ca 8ebd 63f7 28be
000002e0: 3fdd 1a3e eb4a e93d 712b 8b3d ce63 d8bd
000002f0: 809d 45be 757a 97bd 4975 1a3d 677f c33c
00000300: c278 b93d 32e8 273e 2c04 833d 2864 263e
00000310: 4588 a9bb 5eeb 28be ca54 3cbd a52f c5ba
00000320: d344 193e 8411 17bd c303 12be f914 273e
00000330: 608b 7ebd ee0b 8b3c eb41 b23d 4486 bdbd
00000340: 6452 ec3d 9932 b8bd f7ce 1ebe 2d43 843c
00000350: 3635 b83a 0baf 0dbb 14e1 61bd db2c 3b3c
00000360: add8 903d 3b67 bc3d e7bf 1ebc 95ec 0abe
00000370: c31d 27be f22b c7bc 3368 22be f5ec 26bd
00000380: 7103 a63d c5ee d53d c0fe 0a3e 5389 1a3e
00000390: f2cd 8f3d cefe 63ba 4a84 5b3d 70b0 0a3e
000003a0: bba9 d53d 3edc 43bd c275 883d 696b 4bbc
000003b0: 0b1c 353e 0dfb cfbd ce04 2bbc c0a3 c93d
000003c0: adc5 073e ebb8 48bd 5d58 d4bd 9bb8 1a3e
000003d0: 4620 e4bd a72d 28bd b01c c4bd 2ed3 83ba
000003e0: 6292 71bd 3490 31bd e565 923c a834 09be
000003f0: b2f5 393d 8f46 2dbc c965 823d 9c7f b33d

x_embedders.1.2.bias f4 [32]
-0.18134853 -0.02378368 -0.0095317215 -0.06256307 0.1909036 -0.006981485 -0.05887962 0.017843533
-0.12302354 0.02780311 -0.099825665 -0.19475839 -0.05798821 -0.07686087 0.09465036 -0.077392444
-0.021225944 -0.15305197 -0.0896334 0.10839459 -0.07630212 -0.10059788 -0.19139798 -0.17777626
0.0029660724 0.1705154 0.12251939 -0.13188116 -0.094913356 -0.116658986 0.14135478 -0.18219316
00000000: 6eb3 39be fed5 c2bc f02a 1cbc 1121 80bd
00000010: 3c7c 433e f1c4 e4bb c22b 71bd 9a2c 923c
00000020: c4f3 fbbd 59c3 e33c 6671 ccbd be6e 47be
00000030: 0c85 6dbd 3b69 9dbd 0cd8 c13d ee7f 9ebd
00000040: 08e2 adbc a8b9 1cbe b791 b7bd fcfd dd3d
00000050: 4944 9cbd 4306 cebd d5fd 43be fb0a 36be
00000060: 7062 423b 979b 2e3e 72eb fa3d db0b 07be
00000070: ef61 c2bd e8ea eebd 4fbf 103e d890 3abe

c_embedder.weight f4 [3, 32]
0.14215824 0.010436062 0.71105844 0.24686132 -2.8725443 0.58406025 0.26609206 0.36332026
1.3712916 1.5766253 0.007735824 -0.333981 -1.4152645 1.3902119 -0.19703628 0.69040734
-0.6383323 -0.5946937 0.3480393 -0.8926289 -0.09464232 -0.87924767 2.3079183 0.4029875
0.31940588 0.31512403 -0.98938036 0.48556143 0.77075094 -1.7483877 -0.7248923 0.30193248
0.12441495 -0.07364541 -0.7973662 0.5445308 -1.3446584 0.10311923 1.4510173 -1.5211854
1.7899129 -0.18489355 0.5401208 0.98072666 -1.2831022 0.6228413 0.44532976 -1.4947842
0.806312 -0.77235794 -0.6849473 1.6568626 1.3772556 0.078661084 1.3693607 1.430306
-1.7243396 0.96036947 -0.78484124 0.59832764 0.7539334 -0.30938074 -0.49641982 0.3407388
-1.8746669 -0.3079882 -0.15093957 0.06355469 -0.021395003 -0.23891896 -1.3572956 -0.5040239
-0.7398637 -2.1296582 1.060905 0.863852 1.2751231 0.59893095 0.6988195 0.23164614
-1.2878187 0.80589646 -1.3524114 0.24249034 1.2320222 -0.47346827 0.58482563 -0.34988576
0.22562195 -1.1582571 -0.86519015 0.2688886 -0.112381764 -0.40418267 -0.077843904 2.7501583
00000000: ee91 113e 04fc 2a3c ed07 363f 37c9 7c3e
00000010: c4d7 37c0 f984 153f 383d 883e 1d05 ba3e
00000020: 7c86 af3f dcce c93f cc7c fd3b 8fff aabe
00000030: 6327 b5bf 77f2 b13f e1c3 49be 89be 303f
00000040: bf69 23bf d93d 18bf 3532 b23e 5483 64bf
00000050: d5d3 c1bd 6016 61bf efb4 1340 6154 ce3e
00000060: 2b89 a33e f057 a13e 0848 7dbf 829b f83e
00000070: ef4f 453f 2bcb dfbf 8b92 39bf e596 9a3e
00000080: 44cd fe3d 68d3 96bd 3120 4cbf 5f66 0b3f
00000090: c41d acbf 2d30 d33d efba b93f 34b6 c2bf
000000a0: de1b e53f bc54 3dbe 5b45 0a3f e710 7b3f
000000b0: b13c a4bf 8772 1f3f 4302 e43e 1755 bfbf
000000c0: 776a 4e3f 40b9 45bf b558 2fbf 1314 d43f
000000d0: e949 b03f 1019 a13d 3647 af3f 4414 b73f
000000e0: 29b7 dcbf c6da 753f 5beb 48bf 002c 193f
000000f0: c801 413f 2767 9ebe bd2a febe 5175 ae3e
00000100: 16f5 efbf a1b0 9dbe e78f 1abe f628 823d
00000110: 9344 afbc 2ca7 74be ddbb adbf b607 01bf
00000120: b567 3dbf 524c 08c0 bccb 873f 6825 5d3f
00000130: 3c37 a33f 8a53 193f d6e5 323f a534 6d3e
00000140: 3ed7 a4bf 3b4f 4e3f d11b adbf 634f 783e
00000150: e7b2 9d3f 6f6a f2be 22b7 153f 3a24 b3be
00000160: 7109 673e c541 94bf 1a7d 5dbf c4ab 893e
00000170: 6928 e6bd 08f1 cebe a06c 9fbd 9802 3040

encoder.layers.0.self_attn.in_proj_weight f4 [96, 32]
0.050277717 -0.13916801 0.18378271 0.07507646 -0.02343138 -0.06411688 -0.114937395 -0.08228978
-0.12077128 0.037811894 0.09603557 0.0049346867 0.18969378 0.08587939 -0.16242048 -0.044376824
-0.15278661 0.12948996 0.18038757 0.13051501 0.18889369 0.010266295 0.1507701 -0.031290237
-0.049465563 -0.11801184 -0.059220135 -0.058861505 0.058222033 -0.08384967 0.14993812 -0.117815465
-0.031405132 0.0035709932 0.2552753 0.23858479 -0.18215144 -0.11733729 0.03629687 0.17165108
-0.2177157 -0.06870041 -0.1698165 0.077439256 -0.0038911263 0.09799577 0.15539268 -0.22378953
-0.17462032 0.11019597 0.10881437 0.03657441 0.045860287 -0.0638568 0.18831821 -0.0061509474
-0.11185741 0.17141694 0.23590866 0.13034222 -0.09108071 0.02821869 -0.012475348 -0.06524246
0.08706622 0.10149441 0.1449657 0.15439971 -0.027440839 0.010681549 -0.098252065 0.016594745
0.09656341 -0.011110077 -0.091342084 -0.18364933 -0.058017194 0.20070435 -0.112323515 -0.09095514
-0.10953295 0.25286108 0.103865184 -0.12778538 0.25399485 -0.13522749 0.1671723 0.08824746
0.029260844 -0.038967203 -0.079071105 -0.0547496 0.09413592 -0.17456084 -0.2705062 0.11798426
-0.15995243 0.14917561 -0.2683294 -0.17872323 0.17542073 -0.022965232 -0.060756534 0.06176813
0.0972283 0.051640507 -0.1438654 -0.17747067 -0.052900646 0.12607521 0.19023642 0.19781058
-0.21293795 -0.15200625 -0.20592134 0.13720518 0.045265723 0.12915342 0.12968901 0.03591582
0.047078375 0.03247452 -0.23673394 0.031059854 -0.18084097 0.045964945 -0.12637192 -0.071361236
-0.082385056 0.047539663 0.1591925 0.08956756 0.21408507 -0.18878579 -0.08652378 -0.05807752
0.09338 -0.23811685 -0.067102194 -0.10596799 0.30062872 -0.2051197 -0.06926771 0.10335293
0.19279762 -0.016233021 0.06947973 -0.032471366 -0.13854268 -0.12379581 0.12328126 -0.113731876
-0.21341181 -0.010728 0.076593556 0.052550435 0.019669224 0.23932609 0.13698618 -0.043200403
0.24901417 -0.22096667 0.13383019 0.22909474 0.19245982 -0.03574571 -0.025028434 0.08122408
-0.0124995895 -0.1570343 -0.14897512 -0.1388775 0.103388295 0.22481324 0.13095418 -0.15806825
0.21123306 -0.002677821 0.08814898 -0.07512006 0.33021003 0.10981711 0.22197266 -0.13680837
-0.15282133 -0.087410405 -0.081540085 0.026508326 -0.092000626 -0.1422862 -0.07518967 0.04429757
0.07847864 0.028399844 0.11511033 -0.09527484 0.0116988225 -0.0850695 -0.14751217 -0.026012367
-0.12565187 -0.14491989 0.059964176 0.08120877 -0.09948391 0.22581811 0.10386428 0.08696645
0.1644515 0.22112168 -0.10971561 -0.13187931 0.22706586 0.089314684 -0.04451909 -0.018881992
0.18291208 0.15725727 -0.121388525 0.048404515 0.19464464 0.15128402 -0.060492884 0.22319289
0.07818842 0.2047161 -0.17344314 -0.02805524 0.13170989 -0.06597865 -0.1863868 -0.16351254
0.022972433 0.22428626 0.10313965 -0.15629865 0.1696025 -0.09948877 0.01883607 -0.06687726
0.03429911 -0.24511583 0.0791617 0.22343612 -0.16362195 0.24733481 -0.14852922 0.05905715
-0.05073693 -0.11158844 -0.08383254 0.13160405 -0.12794045 0.09529299 -0.00054116704 -0.19010603
00000000: 02f0 4d3d 0f82 0ebe 8931 3c3e b0c1 993d
00000010: 2af3 bfbc b64f 83bd 4c64 ebbd 8b87 a8bd
00000020: ef56 f7bd a5e0 1a3d 4cae c43d 27b3 a13b
00000030: 163f 423e 89e1 af3d 8e51 26be 79c4 35bd
00000040: 1874 1cbe 0499 043e 85b7 383e baa5 053e
00000050: 596d 413e f633 283c 7a63 1a3e 312a 00bd
00000060: 679c 4abd 31b0 f1bd d090 72bd c318 71bd
00000070: 3a7a 6e3d 60b9 abbd 6189 193e 3c49 f1bd
00000080: aba2 00bd 5307 6a3b 72b3 823e 924f 743e
00000090: e885 3abe 884e f0bd 07ac 143d 4dc5 2f3e
000000a0: ddf0 5ebe cdb2 8cbd 60e4 2dbe 7998 9e3d
000000b0: 4402 7fbb 02b2 c83d 421f 1f3e 1529 65be
000000c0: abcf 32be 6dae e13d 12da de3d 0ccf 153d
000000d0: ffd7 3b3d 5bc7 82bd 7dd6 403e e38d c9bb
000000e0: 7f15 e5bd ec87 2f3e 0a92 713e 6e78 053e
000000f0: 8688 babd e22a e73c 6765 4cbc d79d 85bd
00000100: c64f b23d 4ddc cf3d e371 143e f51a 1e3e
00000110: 9ccb e0bc aa01 2f3c 6138 c9bd b4f1 873c
00000120: 09c3 c53d 0a07 36bc 8f11 bbbd 920e 3cbe
00000130: 70a3 6dbd 7185 4d3e df09 e6bd b046 babd
00000140: d052 e0bd 0277 813e 45b7 d43d 2cda 02be
00000150: 9d0b 823e 1379 0abe 372f 2b3e 16bb b43d
00000160: 70b4 ef3c 139c 1fbd 08f0 a1bd 1e41 60bd
00000170: 55ca c03d 14c0 32be ca7f 8abe bba1 f13d
00000180: 92ca 23be 7ec1 183e 7962 89be 3903 37be
00000190: 7ea1 333e 9521 bcbc d8db 78bd 9400 7d3d
000001a0: a21f c73d ff84 533d 7451 13be dfba 35be
000001b0: 59ae 58bd dc19 013e 56cd 423e db8e 4a3e
000001c0: 680c 5abe 87a7 1bbe 0bdd 52be 847f 0c3e
000001d0: 8d68 393d cb40 043e 32cd 043e 781c 133d
000001e0: 41d5 403d 0104 053d 626a 72be 3c71 fe3c
000001f0: 602e 39be bd45 3c3d a467 01be d725 92bd
00000200: 7fb9 a8bd f3b8 423d 5c03 233e 326f b73d
00000210: 1e39 5b3e 1051 41be 6133 b1bd b2e2 6dbd
00000220: 033e bf3d e7d4 73be e06c 89bd bf05 d9bd
00000230: 02ec 993e e60a 52be 3bdc 8dbd b3aa d33d
00000240: bd6c 453e 1dfb 84bc 644b 8e3d b200 05bd
00000250: 22de 0dbe a888 fdbd e37a fc3d 42ec e8bd
00000260: a088 5abe 7ec4 2fbc 15dd 9c3d 203f 573d
00000270: 5a21 a13c e611 753e 1b46 0c3e e8f2 30bd
00000280: 92fd 7e3e 1645 62be c80a 093e d097 6a3e
00000290: 3014 453e 186a 12bd 6e08 cdbc cf58 a63d
000002a0: 14cb 4cbc 99cd 20be ef8c 18be e735 0ebe
000002b0: 3ebd d33d 7135 663e da18 063e a5dc 21be
000002c0: 7b4d 583e 627e 2fbb 7487 b43d 8cd8 99bd
000002d0: 4a11 a93e cbe7 e03d cd4c 633e 7e17 0cbe
000002e0: 327d 1cbe 3a04 b3bd 7dfe a6bd fd27 d93c
000002f0: d36a bcbd 79b3 11be 0bfd 99bd 5e71 353d
00000300: 69b9 a03d caa6 e83c f7be eb3d 751f c3bd
00000310: 6bac 3f3c eb38 aebd 6e0d 17be e317 d5bc
00000320: e2aa 00be e165 14be ff9c 753d c950 a63d
00000330: 38be cbbd dd3c 673e ccb6 d43d 771b b23d
00000340: f965 283e b96d 623e 94b2 e0bd 5f0b 07be
00000350: f483 683e 9eea b63d a659 36bd 68ae 9abc
00000360: 4e4d 3b3e 0d08 213e 8c9a f8bd d043 463d
00000370: ed50 473e 33ea 1a3e 63c7 77bd ad8c 643e
00000380: 4021 a03d 19a1 513e 149b 31be 1ad4 e5bc
00000390: f5de 063e d01f 87bd 2edc 3ebe d56f 27be
000003a0: af30 bc3c 4cab 653e e13a d33d c10c 20be
000003b0: 47ac 2d3e c5c0 cbbd 1a4e 9a3c f2f6 88bd
000003c0: 397d 0c3d a5ff 7abe 881f a23d 70cc 643e
000003d0: 838c 27be 5645 7d3e 0b18 18be e9e5 713d
000003e0: 87d1 4fbd 7b88 e4bd 65b0 abbd 36c3 063e
000003f0: d202 03be f928 c33d 1bdd 0dba 28ab 42be

encoder.layers.0.self_attn.in_proj_bias f4 [96]
0.03730455 0.033346366 0.049751464 -0.022252196 0.07184517 0.064296454 0.028544148 -0.053528514
0.028363347 -0.047997147 -0.030799532 0.047054555 0.026641339 0.049514223 0.022324225 -0.06234135
-0.024248622 -0.003340144 0.0103901485 -0.038999464 0.009423199 0.0008022788 0.042054277 0.016523195
0.019046798 0.012057804 0.027139174 -0.033302307 0.06575291 -0.06671758 -0.0045260256 -0.018510064
-2.175778e-05 -0.00010586933 2.5145246e-06 6.5846805e-05 1.1302595e-05 -5.9446407e-05 -1.5157223e-05 -3.7960937e-05
-2.3446553e-05 -6.975453e-05 5.9602407e-05 -1.1890677e-05 0.00011100008 -0.000102379105 2.7862023e-05 7.094678e-05
-6.144289e-05 6.451616e-05 -3.7203117e-05 -5.1746192e-05 5.611767e-05 1.088698e-05 -4.273452e-06 -5.296354e-05
-1.46607035e-05 -2.0223688e-06 -2.422582e-05 -7.106093e-05 2.4520583e-05 -0.00017263739 -2.7219428e-06 -2.0483769e-05
-0.0068990807 0.010792393 0.013296261 0.0040322854 -0.005590843 0.03447352 0.010800893 0.016508956
0.015363589 0.003215922 0.010066033 0.008195731 0.019320825 -0.00015144366 0.006787149 -0.0052181864
-0.0064615957 0.008285864 0.0014988413 0.0042276434 0.01038585 -0.011520732 0.003122038 0.0072649927
0.0021604998 0.02242403 -0.018088939 -0.027714329 -0.013508617 -0.00011364224 -0.015139637 0.0005828036
00000000: a8cc 183d 3396 083d 31c8 4b3d 3d4a b6bc
00000010: 8f23 933d dcad 833d 6bd5 e93c b740 5bbd
00000020: 405a e83c a898 44bd 4d4f fcbc 47bc 403d
00000030: f03e da3c 6dcf 4a3d 4be1 b63c a559 7fbd
00000040: 0ca5 c6bc 51e6 5abb 713b 2a3c e7bd 1fbd
00000050: c363 1a3c 0550 523a 1b41 2c3d a75b 873c
00000060: 0808 9c3c 188e 453c f952 de3c 0068 08bd
00000070: 76a9 863d 3aa3 88bd 0e4f 94bb 6ba2 97bc
00000080: 7a84 b6b7 2a06 deb8 34bf 2836 3c17 8a38
00000090: 47a0 3d37 1856 79b8 c74b 7eb7 3f38 1fb8
000000a0: 17af c4b7 2e49 92b8 99fd 7938 127e 47b7
000000b0: b7c8 e838 5db4 d6b8 3db9 e937 43c9 9438
000000c0: e6da 80b8 da4c 8738 8b0a 1cb8 0d0a 59b8
000000d0: e45f 6b38 39a7 3637 ac64 8fb6 2b25 5eb8
000000e0: 3ef7 75b7 08b8 07b6 8d38 cbb7 8c06 95b8
000000f0: 8db1 cd37 ff05 35b9 9faa 36b6 8fd4 abb7
00000100: af11 e2bb 94d2 303c 90d8 593c 4321 843b
00000110: 6433 b7bb 1b34 0d3d 3bf6 303c ca3d 873c
00000120: 90b7 7b3c 38c2 523b 01ec 243c 6347 063c
00000130: b546 9e3c d9cc 1eb9 bb66 de3b 52fd aabb
00000140: cbbb d3bb 6fc1 073c c574 c43a 0b88 8a3b
00000150: 6a29 2a3c 74c1 3cbc 1b9b 4c3b 2d0f ee3b
00000160: 2c97 0d3b 99b2 b73c 412f 94bc 2909 e3bc
00000170: 3f53 5dbc 3753 eeb8 3d0c 78bc 4ac7 183a

encoder.layers.0.self_attn.out_proj.weight f4 [32, 32]
-0.12126233 -0.17107663 -0.053017266 0.16601314 0.15739708 -0.0023492377 -0.17018107 -0.031555746
-0.030324547 -0.16346365 -0.13802944 -0.08527329 0.0136897545 0.17844781 -0.06472197 -0.09965503
0.045983516 -0.16721639 -0.07503353 -0.15098609 -0.007678449 -0.1709948 -0.055242546 0.0035495437
-0.12651081 -0.2023128 0.054324333 0.15601075 0.098256946 -0.06480582 -0.0003927404 0.16199546
-0.07736358 0.13161401 -0.08434675 0.034075536 -0.06779414 0.04544812 0.067890175 0.06519159
0.11541348 0.0033850183 0.03138179 0.07737771 0.07393528 0.086158045 0.18551743 -0.06749986
0.041303128 -0.08944914 -0.024230814 -0.11389598 -0.10353872 0.06180822 0.15562305 0.16882497
-0.021195939 0.18173823 0.12687021 -0.016926149 -0.06584549 -0.0022406853 0.10405557 0.010741804
0.06279294 0.13775457 0.14739472 0.11313159 -0.031037496 0.15512231 -0.038068607 -0.11816206
-0.047379494 0.15787154 0.14804554 0.034308802 0.0022028328 0.02123611 0.08244582 -0.013100655
0.17174743 0.15681733 0.07814235 0.22723517 -0.098481946 -0.06602508 -0.022619672 -0.08625597
-0.13803941 -0.122867 -0.078932494 -0.14689122 0.05367396 0.18649352 -0.18815322 0.14072526
0.058330003 0.002164067 0.11808983 -0.04217903 -0.02936464 0.10820776 -0.2035312 -0.117788546
0.113186084 -0.10855821 0.06749255 0.06511478 -0.024476964 0.1250667 -0.064230196 -0.03293334
-0.082088575 0.07861825 0.14485672 -0.053394496 -0.08576765 -0.14097476 0.095617995 0.050341304
0.050280415 -0.02417082 0.11555855 -0.15471137 0.1543857 0.06555325 -0.050234996 0.1207564
-0.066516496 0.12642926 -0.08944742 0.10478376 0.053127714 -0.12600267 -0.08907956 0.14980939
-0.1758149 -0.13658404 0.048312023 0.09578448 -0.010571457 -0.051240187 0.009936961 0.06937697
-0.04332799 -0.017070217 -0.07560974 -0.12672514 0.15938744 0.011658785 -0.03294298 0.06731942
-0.117170334 -0.03314917 0.047469713 0.15212403 -0.09819287 0.0015768466 -0.040109567 -0.031707928
-0.014253055 -0.036677893 0.11527999 0.14090875 -0.03314425 -0.05989601 0.13543695 0.04560059
0.052920904 -0.036672655 -0.19653402 0.18671027 -0.13217852 0.05942441 0.049902912 -0.1654477
0.077453315 -0.1784565 0.1434024 0.12798493 0.003949639 0.11220481 0.051924642 -0.0820236
0.078271404 -0.14118533 0.112344146 0.066078864 -0.06928627 -0.070735976 0.013357776 -0.153142
-0.054388437 -0.0611131 -0.07805459 -0.10431936 0.21763445 -0.019933373 0.013026251 -0.026508132
0.15102142 -0.033957597 -0.033410013 0.009323684 0.08514062 -0.064215556 0.07317781 -0.15985635
-0.17000833 -0.054018077 -0.07197728 0.048703555 0.0024682074 -0.07965466 0.012536618 -0.067735925
-0.07217138 0.09881198 -0.0358593 0.104949094 -0.15498993 -0.124216475 0.11274929 0.056286786
-0.07774253 -0.14042506 -0.1120702 0.16086848 -0.008374371 -0.08633581 -0.06016165 -0.107200325
0.060633373 -0.0070604435 -0.099458575 -0.1248353 0.112398125 0.120248474 -0.084589705 -0.13441128
0.09114201 0.057073325 -0.13345155 0.024672812 -0.0057186037 -0.04847164 -0.028761756 -0.0883012
-0.057545997 0.013610201 -0.16645578 0.04812582 0.13937661 0.041769687 0.0601247 -0.15366925
00000000: 6258 f8bd b62e 2fbe a228 59bd 59ff 293e
00000010: b32c 213e abf5 19bb f243 2ebe 9940 01bd
00000020: 2f6b f8bc 0463 27be 9757 0dbe c3a3 aebd
00000030: fe4a 603c 06bb 363e f48c 84bd f017 ccbd
00000040: 3659 3c3d c63a 2bbe 2eab 99bd 199c 1abe
00000050: 809b fbbb 4319 2fbe 0246 62bd 769f 683b
00000060: 0d8c 01be 162b 4fbe 3183 5e3d 48c1 1f3e
00000070: f03a c93d eab8 84bd b9e8 cdb9 23e2 253e
00000080: cc70 9ebd d3c5 063e fdbd acbd ca92 0b3d
00000090: a7d7 8abd cf27 3a3d 010a 8b3d 2b83 853d
000000a0: e75d ec3d 2fd7 5d3b 318a 003d 3478 9e3d
000000b0: 616b 973d a173 b03d 48f8 3d3e 5e3d 8abd
000000c0: 782d 293d 1c31 b7bd b37f c6bc 4c42 e9bd
000000d0: 1c0c d4bd 9e2a 7d3d a65b 1f3e 74e0 2c3e
000000e0: 1ba3 adbc 9619 3a3e 44ea 013e b5a8 8abc
000000f0: 00da 86bd 76d8 12bb 161b d53d 64fe 2f3c
00000100: 9699 803d 890f 0d3e a4ee 163e 89b1 e73d
00000110: 5942 febc 62d8 1e3e d4ed 1bbd f3fe f1bd
00000120: 0011 42bd 14a9 213e 4099 173e 6387 0c3d
00000130: 675d 103b 5af7 ad3c 5bd9 a83d 21a4 56bc
00000140: 8fde 2f3e b994 203e 1909 a03d 56b0 683e
00000150: e7b0 c9bd 2838 87bd e44c b9bc f8a6 b0bd
00000160: 345a 0dbe b2a1 fbbd 5ca7 a1bd a76a 16be
00000170: 3ad9 5b3d 28f8 3e3e 3dab 40be 481a 103e
00000180: 71eb 6e3d 05d3 0d3b 15d9 f13d ebc3 2cbd
00000190: 1d8e f0bc 089c dd3d 7c6a 50be 1f3b f1bd
000001a0: 1bce e73d c453 debd 8939 8a3d e65a 853d
000001b0: ea83 c8bc 7c11 003e 1f8b 83bd 1ce5 06bd
000001c0: 0e1e a8bd 9b02 a13d 5255 143e 30b4 5abd
000001d0: f3a6 afbd b05b 10be 5ed3 c33d af32 4e3d
000001e0: d6f2 4d3d e201 c6bc f6a9 ec3d a86c 1ebe
000001f0: 4917 1e3e c840 863d 36c3 4dbd 224f f73d
00000200: cd39 88bd ac76 013e 3530 b7bd de98 d63d
00000210: 729c 593d d806 01be 586f b6bd a267 193e
00000220: d208 34be b0dc 0bbe d4e2 453d a72a c43d
00000230: e833 2dbc 3be1 51bd a3ce 223c 8315 8e3d
00000240: b178 31bd d7d6 8bbc 48d9 9abd 3cc4 01be
00000250: 7636 233e 7d04 3f3c 38ef 06bd c4de 893d
00000260: 00f7 efbd 6dc7 07bd 9a6f 423d 67c6 1b3e
00000270: 5819 c9bd 31ae ce3a ee49 24bd 2ce0 01bd
00000280: a585 69bc 8f3b 16bd ea17 ec3d 624a 103e
00000290: 44c2 07bd 8555 75bd fcaf 0a3e afc7 3a3d
000002a0: 97c3 583d 1136 16bd 3740 49be fa30 3f3e
000002b0: ce59 07be 0367 733d ff66 4c3d 1f6b 29be
000002c0: d89f 9e3d 4dbd 36be 14d8 123e 7b0e 033e
000002d0: f96b 813b a3cb e53d efae 543d fdfb a7bd
000002e0: c24c a03d e392 10be b014 e63d 5b54 873d
000002f0: f6e5 8dbd 06de 90bd 93da 5a3c 42d1 1cbe
00000300: 69c6 5ebd bb51 7abd 16db 9fbd 63a5 d5bd
00000310: 91db 5e3e 504b a3bc 0f6c 553c 9527 d9bc
00000320: 5ca5 1a3e 1f17 0bbd f0d8 08bd 5dc2 183c
00000330: 355e ae3d 7283 83bd 3fde 953d 62b1 23be
00000340: aa16 2ebe 0f42 5dbd d368 93bd 617d 473d
00000350: a6c1 213b fb21 a3bd 6366 4d3c 22b9 8abd
00000360: 97ce 93bd ef5d ca3d 34e1 12bd 8def d63d
00000370: aeb5 1ebe 3565 febd 1ae9 e63d f98c 663d
00000380: 7a37 9fbd 96cb 0fbe 1085 e5bd b5ba 243e
00000390: a834 09bc d4d0 b0bd 106c 76bd d88b dbbd
000003a0: b35a 783d 4b5b e7bb f0b0 cbbd a6a9 ffbd
000003b0: fd30 e63d d544 f63d 5e3d adbd 1ca3 09be
000003c0: aaa8 ba3d b8c5 693d 86a7 08be a31e ca3c
000003d0: 2063 bbbb 338a 46bd c69d ebbc 42d7 b4bd
000003e0: 5ab5 6bbd 52fd 5e3c 6273 2abe 941f 453d
000003f0: beb8 0e3e b116 2b3d 5145 763d 795b 1dbe

encoder.layers.0.self_attn.out_proj.bias f4 [32]
-0.004332366 0.015217327 0.019242099 -0.0006908553 -0.00836881 -0.010812268 -0.0043703057 0.000544461
-0.0152221145 -0.028845405 -0.012916217 0.007519942 -0.0020778247 0.00035264305 0.003311164 -0.004755865
0.0074432013 0.019839698 0.0037854828 -0.009453527 -0.012759072 0.0048835194 -0.018971039 0.003631139
0.016769461 0.010558126 0.009386992 -0.012481884 -0.009542841 0.010215983 -0.018810831 0.010322244
00000000: 85f6 8dbb 1852 793c 9ba1 9d3c 841a 35ba
00000010: 551d 09bc f025 31bc c834 8fbb 29ba 0e3a
00000020: 2d66 79bc 334d ecbc 8a9e 53bc d869 f63b
00000030: 1d2c 08bb f3e2 b839 1d00 593b 16d7 9bbb
00000040: 19e6 f33b dd86 a23c dd15 783b f7e2 1abc
00000050: 6d0b 51bc ee05 a03b 2769 9bbc 67f8 6d3b
00000060: 1c60 893c fdfb 2c3c e6cb 193c d180 4cbc
00000070: 9459 1cbc f060 273c 2c19 9abc a11e 293c

encoder.layers.0.linear1.weight f4 [64, 32]
-0.055507507 0.03288643 -0.109738216 -0.05210514 0.051673844 0.12138501 0.19950442 0.079490215
-0.111499645 -0.006396708 0.058486603 -0.1273975 0.14717151 -0.11728906 0.07583453 0.051977105
-0.057737302 0.0150917 -0.045571294 -0.056166593 -0.17067158 0.13056388 -0.18565314 -0.085791215
0.0101179 0.014511773 0.06081233 -0.112867996 0.0507903 0.053895876 0.08309615 0.16893591
-0.07185809 0.1420691 -0.1202384 0.11647255 -0.07518891 0.116005026 0.079338126 -0.027533831
0.09295194 0.08487535 -0.1810132 0.14565939 0.11310077 0.11229357 0.17275505 -0.03266074
-0.09469464 -0.06429255 -0.009989069 -0.029077794 0.114104636 0.04778037 0.075653516 0.08943027
0.1572613 0.08972506 -0.04827598 -0.1196877 0.14534299 0.070138164 0.151809 -0.19333191
0.10363719 0.10809208 -0.047239896 0.10717865 0.07021166 -0.051404286 0.07772962 0.08390617
-0.0040410324 0.17588219 0.15559681 -0.13449949 -0.11518808 0.053655505 -0.0545329 -0.17297214
-0.15161055 -0.09228167 -0.015328494 0.18452634 0.04221587 0.20970538 -0.044660073 0.051279508
0.05111907 0.09246073 0.010025973 -0.027782667 0.21920739 0.032362342 -0.10488443 -0.011281003
-0.06667505 -0.12918381 0.0066775423 0.12973806 -0.15838908 0.084192745 0.10001023 0.13061519
-0.0044338433 -0.13466308 -0.023386154 0.17015268 -0.090379946 0.1835182 -0.002329298 0.12337281
-0.022006366 0.16968814 -0.12787361 -0.14966573 0.19138055 0.11269513 0.12081063 -0.051628117
-0.16744128 -0.041418698 0.08110502 0.0023932417 0.09403447 -0.12492286 -0.025396675 -0.14733113
-0.059237104 0.11027494 -0.057024393 -0.15170543 0.06935642 -0.15838732 0.010540583 0.033722255
0.070427425 -0.036752813 0.047996026 0.023504805 -0.1465343 0.07177148 -0.044528816 -0.022422733
0.002746891 0.19477248 0.13667832 0.11967583 -0.07054485 -0.15300252 -0.04328657 0.08824942
0.05808204 -0.094869465 -0.069568716 0.07143209 -0.093474254 0.12405998 0.08833618 -0.07643087
-0.030224824 -0.122887455 -0.11328929 -0.14688973 0.12283057 0.18297733 0.18815993 -0.13210009
0.13739143 -0.091228455 -0.12349913 -0.026035978 -0.11789624 -0.08192787 0.06558801 0.16243665
0.023681305 -0.1429754 -0.04155392 0.13642912 -0.081464335 0.120427676 -0.14626344 -0.110563576
-0.14130977 0.0046502645 0.025831487 0.053276066 -0.087421656 0.056747884 0.05652907 -0.25344372
-0.10805722 0.1737277 0.05024567 -0.16833565 0.07380531 0.2271329 -0.14320101 0.0061102784
-0.04466952 -0.014607513 -0.05814303 -0.05092413 0.24444202 0.10272938 0.08216742 0.10989019
0.12895642 0.069625996 -0.12997115 -0.10961132 0.037026778 0.07044276 -0.15426981 0.013480664
-0.032239728 -0.022101432 0.013219628 0.10280235 0.028607404 -0.12517922 -0.0044906987 0.09137109
-0.016222032 0.18311225 -0.057393964 0.04996205 -0.04476295 -0.1124997 -0.13104136 -0.08561488
-0.12184584 -0.120155506 -0.11911651 -0.008384066 0.01664505 -0.032149006 0.055615555 0.09429152
0.054976776 0.041498043 0.1058962 0.011344452 -0.0027620755 -0.09395698 -0.07410969 -0.13310297
0.057520967 -0.19477071 -0.1602547 -0.077491745 0.122641966 0.019632395 -0.08553452 -0.02733807
00000000: d75b 63bd ecb3 063d 6ebe e0bd 336c 55bd
00000010: f4a7 533d b498 f83d e34a 4c3e c4cb a23d
00000020: ed59 e4bd 7a9b d1bb a68f 6f3d 7e74 02be
00000030: 21b4 163e 3f35 f0bd 224f 9b3d f2e5 543d
00000040: f37d 6cbd 2d43 773c f7a8 3abd f10e 66bd
00000050: 88c4 2ebe 8ab2 053e db1b 3ebe 4eb3 afbd
00000060: 8cc5 253c cac2 6d3c 5a16 793d 5627 e7bd
00000070: 7d09 503d ecc1 5c3d 502e aa3d 89fd 2c3e
00000080: 562a 93bd 907a 113e 8d3f f6bd 2989 ee3d
00000090: a5fc 99bd 0b94 ed3d 077c a23d a18e e1bc
000000a0: 965d be3d 21d3 ad3d 865b 39be bc27 153e
000000b0: 60a1 e73d 2cfa e53d b3e6 303e 45c7 05bd
000000c0: 43ef c1bd d0ab 83bd 31a9 23bc 8e34 eebc
000000d0: b1af e93d 59b5 433d 3bf0 9a3d 3827 b73d
000000e0: 1b09 213e c6c1 b73d 09bd 45bd d31e f5bd
000000f0: cbd4 143e 99a4 8f3d d273 1b3e cdf8 45be
00000100: bc3f d43d 615f dd3d 9f7e 41bd 7b80 db3d
00000110: 21cb 8f3d 4d8d 52bd b530 9f3d 00d7 ab3d
00000120: a36a 84bb 761a 343e c554 1f3e 3cba 09be
00000130: bae7 ebbd e0c5 5b3d e45d 5fbd 9c1f 31be
00000140: cc3f 1bbe 2cfe bcbd 5d24 7bbc 79f4 3c3e
00000150: 8cea 2c3d 02bd 563e 7bed 36bd 760a 523d
00000160: 3b62 513d 0d5c bd3d fb43 243c 7a98 e3bc
00000170: e777 603e 608e 043d a6cd d6bd f5d3 38bc
00000180: ee8c 88bd c348 04be 49cf da3b 0eda 043e
00000190: bf30 22be 3f6d ac3d 2ad2 cc3d fdbf 053e
000001a0: c649 91bb 1ee5 09be 5294 bfbc 813c 2e3e
000001b0: 1f19 b9bd 32ec 3b3e 23a7 18bb e2aa fc3d
000001c0: b246 b4bc bac2 2d3e 4df1 02be f941 19be
000001d0: 43f9 433e b4cc e63d 906b f73d 0178 53bd
000001e0: ba75 2bbe a7a6 29bd 641a a63d efd7 1c3b
000001f0: 2595 c03d 8ed7 ffbd b00c d0bc f9dd 16be
00000200: 9ba2 72bd d4d7 e13d 6992 69bd ab58 1bbe
00000210: bd0a 8e3d 4930 22be 69b2 2c3c 5920 0a3d
00000220: 413c 903d 1e8a 16bd 7b97 443d 268d c03c
00000230: 160d 16be edfc 923d d963 36bd e1af b7bc
00000240: 2f05 343b 7072 473e 67f5 0b3e 9a18 f53d
00000250: d179 90bd b1ac 1cbe 424d 31bd 1dbc b43d
00000260: 6fe7 6d3d ec4a c2bd 0b7a 8ebd fd4a 923d
00000270: 6e6f bfbd 2913 fe3d 99e9 b43d ca87 9cbd
00000280: 0d9a f7bc 6bac fbbd 3704 e8bd 436a 16be
00000290: 988e fb3d 695e 3b3e ffac 403e 3f45 07be
000002a0: 57b0 0c3e fcd5 babd 1ded fcbd 6749 d5bc
000002b0: 9573 f1bd cdc9 a7bd 0253 863d cb55 263e
000002c0: 4cff c13c 2568 12be 7134 2abd 13b4 0b3e
000002d0: c6d6 a6bd c9a2 f63d 15c6 15be 286f e2bd
000002e0: 82b3 10be 3f61 983b 8e9c d33c 0138 5a3d
000002f0: 200a b3bd 7870 683d 078b 673d 60c3 81be
00000300: 1b4d ddbd ade5 313e 67ce 4d3d 2e60 2cbe
00000310: 3d27 973d 8795 683e 49a3 12be bb38 c83b
00000320: 63f7 36bd 5a54 6fbc 6327 6ebd d295 50bd
00000330: 024f 7a3e c863 d23d 6447 a83d 1c0e e13d
00000340: 270d 043e 1398 8e3d 2817 05be e67b e0bd
00000350: 64a9 173d 4b44 903d e8f8 1dbe 01de 5c3c
00000360: ce0d 04bd 100e b5bc 2397 583c 0a8a d23d
00000370: 135a ea3c fb2e 00be b626 93bb c420 bb3d
00000380: 11e4 84bc c781 3b3e ef15 6bbd 02a5 4c3d
00000390: 5b59 37bd 3e66 e6bd b52f 06be db56 afbd
000003a0: 508a f9bd 1714 f6bd 5bf3 f3bd 525d 09bc
000003b0: 335b 883c adae 03bd 23cd 633d ea1b c13d
000003c0: 542f 613d daf9 293d 1be0 d83d 15de 393c
000003d0: f003 35bb 846c c0bd d2c6 97bd 254c 08be
000003e0: 1b9b 6b3d f971 47be cf19 24be feb3 9ebd
000003f0: b62b fb3d 1ed4 a03c b92c afbd 17f4 dfbc

encoder.layers.0.linear1.bias f4 [64]
-0.022282455 0.12810135 -0.03835227 -0.045203265 -0.15830152 -0.10055287 0.020500015 0.08041959
0.08686386 -0.13443169 -0.069191575 -0.1266345 -0.016429722 0.0053803213 -0.1413932 -0.1230187
0.0620635 -0.039199498 0.045681473 0.038864814 0.0027443792 -0.07698601 -0.1379747 -0.074839704
0.11505824 -0.17107473 0.1032763 0.04622819 0.07661676 -0.04511339 0.073448054 0.12856616
-0.15061447 0.036168106 -0.13312295 0.16486141 -0.10004507 -0.12581551 -0.14003107 -0.06800242
0.07757826 -0.07711574 -0.119158104 0.15147942 0.09217245 0.031100595 0.1583773 0.04780726
-0.076720215 0.16472045 0.08035595 0.023244454 0.078319676 -0.07817846 -0.0337869 -0.061927423
0.15987387 0.100128256 0.15319459 0.026611056 -0.04439043 0.015000027 -0.0013774381 -0.08627514
00000000: b289 b6bc 002d 033e 4517 1dbd 0f27 39bd
00000010: cb19 22be aaee cdbd a6ef a73c 07b3 a43d
00000020: aee5 b13d 76a8 09be 50b4 8dbd 79ac 01be
00000030: a097 86bc 684d b03b 61c9 10be 3af1 fbbd
00000040: 4c36 7e3d a78f 20bd 7f1c 3b3d b630 1f3d
00000050: 0bdb 333b d7aa 9dbd 3d49 0dbe 8f45 99bd
00000060: a8a3 eb3d 372e 2fbe 8682 d33d c559 3d3d
00000070: 3fe9 9c3d d1c8 38bd ef6b 963d d9a6 033e
00000080: ae3a 1abe 0225 143d 6251 08be 6ed1 283e
00000090: 6ee4 ccbd c8d5 00be 4e64 0fbe da44 8bbd
000000a0: 5ae1 9e3d dbee 9dbd 2a09 f4bd 6c1d 1b3e
000000b0: e9c4 bc3d adc6 fe3c a92d 223e 8cd1 433d
000000c0: 7d1f 9dbd 7aac 283e a991 a43d 276b be3c
000000d0: 1166 a03d 071c a0bd 2264 0abd 9ca7 7dbd
000000e0: fab5 233e 0b10 cd3d 0bdf 1c3e 6eff d93c
000000f0: bdd2 35bd acc2 753c 278b b4ba 05b1 b0bd

encoder.layers.0.linear2.weight f4 [32, 64]
0.078579836 0.07148334 -0.010725351 0.00070220296 -0.0050127427 0.06276797 -0.07869956 -0.0053724446
0.070836715 0.15045519 0.008383446 0.017020771 0.049494654 -0.08544337 0.08047923 0.10073641
-0.042991456 -0.14919975 -0.05033591 -0.14683309 -0.07761523 -0.05314107 -0.06819081 0.042582795
-0.11773869 0.04373849 -0.14667906 0.10714867 -0.02920302 0.080897145 -0.07462174 -0.013132962
0.06552592 -0.06024952 -0.13246173 -0.0044451286 0.01592389 -0.028246637 0.066269904 0.10018989
0.10690946 -0.078153 -0.12159696 -0.04623337 -0.0704059 0.02331977 0.04900059 -0.0685149
0.06086447 0.09392276 0.041445557 0.002393476 0.020285731 -0.03272737 -0.07979074 0.16427971
0.014947785 0.022256965 -0.033973 -0.0037217843 -0.007857641 -0.060571227 0.013899556 -0.0394857
-0.17225687 -0.061767012 -0.049124792 0.018856699 0.09378866 -0.026975725 -0.053758107 -0.12697893
-0.09671233 0.042584434 0.06604165 0.096461125 0.014938718 0.12681037 -0.11556159 -0.06576852
0.07664057 -0.1295408 -0.12566489 0.00037932265 -0.1396969 -0.011752138 0.044748783 -0.10400975
0.10779173 -0.0878354 -0.11542887 -0.053591106 0.054331258 -0.03617523 -0.08174484 -0.070617355
-0.11567561 -0.15356827 -0.038726658 0.0014754732 0.017109072 0.044506814 0.1482752 0.09549252
0.007278706 -0.11942794 -0.016100781 -0.0042684125 -0.046738923 -0.13584189 0.051156938 -0.0600566
0.047228195 0.13672678 0.092238784 -0.0077103362 -0.005425186 0.08137835 -0.11771563 0.04767287
-0.07709533 -0.03668322 -0.045679882 0.018397039 0.12472588 -0.037452005 0.13689269 -0.031327583
-0.16546829 0.089876555 -0.05182378 -0.05037586 -0.015722193 -0.07515746 -0.12462481 -0.09216509
0.08029262 0.066517 0.12146842 0.104741946 -0.10783924 0.10243052 -0.09162976 0.07977603
0.12219022 -0.012834061 0.022459164 0.05352453 -0.05844958 0.13348703 -0.03585995 -0.07314736
-0.15309918 -0.042625934 0.13364826 0.13582183 0.077274576 -0.03899609 -0.027716964 0.02124415
-2.5542588e-05 -0.108363725 0.03763025 -0.13839777 0.2597994 0.01417802 -0.004354149 -0.066724226
-0.07084258 -0.13253705 0.09070713 -0.039673686 -0.07841275 0.11704124 0.08454355 -0.04822611
-0.08360127 0.024893641 0.07924686 -0.08695794 0.10712879 -0.07305265 0.03737499 0.10115277
-0.13138585 0.012985823 -0.05953326 0.11341995 0.14995751 0.0011251527 -0.2007479 0.10174165
0.0046393014 -0.0423514 0.082479686 0.04206096 -0.04999641 -0.03197834 -0.08669012 -0.004259199
-0.02963883 -0.16788487 -0.052460525 0.059574172 0.047702353 0.011567568 -0.048522037 0.09338053
-0.069432236 -0.13736054 -0.12427387 -0.07148118 -0.0048517734 -0.033965196 -0.044256926 -0.030079609
0.067905135 0.032757338 0.087906055 -0.21025456 0.113562964 -0.08888242 0.026603442 -0.12333215
0.045662276 0.15343119 -0.12019932 -0.006337236 0.13933645 -0.09128735 0.0062885596 0.101240575
0.01693715 -0.04783265 -0.0037752918 -0.08384972 -0.1484762 0.000590806 0.017546168 0.12446077
-0.006443478 0.00018229011 0.03410554 -0.09346159 0.07382725 -0.017652651 0.048608676 0.18365993
0.08648676 -0.1406758 0.025601786 -0.039563794 0.061174598 -0.07742957 0.13360791 -0.07994416
00000000: 77ee a03d db65 923d 62b9 2fbc 0b14 383a
00000010: ef41 a4bb 7e8c 803d 3c2d a1bd 550b b0bb
00000020: d712 913d ed10 1a3e b95a 093c 256f 8b3c
00000030: e8ba 4a3d effc aebd 4bd2 a43d e44e ce3d
00000040: cf17 30bd d2c7 18be 072d 4ebd 6a5b 16be
00000050: bcf4 9ebd 73aa 59bd a0a7 8bbd 4c6b 2e3d
00000060: fb20 f1bd 2227 333d 0933 16be c370 db3d
00000070: 2c3b efbc 67ad a53d 48d3 98bd a32b 57bc
00000080: 7432 863d 33c8 76bd 0ca4 07be 71a8 91bb
00000090: d172 823c 7e65 e7bc 84b8 873d 5b30 cd3d
000000a0: 59f3 da3d ae0e a0bd d407 f9bd 345f 3dbd
000000b0: f830 90bd 1a09 bf3c d8b4 483d 8a51 8cbd
000000c0: 064d 793d 935a c03d d1c2 293d dddb 1c3b
000000d0: 432e a63c 220d 06bd 5469 a3bd f138 283e
000000e0: 8ee7 743c 3d54 b63c 4627 0bbd 2ee9 73bb
000000f0: 56bd 00bc 8919 78bd f7ba 633c c2bb 21bd
00000100: 1b64 30be 68ff 7cbd 1437 49bd 5d79 9a3c
00000110: 4514 c03d 32fc dcbc 7631 5cbd c406 02be
00000120: 1d11 c6bd 046d 2e3d d840 873d 698d c53d
00000130: 86c1 743c 94da 013e 8eab ecbd a5b1 86bd
00000140: bbf5 9c3d 58a6 04be 4cae 00be d3df c639
00000150: b40c 0fbe 0a8c 40bc 804a 373d 1003 d5bd
00000160: e9c1 dc3d 0ce3 b3bd f965 ecbd 5982 5bbd
00000170: 748a 5e3d 7a2c 14bd d769 a7bd d59f 90bd
00000180: 56e7 ecbd 0041 1dbe d89f 1ebd aa64 c13a
00000190: 5328 8c3c c74c 363d 74d5 173e 9591 c33d
000001a0: 3682 ee3b a396 f4bd c9e5 83bc 0ade 8bbb
000001b0: 5071 3fbd 231a 0bbe f089 513d e9fd 75bd
000001c0: 5a72 413d 1b02 0c3e b0e7 bc3d fda6 fcbb
000001d0: c2c5 b1bb b1a9 a63d e414 f1bd a144 433d
000001e0: 28e4 9dbd 2541 16bd d41a 3bbd 63b5 963c
000001f0: 4870 ff3d 4667 19bd 992d 0c3e 5a51 00bd
00000200: 8570 29be 3311 b83d 2c45 54bd eb56 4ebd
00000210: d4cb 80bc 28ec 99bd 4b3b ffbd 0dc1 bcbd
00000220: 7570 a43d 113a 883d 6fc4 f83d f282 d63d
00000230: d2da dcbd 18c7 d13d 62a8 bbbd 9d61 a33d
00000240: de3e fa3d f445 52bc 48fc b73c 8a3c 5b3d
00000250: d468 6fbd d3b0 083e e2e1 12bd 48ce 95bd
00000260: 08c6 1cbe 8898 2ebd 17db 083e e114 0b3e
00000270: 2242 9e3d 5dba 1fbd b00e e3bc 3608 ae3c
00000280: 4a44 d6b7 cded ddbd 2d22 1a3d 25b8 0dbe
00000290: 6d04 853e ed4a 683c 40ad 8ebb b6a6 88bd
000002a0: ea15 91bd cbb7 07be a9c4 b93d e080 22bd
000002b0: dd96 a0bd 51b3 ef3d 2b25 ad3d be88 45bd
000002c0: 2537 abbd c0ed cb3c 2e4c a23d 0117 b2bd
000002d0: 5766 db3d a19c 95bd 8416 193d 2f29 cf3d
000002e0: 038a 06be 7dc2 543c 26d9 73bd b848 e83d
000002f0: 768e 193e dc79 933a dc90 4dbe ed5d d03d
00000300: 4805 983b a978 2dbd 1ceb a83d 1d48 2c3d
00000310: 09c9 4cbd b8fb 02bd 978a b1bd c090 8bbb
00000320: 22cd f2bc 03ea 2bbe d9e0 56bd 0c04 743d
00000330: 8b63 433d e685 3d3c 0bbf 46bd 4b3e bf3d
00000340: 7d32 8ebd 3ea8 0cbe 4c83 febd ba64 92bd
00000350: a0fb 9ebb 171f 0bbd c046 35bd 8369 f6bc
00000360: d911 8b3d 8f2c 063d 1708 b43d f94c 57be
00000370: b393 e83d fc07 b6bd 76ef d93c 9195 fcbd
00000380: 5e08 3b3d 111d 1d3e 102b f6bd 97a8 cfbb
00000390: 37ae 0e3e ddf4 babd 4310 ce3b 3857 cf3d
000003a0: c7bf 8a3c 2bec 43bd e36a 77bb 67b9 abbd
000003b0: 250a 18be 52e0 1a3a fbbc 8f3c 4ae5 fe3d
000003c0: d023 d3bb 2125 3f39 40b2 0b3d ca68 bfbd
000003d0: be32 973d 4b9c 90bc e419 473d 5911 3c3e
000003e0: f81f b13d 510d 10be d6ba d13c a50d 22bd
000003f0: 3792 7a3d 6593 9ebd 83d0 083e c4b9 a3bd

encoder.layers.0.linear2.bias f4 [32]
0.083293326 0.04756771 -0.11424586 0.054836176 0.018569753 -0.14696114 0.04793771 0.038823295
0.0045592855 0.08116361 0.024380859 0.013391637 0.026286818 -0.05991111 0.086962566 0.05566266
0.045094542 -0.089743264 -0.020620685 0.070721224 -0.013806979 0.078043535 -0.012482279 -0.06338484
-0.01393895 0.07687182 0.07383013 -0.043799203 -0.117849715 0.044632338 0.050472204 -0.031049551
00000000: b195 aa3d 5cd6 423d bcf9 e9bd e69b 603d
00000010: 981f 983c fb7c 16be 555a 443d 2d05 1f3d
00000020: 0f66 953b 1b39 a63d 5eba c73c 9968 5b3c
00000030: 7457 d73c 5a65 75bd 6e19 b23d 88fe 633d
00000040: 0eb5 383d 51cb b7bd b6ec a8bc 4ad6 903d
00000050: ab36 62bc 4ad5 9f3d 7982 4cbc e9cf 81bd
00000060: 3260 64bc f96e 9d3d 4034 973d cb66 33bd
00000070: 315b f1bd 66d0 363d f1bb 4e3d a15b febc
