pabbo_method/results/PABBO/PABBO_GP1D_quick_20251104_043738/ckpt.tar (torch, 517729 bytes, 162 tensors)

x_embedders.0.0.weight f4 [32, 1]
0	0x3b4f4b67	0.0031630637
1	0x3e8d44f0	0.27591658
2	0xbe8cd559	-0.2750652
3	0x3cb7f4d6	0.022455614
4	0x3e1c2d30	0.15251613
5	0xbefd74d4	-0.49503195
6	0xbf5564b3	-0.8335678
7	0x3f0ad169	0.54225785
8	0x3f0cb84b	0.5496871
9	0xbf609d96	-0.8774046
10	0xbf089b24	-0.53361726
11	0xbf4e063d	-0.8047827
12	0x3edc6346	0.4304449
13	0xbf01c19c	-0.5068605
14	0xbf4ae753	-0.7925922
15	0x3efa1e7e	0.4885139
16	0xbe355875	-0.17709525
17	0x3e5dbbc0	0.21653652
18	0xbf0c8185	-0.5488513
19	0x3d00f2b9	0.03148148
20	0x3f26879b	0.6505067
21	0x3f2ab17b	0.66677064
22	0xbde2a4ce	-0.1106659
23	0x3f5a5980	0.85292816
24	0xbf80c0ad	-1.00588
25	0x3d2a3220	0.04155171
26	0xbf7e85cd	-0.99422914
27	0x3f580432	0.843814
28	0x3d83b820	0.064316034
29	0xbf58a8e0	-0.8463268
30	0xbdb6de8c	-0.08929166
31	0xbd376916	-0.044777952

x_embedders.0.0.bias f4 [32]
0	0x3e22a818	0.15884435
1	0xbeba2d6c	-0.3636278
2	0x3e6b663b	0.22988217
3	0x3daa3410	0.083107114
4	0xbf2c6d1c	-0.6735399
5	0x3f5598a6	0.8343605
6	0x3ea82f76	0.3284871
7	0xbe8deebe	-0.27721208
8	0x3d022bf8	0.031780213
9	0x3f007101	0.5017243
10	0x3eff2dc4	0.49839604
11	0x3db1597c	0.08659646
12	0xbe65241a	-0.22377053
13	0xbf6cfe70	-0.9257574
14	0x3e1de16f	0.15418027
15	0x3f32e3f9	0.6987911
16	0x3f5c0308	0.85942125
17	0x3f567cc9	0.8378416
18	0x3e7be584	0.24599272
19	0x3dc1e464	0.0946739
20	0xbe1232a8	-0.14277136
21	0x3e80f656	0.2518794
22	0x3f46f992	0.77724564
23	0xbf5e7486	-0.8689655
24	0xbf07b919	-0.5301681
25	0xbe6ac9e0	-0.22928572
26	0xbe3ded17	-0.18547474
27	0xbf5b0f08	-0.8556981
28	0xbede8a60	-0.43464947
29	0x3f15a73f	0.5845832
30	0x3f3a460a	0.7276312
31	0x3dff2e93	0.12460055

x_embedders.0.2.weight f4 [32, 32]
0	0xbdaba10b	-0.08380326
1	0x3e15727f	0.14594458
2	0x3e0bbaa1	0.13645412
3	0xbe0d064c	-0.13771933
4	0xbd51f3e5	-0.051257987
5	0x3ca09aca	0.01960506
6	0x3e02e94c	0.12784308
7	0x3ca33615	0.01992325
8	0xbdae0918	-0.08497828
9	0xbdd08c13	-0.10182967
10	0xbe14ea0a	-0.14542404
11	0xbe1ba2bd	-0.15198798
12	0x3e1fef05	0.15618522
13	0xbe22bc9d	-0.15892263
14	0xbd518dcb	-0.051160615
15	0xbde8f666	-0.11375122
16	0x3dcf7663	0.10130002
17	0x3d5eef17	0.054427233
18	0xbe1bcc5e	-0.15214679
19	0x3da25904	0.07927135
20	0xbd4f9807	-0.050682094
21	0xbe072298	-0.1319679
22	0x3e12e389	0.1434461
23	0x3d455569	0.048177157
24	0x3cbd0f1f	0.0230785
25	0x3e2a0262	0.16602471
26	0x3c5fac4c	0.013651919
27	0x3dc34402	0.09534456
28	0x3e187d03	0.14891438
29	0xbe17191f	-0.14755677
30	0xbe42d2ac	-0.19025677
31	0x3df63a51	0.12022842
32	0x3e33ff93	0.17577963
33	0x3d61ea49	0.055155072
34	0xbd854c96	-0.06508748
35	0xbdd959d1	-0.10612834
36	0xbdab536f	-0.08365523
37	0xbd94a2a2	-0.07257582
38	0xbe245e7e	-0.16051671
39	0xbdd16cef	-0.102258556
40	0x3d6ff8d7	0.05858692
41	0x3e2c0783	0.1679974
42	0xbdabbdfc	-0.08385846
43	0x3da1d3b1	0.07901705
44	0xbe495797	-0.19662319
45	0x3c6a9fc5	0.014320319
46	0xbcc930ae	-0.024559345
47	0xbd738043	-0.05944849
48	0x3d7cf9a6	0.06176152
49	0xbcd2b4df	-0.025721012
50	0xbbe54fc4	-0.006998034
51	0x3dc608f9	0.0966968
52	0xbe1308b3	-0.14358787
53	0x3d89e61c	0.06733343
54	0xbe002d0d	-0.12517186
55	0x3e121b02	0.14268115
56	0xbdc5c3d6	-0.09656493
57	0x3d76ba2e	0.06023615
58	0xbe14f361	-0.14545967
59	0x3e2e39b4	0.170142
60	0xbe0699e3	-0.1314464
61	0x3db2014a	0.08691652
62	0xbd63519e	-0.055497758
63	0x3e4a51e3	0.197578
64	0xbc60a16d	-0.013710362
65	0x3d8756a4	0.06608322
66	0x3c8c1f49	0.017104762
67	0x3e19fa92	0.15036991
68	0xbde24a7c	-0.11049363
69	0xbe3a4ebd	-0.18194099
70	0xbda040bf	-0.07824849
71	0x3e824fbb	0.25451455
72	0x3e1e0f22	0.1543546
73	0x3decae78	0.11556715
74	0x3de231d0	0.11044657
75	0x3e6b03d4	0.22950679
76	0x3e5484ab	0.20753734
77	0x3df9ec80	0.12203312
78	0xbdc7982a	-0.0974582
79	0xbd8394f6	-0.064248964
80	0xbe012974	-0.1261347
81	0x3c1099f0	0.008825764
82	0x3e068ca3	0.13139586
83	0xbdba600a	-0.09100349
84	0x3ea0a715	0.31377473
85	0x3e72a587	0.23695956
86	0xbd20c12a	-0.039246716
87	0xbe0c3bdf	-0.13694714
88	0x3e9db154	0.30799353
89	0x3d3b26ed	0.04569142
90	0x3dd696c9	0.10477979
91	0xbe1993a6	-0.1499773
92	0x3d741a35	0.059595305
93	0xbe09caed	-0.13456316
94	0x3da6bedd	0.08141873
95	0xbe016a99	-0.1263832
96	0xbd3672b6	-0.04454299
97	0x3decb7b4	0.11558476
98	0x3e1d7e5c	0.15380234
99	0xbd1028d2	-0.03519518
100	0x3dba6be0	0.09102607
101	0x3df9bf68	0.12194711
102	0xbc5dc2f3	-0.013535249
103	0x3da67d5f	0.081293814
104	0x3d8170f7	0.063203745
105	0xbdf2c109	-0.11853225
106	0x3e56ad9d	0.20964666
107	0x3e1ee29b	0.1551613
108	0xbe39343a	-0.18086329
109	0x3d96d0a0	0.07364011
110	0xbd35a908	-0.044350654
111	0xbe103b20	-0.14085054
112	0xbdc02ca0	-0.093835115
113	0x3d03dc5a	0.032192566
114	0x3e3b29cd	0.18277664
115	0xbd034e94	-0.03205736
116	0xbe0edf19	-0.13952293
117	0x3dc79f2f	0.09747159
118	0x3d8d7a17	0.069080524
119	0x3d25946c	0.04042475
120	0x3d338063	0.04382361
121	0xbe015319	-0.12629355
122	0xbe044020	-0.12915087
123	0xbcc98acc	-0.024602316
124	0x3e1298e8	0.14316142
125	0x3e08b631	0.1335075
126	0xbd6fd6b4	-0.058554366
127	0x3dd6b138	0.104830205
128	0xbe182212	-0.14856747
129	0xbe2fe90d	-0.17178746
130	0x3dbcd855	0.092209496
131	0x3b4c57e3	0.0031180314
132	0x3ddbe884	0.10737708
133	0xbe31a1a4	-0.17346817
134	0x3c7bffd0	0.015380815
135	0x3e39c179	0.1814021
136	0x3c1004e3	0.008790228
137	0xbd285c35	-0.04110356
138	0xbe0ab544	-0.1354571
139	0xbdd72c33	-0.10506477
140	0x3e2abe9d	0.16674276
141	0x3cb056a0	0.021525681
142	0x3dc68417	0.09693163
143	0x3d89afc3	0.06722977
144	0x3dba6b20	0.09102464
145	0x3e204801	0.15652467
146	0xbc3b7ca0	-0.011443287
147	0xbe030680	-0.12795448
148	0x3d884188	0.06653124
149	0x3e30db88	0.17271245
150	0xbe240002	-0.16015628
151	0x3e2e57de	0.17025706
152	0x3e36895d	0.17825837
153	0xbd2808a4	-0.041023865
154	0x3cda940d	0.026681924
155	0xbd7dc619	-0.0619565
156	0x3e022594	0.12709647
157	0x3d9c6c91	0.07637895
158	0xbde8803c	-0.11352584
159	0x3b4522a8	0.0030080471
160	0xbcc71af5	-0.024304846
161	0xbe2d5364	-0.16926342
162	0xbc3bab9b	-0.011454488
163	0x3d2ed543	0.04268385
164	0xbe1b9e5d	-0.1519713
165	0x3e4886dc	0.19582695
166	0x3e495a3e	0.19663331
167	0xbe3e2828	-0.18570006
168	0xbe8abedf	-0.27098748
169	0x3db5cd88	0.088770926
170	0xbcd8d3a9	-0.026468115
171	0xbde29bf2	-0.110649005
172	0xbd17ffcf	-0.037109192
173	0x3d100979	0.035165284
174	0xbe1beed2	-0.15227821
175	0xbde16341	-0.11005259
176	0x3ced3074	0.028953768
177	0x3ced33d9	0.028955387
178	0xbd67d6fa	-0.056601502
179	0xbc516d90	-0.012782469
180	0xbe9b18aa	-0.30292255
181	0xbe29a98c	-0.16568583
182	0xbbafbfcf	-0.0053634415
183	0xbc56b4d3	-0.013104635
184	0xbe2e5715	-0.17025407
185	0xbd80d1ab	-0.06289991
186	0xbe266ef1	-0.16253258
187	0xbdd66b9b	-0.10469743
188	0xbd034cc9	-0.03205565
189	0x3de341da	0.110965446
190	0xbd07c998	-0.03315124
191	0x3d32e47e	0.04367494
192	0x3dd734aa	0.10508092
193	0xbdab707e	-0.083710656
194	0x3c13bc1a	0.009017015
195	0xbddffb6b	-0.10936626
196	0x3de6e223	0.11273601
197	0xbc61f552	-0.013791399
198	0xbd874f69	-0.06606943
199	0xbdeee2d2	-0.11664356
200	0xbe5aa7ab	-0.21353023
201	0x3e58f483	0.21187024
202	0x3e4b5ec0	0.19860363
203	0xbdd955d8	-0.106120765
204	0xbe37a806	-0.1793519
205	0x3dea0d0f	0.11428272
206	0x3e02f904	0.12790304
207	0x3c985f69	0.018600183
208	0x3cee64db	0.029100826
209	0xbe418de3	-0.18901782
210	0x3d244b3d	0.040110815
211	0x3da47d56	0.080317184
212	0xbe46a97a	-0.19400588
213	0xbdf3e1c0	-0.11908293
214	0x3c8eceb6	0.017432552
215	0x3df5f540	0.12009668
216	0xbcadc3a3	-0.02121145
217	0xbdb7cb70	-0.089743495
218	0x3d660280	0.056154728
219	0xbd1a13cf	-0.037616547
220	0x3dd7117d	0.105013825
221	0x3de98a25	0.11403302
222	0xbdbe79f1	-0.09300602
223	0x3dcd1f5b	0.10015746
224	0xbbff107b	-0.007783947
225	0xbc406925	-0.011743818
226	0x3c2b1f4d	0.010444474
227	0xbe03fd98	-0.12889707
228	0x3b7132af	0.0036803891
229	0x3e0e6804	0.13906866
230	0x3bfc652a	0.0077024894
231	0xbd83a11f	-0.06427216
232	0xbdcf3fb8	-0.10119575
233	0xbd6f271c	-0.058386907
234	0x3dad13d3	0.08451047
235	0x3cad895b	0.02118366
236	0xbdd6311a	-0.10458584
237	0xbbbcb4d4	-0.005758861
238	0x3dfa382f	0.122177474
239	0xbddbb000	-0.10726929
240	0x3dcddb1a	0.10051556
241	0xbe08c8e0	-0.13357878
242	0xbe15e3e9	-0.14637722
243	0xbdce325e	-0.100682005
244	0xbd8b814d	-0.068117715
245	0x3e091186	0.13385591
246	0xbce7b1aa	-0.028282959
247	0x3d6ff466	0.058582686
248	0x3e5e4439	0.21705712
249	0xbd1d0ec1	-0.03834415
250	0xbd1a0ab3	-0.03760786
251	0x3d3fb5fc	0.046804413
252	0xbe071233	-0.13190536
253	0xbe1fc454	-0.15602237
254	0xbd1b4af5	-0.03791328
255	0xbd9015fc	-0.07035443

x_embedders.0.2.bias f4 [32]
0	0x3c96abff	0.018392561
1	0xbdd2f749	-0.10301072
2	0xbd50ea91	-0.05100495
3	0x3bcb11ee	0.0061972057
4	0x3e16b0e1	0.14715911
5	0x3d544bf5	0.05183025
6	0x3d6db356	0.058032356
7	0x3d0e854c	0.03479509
8	0x3d2ef419	0.04271326
9	0xbd10444b	-0.03522138
10	0xbe0d8722	-0.1382108
11	0xbe26ba15	-0.16281922
12	0x3d5cad5e	0.053876273
13	0x3db5f47a	0.08884521
14	0xbcb0b834	-0.02157221
15	0x3cdb37ed	0.026760066
16	0xbdea5e4f	-0.11443769
17	0xbc62d853	-0.013845521
18	0xbd7d6eea	-0.061873354
19	0x3d08aaec	0.03336613
20	0xbd5fe47e	-0.054661267
21	0x3cdeae49	0.027182715
22	0xbddd6991	-0.10811151
23	0x3cd68fa4	0.02619154
24	0xbe27189a	-0.16317979
25	0xbcf4b5ad	-0.029871786
26	0x3d7a3007	0.06108096
27	0xbe30466e	-0.17214367
28	0xbe20688d	-0.15664883
29	0x3e0337c6	0.12814245
30	0x3e057d0e	0.13035986
31	0xbdfc25d9	-0.12311906

x_embedders.1.0.weight f4 [32, 1]
0	0xbf5c0719	-0.8594833
1	0x3d0fad3f	0.03507733
2	0x3ee94be6	0.45565718
3	0x3f31f846	0.6951946
4	0xbf22ac4e	-0.63544166
5	0xbf1ec138	-0.6201358
6	0xbf3d3100	-0.73902893
7	0x3ec5ab74	0.3860737
8	0x3f7a350d	0.977372
9	0xbf046b6d	-0.5172642
10	0xbe678836	-0.22610554
11	0x3e393893	0.18087988
12	0xbe6ef660	-0.23336172
13	0x3f4e9d2f	0.80708593
14	0x3df95812	0.12175001
15	0xbf894bbc	-1.0726237
16	0x3e38922e	0.18024513
17	0xbf67b37f	-0.90508264
18	0x3f06dcb1	0.526805
19	0xbe9dd3bf	-0.30825612
20	0x3f62653c	0.8843572
21	0x3f2b3991	0.66884714
22	0xbefdf970	-0.49604368
23	0xbf8312f2	-1.0240157
24	0x3f6ecbcb	0.93279713
25	0xbda32930	-0.0796684
26	0xbe851dce	-0.25999302
27	0x3ed30c28	0.41220212
28	0x3e09e330	0.13465571
29	0xbf622724	-0.88340974
30	0x3e74df24	0.23913246
31	0x3d1b47a0	0.037910104

x_embedders.1.0.bias f4 [32]
0	0xbe4fdc9f	-0.20299004
1	0x3f0160e6	0.5053848
2	0xbe8aaa96	-0.27083272
3	0x3e8d95d6	0.27653378
4	0xbf3b9e56	-0.73288476
5	0xbf2d26cc	-0.67637324
6	0x3e8d373d	0.27581206
7	0xbf233588	-0.6375356
8	0xbf113e27	-0.5673546
9	0x3f1990a0	0.59986305
10	0x3d62b1cb	0.055345338
11	0x3f46ba14	0.7762768
12	0xbe6fbeb0	-0.23412585
13	0xbe7c14d2	-0.24617317
14	0x3f37efb6	0.71850145
15	0x3e3291a5	0.17438371
16	0x3f5777d6	0.8416723
17	0xbee41a3f	-0.44551274
18	0x3e94f8ec	0.29096162
19	0x3f719add	0.9437693
20	0xbc8890a2	-0.016670529
21	0xbe0307f7	-0.12796007
22	0x3f5442c4	0.82914376
23	0xbdf58601	-0.1198845
24	0xbc03fe28	-0.008056201
25	0xbee7fc50	-0.45309687
26	0x3e852d8a	0.26011306
27	0xbf3c4214	-0.7353833
28	0xbeda980c	-0.42694128
29	0x3f4370c1	0.76343924
30	0x3f2d271d	0.6763781
31	0xbe994b5c	-0.29940307

x_embedders.1.2.weight f4 [32, 32]
0	0x3d55eb33	0.052226257
1	0x3df75b08	0.1207791
2	0x3e332bac	0.17497128
3	0xbd1338a8	-0.035942703
4	0x3e0076db	0.1254534
5	0xbda9c34a	-0.082892016
6	0x3e254c96	0.16142496
7	0xbd8de55e	-0.06928514
8	0x3e9b9026	0.30383414
9	0xbe38f388	-0.1806165
10	0x3b31e219	0.0027142821
11	0xbe0da027	-0.13830625
12	0xbe128717	-0.14309345
13	0x3e63efa8	0.2225939
14	0xbddc6706	-0.10761838
15	0x3dfb8ae1	0.122823484
16	0xbceaeb48	-0.028676644
17	0x3d27500e	0.04084783
18	0xbdb8ce9d	-0.09023783
19	0xbc305c94	-0.01076426
20	0xbd18b859	-0.037285183
21	0x3d51db12	0.051234312
22	0xbe3460ad	-0.17615004
23	0x3e463bf3	0.19358806
24	0x3cf58259	0.029969381
25	0x3c39c4ff	0.011338471
26	0xbe5077fe	-0.20358273
27	0xbe1d62b5	-0.15369685
28	0xbd0bed69	-0.03416196
29	0x3c8cdac6	0.017194163
30	0x3e2e9d63	0.17052226
31	0xbdd22074	-0.10260096
32	0xbddd8a2c	-0.1081737
33	0x3e27aa73	0.16373615
34	0xbde59d09	-0.11211593
35	0x3e35341d	0.17695661
36	0xbd96a1bf	-0.07355069
37	0xbe0310c9	-0.12799372
38	0x3dd1bcb3	0.1024107
39	0xbdbd301b	-0.09237691
40	0x3c1150b5	0.00886934
41	0xbe2193fc	-0.15779108
42	0xbe02a733	-0.12759094
43	0x3e259e31	0.16173626
44	0x3d228585	0.039678115
45	0xbdec6c7c	-0.11544129
46	0xbcf7b802	-0.030239109
47	0xbe380d8c	-0.17973918
48	0x3e3c2843	0.18374734
49	0xbe05d29a	-0.1306862
50	0x3e6814ac	0.22664136
51	0x3ccaa20e	0.024735477
52	0xbdbeea9e	-0.093220934
53	0xbdbfaced	-0.09359155
54	0xbe07ef3f	-0.13274859
55	0x3d81e92d	0.06343303
56	0xbe06f849	-0.13180651
57	0x3e077b17	0.13230549
58	0xbde696de	-0.112592444
59	0xbdebb796	-0.115096256
60	0xbcf81466	-0.030283164
61	0xbdb1bd4e	-0.08678685
62	0x3ce495e0	0.027903497
63	0x3ca772ab	0.02044042
64	0x3bd4acf2	0.0064903433
65	0x3e18c9ed	0.14920779
66	0x3e0210f2	0.12701777
67	0x3c924ad0	0.017857939
68	0x3e0fec97	0.14055096
69	0xbdbc4ec8	-0.09194714
70	0x3e14ffd7	0.1455072
71	0xbd481c07	-0.048854854
72	0x3e3ee9e8	0.18643916
73	0xbdd46655	-0.10371081
74	0x3d0e56c9	0.034750734
75	0x3e1fed04	0.15617758
76	0x3d0db744	0.034598604
77	0x3c2e6f1a	0.010646606
78	0xbccdcc17	-0.025121732
79	0x3df7ffc9	0.12109334
80	0xbda163c9	-0.07880361
81	0x3e18d021	0.14923145
82	0xbd7a385b	-0.0610889
83	0xbd792944	-0.06083037
84	0x3e96a99b	0.29426274
85	0x3e9db795	0.30804124
86	0xbc93fe1c	-0.018065505
87	0x3e016e5d	0.12639757
88	0x3e33e5c6	0.1756812
89	0x3d6151fe	0.055009834
90	0xbe112ed4	-0.1417802
91	0x3dc080e6	0.093995854
92	0xbd36f118	-0.04466352
93	0xbe33fb42	-0.17576316
94	0xbd9fcd5d	-0.07802842
95	0xbdce9ef8	-0.10088915
96	0x3d57587e	0.052574627
97	0xbddddf3b	-0.108335935
98	0x3d61df0e	0.055144362
99	0x3dfd3f55	0.12365595
100	0xbde8edac	-0.11373457
101	0xbdc57417	-0.09641283
102	0x3e27a173	0.16370182
103	0x3d9d5963	0.07683065
104	0x3df9372f	0.121687286
105	0xbd0e2d9a	-0.034711458
106	0x3bef7a41	0.007308275
107	0x3e0aeb16	0.1356624
108	0x3e10c1ce	0.1413643
109	0x3b77a902	0.0037789945
110	0xbdd688a5	-0.104752816
111	0xbd70f16c	-0.058823988
112	0xbe0989cc	-0.13431472
113	0x3ea10550	0.31449366
114	0x3d09d48d	0.03364997
115	0xbda0079b	-0.07813951
116	0x3b9bd2cc	0.0047553536
117	0xbd972b39	-0.07381291
118	0x3dcbd195	0.09952084
119	0x3e2ab5a0	0.16670847
120	0x3e1f2cf7	0.15544496
121	0xbda125db	-0.078685485
122	0x3d8a6a06	0.067585036
123	0xbd3ac2f0	-0.045596063
124	0xbdb26b87	-0.087119155
125	0xbd4cfb55	-0.050044376
126	0xbe0eccfb	-0.13945381
127	0x3d817f6b	0.06323131
128	0xbe17f6e5	-0.14840277
129	0x3db42ff8	0.08798212
130	0xbe86568e	-0.2623791
131	0xbe866675	-0.26250044
132	0x3df06742	0.11738445
133	0xbe111aa8	-0.14170325
134	0x3d66877f	0.056281563
135	0xbcb77fee	-0.022399869
136	0xbeaf5c7e	-0.34250253
137	0x3c3f82af	0.011688872
138	0x3d5d46f8	0.05402276
139	0x3e1d60ec	0.15369004
140	0xbd5240d9	-0.051331375
141	0xbe92560d	-0.28581277
142	0xbd05af2f	-0.03263777
143	0x3d9e66b9	0.077344365
144	0x3e1467cd	0.14492722
145	0xbea1c3d5	-0.3159472
146	0xbdc9d2b3	-0.09854641
147	0xbde71fcc	-0.11285362
148	0xbdf0284f	-0.11726438
149	0xbe9a373c	-0.30120265
150	0x3e3214f1	0.17390801
151	0xbe0e4975	-0.13895209
152	0xbe629657	-0.22127663
153	0xbd8b2adb	-0.067952834
154	0xbc64b8b3	-0.013960051
155	0x3e1332aa	0.14374796
156	0x3cc31db6	0.023817878
157	0x3dc64212	0.09680571
158	0x3e164c72	0.14677599
159	0x3da2cf10	0.0794965
160	0x3e41eea9	0.18938698
161	0x3e0cc025	0.13745172
162	0x3d53ec02	0.051738746
163	0xbe5443d1	-0.20728995
164	0xbd94cacb	-0.07265242
165	0x3dc3f0ee	0.09567438
166	0x3e4a4b32	0.19755247
167	0xbdb43b3f	-0.08800363
168	0x3e2247b8	0.15847671
169	0x3d8536d8	0.06504601
170	0x3e051bc0	0.12998867
171	0x3d2142dd	0.039370406
172	0xbd149800	-0.03627777
173	0x3d6232fa	0.055224396
174	0x3e10d511	0.14143778
175	0x3e3e788e	0.18600675
176	0x3c28f2c8	0.01031179
177	0x3d84338a	0.06455143
178	0xbe480362	-0.1953254
179	0xbe1b1448	-0.15144455
180	0x3d5a367c	0.053274617
181	0xbd86d453	-0.065834664
182	0xbd5e06b2	-0.054205604
183	0x3d934da2	0.07192542
184	0xbbbd5c7a	-0.0057788463
185	0xbdacbb08	-0.08434111
186	0x3e673217	0.22577702
187	0xbd9260d3	-0.07147374
188	0x3dd5c59d	0.10438082
189	0x3e26e652	0.16298798
190	0x3da7ed14	0.08199516
191	0xbd77450a	-0.060368575
192	0xbc0f4e45	-0.008746688
193	0x3d51b07d	0.051193703
194	0xbd2d8c0b	-0.042369884
195	0x3e1e74d0	0.15474248
196	0xbdf570c2	-0.119843975
197	0x3e10721c	0.1410603
198	0x3beca616	0.0072219474
199	0x3d875767	0.066084675
200	0xbcddbb2d	-0.027066791
201	0xbe0f5739	-0.13998117
202	0xbd76a72b	-0.060218018
203	0xbcfa5936	-0.030560117
204	0x3c0e841b	0.008698489
205	0x3e83c20c	0.25733984
206	0x3da6613e	0.08124016
207	0x3da4ede2	0.08053185
208	0xbe0d0d6e	-0.13774654
209	0x3e35ba19	0.17746772
210	0x3dfa7e63	0.122311376
211	0x3b81377f	0.003943383
212	0x3d8c9a2d	0.06865344
213	0x3ced4960	0.028965652
214	0x3df3af22	0.11898638
215	0x3e5475bd	0.20748039
216	0x3e742045	0.23840435
217	0xbe297ec9	-0.16552271
218	0x3df1632a	0.11786492
219	0x3dca9785	0.09892181
220	0x3d40de32	0.047086902
221	0x3dde7158	0.10861462
222	0x3d4581f7	0.048219647
223	0xbdd48ffd	-0.10379026
224	0xbe193cdd	-0.14964624
225	0xbdcf332f	-0.10117184
226	0xbdac8b80	-0.08425045
227	0xbcf48d97	-0.029852672
228	0xbd1df3d0	-0.038562596
229	0xbdd58b68	-0.1042698
230	0x3e5daae2	0.21647218
231	0x3dbff548	0.093729556
232	0x3db01745	0.08598188
233	0x3e64e6cd	0.22353669
234	0x3e2d78e6	0.1694065
235	0x3dec2eb6	0.11532347
236	0x3cedd193	0.029030597
237	0x3ce543d6	0.027986448
238	0x3e223a76	0.15842614
239	0x3e81ec85	0.25375763
240	0xbe1b56f0	-0.15169883
241	0xbe4e3362	-0.20136788
242	0xbdeb9110	-0.11502278
243	0xbda9d3d8	-0.08292359
244	0xbe832b50	-0.25618982
245	0xbe10be77	-0.14135157
246	0x3d986758	0.07441586
247	0xbdddd23b	-0.10831114
248	0xbe60465c	-0.2190184
249	0x3cf6f8e4	0.030147977
250	0x3e53dc98	0.20689619
251	0x3e2b66a9	0.1673838
252	0xbde0bab4	-0.10973111
253	0x3e4f3e34	0.20238572
254	0xbd9159d7	-0.07097214
255	0x3df61b8e	0.120169744

x_embedders.1.2.bias f4 [32]
0	0xbe3e343b	-0.18574612
1	0x3e2ac7e7	0.16677819
2	0xbe275652	-0.16341522
3	0x3c279b45	0.01022989
4	0xbdd27198	-0.102755725
5	0x3cb58e5b	0.022162607
6	0xbd9fb8fc	-0.07798955
7	0x3c32a154	0.010902721
8	0xbdf80909	-0.12111098
9	0xbda47e7c	-0.080319375
10	0x3cc22554	0.02369944
11	0x3d8ffe40	0.07030916
12	0xbc1c7518	-0.009549402
13	0x3d9fa869	0.077957936
14	0xbd8f82e9	-0.07007391
15	0x3d343b79	0.04400203
16	0xbce91e10	-0.028456718
17	0x3d296797	0.041358557
18	0x3e19653c	0.14980024
19	0x3d04dc68	0.03243676
20	0xbde7632e	-0.11298214
21	0x3da24c87	0.07924753
22	0xbcb5c847	-0.022190226
23	0x3e440209	0.19141401
24	0x3e28cfb7	0.16485487
25	0x3df7d443	0.121010326
26	0xbe147cf1	-0.14500786
27	0xbd13f85a	-0.03612552
28	0x3db77731	0.08958281
29	0xbe15e3f4	-0.14637738
30	0xbcf062cc	-0.029343985
31	0x3da5b701	0.08091546

c_embedder.weight f4 [3, 32]
0	0x400f9e19	2.2440245
1	0xbeb44d69	-0.3521531
2	0xbf00c7db	-0.50304955
3	0xbfea157f	-1.828781
4	0xbfd6c7f0	-1.6779766
5	0xbf902c2f	-1.1263484
6	0xbebaa852	-0.36456543
7	0xbfb0334a	-1.3765652
8	0xbf94c7ca	-1.1623471
9	0xbf18595a	-0.5951134
10	0x3e0b5605	0.13607033
11	0x3f85d4a9	1.0455524
12	0xbd8e64eb	-0.06952842
13	0xbff64699	-1.9240295
14	0x3e61bba7	0.2204424
15	0xbff958a3	-1.9480175
16	0xbf2d3861	-0.6766415
17	0x3e8b1fd9	0.27172735
18	0x3f55daba	0.83536875
19	0x3f3a0b3c	0.7267339
20	0x3fa348bc	1.2756572
21	0xbf247c9e	-0.6425265
22	0xbe8a4aa5	-0.27010074
23	0xbf558d99	-0.83419186
24	0xbf3c29d2	-0.7350131
25	0x3ed1245c	0.40848053
26	0x3e3f0065	0.18652494
27	0x3ec197f5	0.37811247
28	0xbf828bad	-1.0198876
29	0xc00546df	-2.0824506
30	0xbf3098b1	-0.6898299
31	0x3f658166	0.8965057
32	0xbd02990b	-0.031884234
33	0xbfbb43a7	-1.4630021
34	0xbe49c3b7	-0.19703566
35	0x3fa56eab	1.2924398
36	0x3f28e73c	0.65977836
37	0xbd701120	-0.05861008
38	0xbf44dab5	-0.7689622
39	0xbee0f4fe	-0.43936914
40	0x3fc25e3e	1.518501
41	0x3d1d2a57	0.038370457
42	0x3e883974	0.26606333
43	0x3e7f9829	0.24960388
44	0xbf6af439	-0.91778904
45	0x3e821c17	0.25412056
46	0xbd7f4320	-0.062319875
47	0xbe1fe968	-0.15616381
48	0x3d2da1bd	0.042390574
49	0x3f2046c9	0.6260801
50	0xbfe3d784	-1.7800145
51	0x3f93e88c	1.1555343
52	0x3ffd9a1a	1.9812653
53	0x3eb61e2e	0.355699
54	0xbf3821e7	-0.7192673
55	0xbf649e64	-0.89304185
56	0x3f567232	0.83768
57	0x3f331a1c	0.69961715
58	0xbf7c8954	-0.98647046
59	0xbd8ddf8d	-0.069274046
60	0x3f982192	1.1885245
61	0x3fccde72	1.6005385
62	0x3f047a81	0.51749426
63	0xbeeaaf38	-0.45836806
64	0x3fc46ecb	1.5346311
65	0x3f9efbb4	1.2420564
66	0xbe042490	-0.12904572
67	0x40475d97	3.1150873
68	0xbf60ebce	-0.8785981
69	0x3e206ca6	0.15666446
70	0x3d98e0db	0.07464763
71	0x3e2bd583	0.16780667
72	0x3fc0e6ae	1.5070398
73	0x3e9c84e8	0.3057015
74	0x3fa6e511	1.3038656
75	0xbf815e3d	-1.0106884
76	0xbf2721b6	-0.65285814
77	0x3e44c0c0	0.19214153
78	0xbf9e2e73	-1.2357925
79	0x3ec44307	0.38332388
80	0xbf19a96b	-0.60024136
81	0xbf8c34af	-1.0953578
82	0x3f07b7c5	0.53014785
83	0x3f7852ff	0.9700164
84	0xbda0f1e3	-0.07858636
85	0x3e81b821	0.25335792
86	0x3eb15120	0.34632206
87	0x3d98447a	0.07434936
88	0x3e923ff7	0.28564426
89	0xbfcc292e	-1.5950067
90	0x3d29f6d6	0.041495167
91	0xbde7d0f8	-0.113191545
92	0x3f5c1aae	0.8597821
93	0x3fba32fe	1.4546812
94	0x3f25591c	0.64589095
95	0xbf6aeeaa	-0.9177042

encoder.layers.0.self_attn.in_proj_weight f4 [96, 32]
0	0x3e3a20b7	0.18176542
1	0xbdc63f5e	-0.09680055
2	0x3e3fc971	0.18729188
3	0x3e45b585	0.19307525
4	0x3de6e970	0.112749934
5	0xbdfb2807	-0.12263494
6	0x3e175a99	0.14780654
7	0xbe5bc279	-0.21460904
8	0xbe472336	-0.19447026
9	0xbcca3a36	-0.02468596
10	0x3c2917ed	0.010320646
11	0x3e46b1cb	0.1940376
12	0xbc3aa252	-0.011391239
13	0x3c7ff513	0.015622395
14	0xbe2acf2b	-0.16680591
15	0xbd9534ab	-0.07285436
16	0x3e2c61cf	0.16834186
17	0xbc25c97d	-0.010118839
18	0x3d4026f5	0.046912152
19	0xbe5286b3	-0.20559196
20	0xbca08818	-0.019596145
21	0xbe2700ea	-0.16308942
22	0x3de8c62f	0.113659255
23	0x3b69b370	0.0035659932
24	0xbdf82d58	-0.12118024
25	0x3e403679	0.1877078
26	0x3a603e28	0.0008554184
27	0x3e836288	0.2566111
28	0xbe1c1183	-0.15241055
29	0xbe25520b	-0.16144578
30	0x3d785287	0.06062558
31	0xbe309681	-0.17244913
32	0xbe0e7e6c	-0.13915414
33	0xbe1f1438	-0.15535057
34	0xbd76efe8	-0.060287386
35	0x3e518f84	0.20464903
36	0xbd9e8198	-0.07739562
37	0xbdf33803	-0.11875918
38	0xbe36ece8	-0.1786381
39	0x3daa1807	0.08305364
40	0xbd803033	-0.06259193
41	0x3e738bc7	0.2378379
42	0x3d76610d	0.06015115
43	0x3e1673be	0.1469259
44	0x3e46be77	0.19408594
45	0xbe2e151c	-0.1700024
46	0x3d395e8b	0.04525618
47	0x3e1116ce	0.14168856
48	0xbe0dfb1e	-0.13865325
49	0x3cbb9987	0.022900356
50	0x3b0d44fe	0.0021556015
51	0xbe0b2549	-0.13588442
52	0xbd79254a	-0.060826577
53	0x3db84831	0.089981444
54	0xbe565820	-0.20932055
55	0x3d79c72a	0.060980953
56	0xbe4b9800	-0.19882202
57	0xbe14b49c	-0.14522022
58	0x3e003a1e	0.1252217
59	0xbe05a922	-0.130528
60	0xbe02490b	-0.12723176
61	0xbe3d8138	-0.18506324
62	0x3d3aa281	0.045565132
63	0xbe325bd8	-0.17417848
64	0x3d7a07ce	0.0610426
65	0xbe1030b0	-0.14081073
66	0x3e2a79c3	0.16648011
67	0x3e3b44ff	0.18288039
68	0x3dad095d	0.084490515
69	0x3d08b6fd	0.033377636
70	0x3c0aef1d	0.008479861
71	0x3cd5b658	0.026087925
72	0xbde149cb	-0.11000403
73	0xbd96a74c	-0.07356128
74	0xbde5a700	-0.11213493
75	0xbd866205	-0.065616645
76	0xbde888b6	-0.113542005
77	0x3da5ad01	0.080896385
78	0xbc601a8e	-0.013678206
79	0x3e346abc	0.17618841
80	0xbd10d748	-0.03536156
81	0x3dfd15b8	0.12357658
82	0x3e00ac34	0.1256569
83	0x3df7dc03	0.12102511
84	0xbe292cc1	-0.16520979
85	0x3e1333bc	0.14375204
86	0x3e787e70	0.24266982
87	0x3dec7013	0.11544814
88	0xbe00adcd	-0.125663
89	0x3e32ef16	0.17474017
90	0x3dbb19c3	0.09135773
91	0x3e3f03e3	0.18653826
92	0xbd9cb3e1	-0.07651497
93	0x3e46212c	0.19348592
94	0x3ac3e9a7	0.0014946953
95	0x3e26a377	0.16273294
96	0x3e3c878d	0.18411084
97	0x3d3d3d1b	0.046200853
98	0xbe33be4a	-0.17553058
99	0x3c7de908	0.0154974535
100	0x3d6c9b7e	0.057765476
101	0xbdbff64b	-0.093731485
102	0x3d37abee	0.0448417
103	0x3ce3e4fb	0.027819147
104	0x3e2b65a9	0.16737999
105	0x3dd99016	0.10623185
106	0x3e098938	0.13431251
107	0xbda0dc96	-0.078545734
108	0x3d6db1c2	0.05803085
109	0x3c750501	0.014954806
110	0x3e54d8e5	0.20785864
111	0x3df466e2	0.11933686
112	0x3e11080b	0.14163224
113	0xbe0fa576	-0.14027962
114	0x3cf29ef7	0.029616816
115	0x3e428259	0.18995036
116	0xbd36e16f	-0.044648584
117	0x3dcc2296	0.09967534
118	0x3d293d19	0.041318033
119	0xbe6eaf6d	-0.23309107
120	0x3daff738	0.08592075
121	0xbe637355	-0.22211964
122	0xbe096768	-0.13418353
123	0xbe811447	-0.25210783
124	0x3a70eb22	0.0009190311
125	0x3e0df6c9	0.13863672
126	0x3d4458d6	0.047936283
127	0xbe0c2174	-0.13684636
128	0xbdf4a41b	-0.11945363
129	0x3e7e3617	0.24825321
130	0xbe1d5b80	-0.15366936
131	0xbdefc813	-0.11708083
132	0xbe1dd95c	-0.15414947
133	0x3e534620	0.2063222
134	0x3e7fb363	0.24970774
135	0x3e38e80b	0.18057267
136	0x3da72dcf	0.08163034
137	0xbd663c68	-0.05620995
138	0x3e5e452a	0.21706071
139	0x3e54ef5d	0.20794435
140	0xbd50f031	-0.051010314
141	0x3d4e08ad	0.050301243
142	0xbe63bfb6	-0.222411
143	0x3d4106ea	0.047125734
144	0xbdc875f5	-0.097881235
145	0xbd39a8da	-0.045327045
146	0xbe4ae5ef	-0.19814275
147	0xbd7f4c9b	-0.062328916
148	0xbe112072	-0.14172533
149	0xbe6c23c1	-0.23060514
150	0x3e5e19be	0.21689507
151	0xbde9a8a0	-0.11409116
152	0x3d9d62eb	0.07684883
153	0xbdc799e6	-0.09746151
154	0xbd94ecff	-0.07271766
155	0x3b233ea2	0.0024909158
156	0x3d5a7b65	0.053340334
157	0xbbaa82bc	-0.005203573
158	0x3da53b50	0.080679536
159	0x3e741e12	0.23839596
160	0xbcd6f34a	-0.026239056
161	0xbc75043b	-0.014954622
162	0x3e589a89	0.211527
163	0xbdd1f1cf	-0.102511995
164	0xbe4112d0	-0.18854833
165	0xbb137a00	-0.0022503138
166	0x3e3e45f2	0.1858137
167	0xbe7ca6c6	-0.24672994
168	0x3d6e1c61	0.058132533
169	0xbe12e689	-0.14345755
170	0xbe0ab950	-0.13547254
171	0x3dc7a343	0.097479366
172	0xbd47112b	-0.048600357
173	0x3e0c7170	0.13715148
174	0x3cd189e4	0.025578447
175	0x3e1f38d3	0.1554902
176	0xbcc42aa1	-0.023946108
177	0x3d62850e	0.055302672
178	0xbd63394c	-0.055474564
179	0xbe5a43c7	-0.21314918
180	0x3cc66b44	0.02422107
181	0xbd83d28b	-0.06436642
182	0x3e3a4892	0.18191746
183	0xbd2c1b7d	-0.042018402
184	0x3e024ddd	0.12725015
185	0x3e37ea6f	0.17960523
186	0x3d651780	0.055930614
187	0xbde55b94	-0.11199108
188	0x3e16743b	0.14692776
189	0x3cece915	0.028919736
190	0xbe2fca66	-0.17167053
191	0x3dcf6d43	0.10128262
192	0x3e203e5c	0.15648788
193	0x3a7a6d3a	0.0009553019
194	0xbdc373af	-0.09543549
195	0xbdfd8dc3	-0.123805545
196	0xbb173569	-0.0023072606
197	0x3e344a37	0.17606436
198	0x3dc95c60	0.09832072
199	0xbda0727e	-0.07834338
200	0x3e450b26	0.19242534
201	0x3e78a081	0.24279977
202	0xbce177c3	-0.027522927
203	0x3dc51ee6	0.09625034
204	0x3ddc63d9	0.10761232
205	0xbcfd2993	-0.030903613
206	0x3e0d7cbc	0.13817114
207	0x3d820f21	0.06350542
208	0x3ddd21a5	0.10797433
209	0xbdcc2004	-0.09967044
210	0x3c1418a5	0.009039079
211	0xbe3dcedb	-0.1853594
212	0xbe5595e9	-0.20857967
213	0x3b1936b9	0.0023378565
214	0x3e0a2f53	0.13494615
215	0xbdf0bb33	-0.117544554
216	0xbdfeff9f	-0.124510996
217	0xbe4d2d6a	-0.20036855
218	0x3e1946f1	0.14968468
219	0xbda047cc	-0.07826194
220	0xbde038eb	-0.10948356
221	0x3ab29f5c	0.0013627815
222	0xbcd8efbf	-0.026481507
223	0xbddf3948	-0.108995974
224	0x3e3c9b7f	0.18418692
225	0xbe03ce43	-0.12871651
226	0xbdeec889	-0.11659343
227	0x3dd4c4e4	0.103891164
228	0xbe1a7882	-0.15085033
229	0x3e201f4f	0.15636943
230	0x3d22369f	0.039602872
231	0x3e0c5a8b	0.13706414
232	0x3d82e0de	0.06390546
233	0x3d164cec	0.036694452
234	0x3d3a009f	0.04541075
235	0x3e0ecb89	0.1394483
236	0xbdbeb2e5	-0.09311465
237	0xbe50dedf	-0.20397519
238	0xbd85a486	-0.06525521
239	0x3e27065f	0.16311024
240	0x3d98d73f	0.0746293
241	0x3ca81077	0.020515664
242	0x3e4f36aa	0.20235696
243	0x3e2b3f5f	0.16723393
244	0xbe10b4fc	-0.1413154
245	0xbdb0cee4	-0.08633211
246	0x3d0f90a8	0.035050064
247	0x3d68482a	0.056709446
248	0x3d80dd00	0.062921524
249	0x3e0139c8	0.12619698
250	0x3dd46928	0.103716195
251	0xbd95a784	-0.07307342
252	0xbe0919a6	-0.1338869
253	0xbdcd8142	-0.100344196
254	0x3de995f6	0.11405556
255	0x3c3b3910	0.011427179

encoder.layers.0.self_attn.in_proj_bias f4 [96]
0	0x3a8b1c1e	0.0010613238
1	0xbb60daa1	-0.003431
2	0xbd3f2087	-0.04666188
3	0xbc306b98	-0.01076784
4	0xbd39b53e	-0.04533886
5	0x3d10bc32	0.035335727
6	0xbc7e7068	-0.015529729
7	0xbcedc06d	-0.02902242
8	0xbcf1aa10	-0.029500037
9	0x3cdfad12	0.027304206
10	0x3d7360a5	0.05941834
11	0x3ce4f58d	0.027949119
12	0x3b019a52	0.001977582
13	0xbc7c9de5	-0.015418504
14	0xbbc79276	-0.0060904576
15	0x3cb787bf	0.022403596
16	0x3cc2f581	0.023798706
17	0xbc01bdc5	-0.00791878
18	0x3c94d889	0.018169658
19	0xbcaf9463	-0.021433061
20	0x3bfdc9d8	0.007745009
21	0x3c134a72	0.008989917
22	0xbd871a2e	-0.0659679
23	0xbcd98a1f	-0.02655512
24	0x3cbd41b3	0.023102617
25	0xbcba5d75	-0.022749642
26	0x3c970e55	0.018439451
27	0xbb8e5398	-0.0043434612
28	0xbc13a3fb	-0.009011264
29	0xbc62d236	-0.0138440635
30	0xbbcf62a2	-0.0063288966
31	0x3c621f87	0.013801462
32	0xb8ea29a4	-0.00011165746
33	0x38d1feda	0.000100133664
34	0xb8155691	-3.560499e-05
35	0x39238b16	0.00015596705
36	0x358b84a1	1.0394907e-06
37	0xb8a0706a	-7.650333e-05
38	0x37055214	7.946528e-06
39	0xb8e7ad3c	-0.00011047206
40	0xb822e5ea	-3.8837934e-05
41	0xb7ec7719	-2.8188852e-05
42	0x3829bcf4	4.0468716e-05
43	0xb8b1c16a	-8.476044e-05
44	0x3891e053	6.9559224e-05
45	0xb8087021	-3.2529355e-05
46	0x37a0b3bb	1.915718e-05
47	0xb69ffcdf	-4.7680073e-06
48	0x37b8eca7	2.204471e-05
49	0x38aa44e8	8.1190665e-05
50	0x39259bfb	0.00015793733
51	0xb9248dfb	-0.0001569315
52	0xb83bca38	-4.4772605e-05
53	0xb88f0de6	-6.82136e-05
54	0xb947bded	-0.00019048872
55	0x3609ecc5	2.0552409e-06
56	0xb7151743	-8.886508e-06
57	0x3818441f	3.6303067e-05
58	0xb7c7ffdc	-2.3841792e-05
59	0xb614137e	-2.2065065e-06
60	0x3801e0f3	3.0965497e-05
61	0x3875fa82	5.8645855e-05
62	0xb8378b7d	-4.376051e-05
63	0x3805b5b6	3.1878903e-05
64	0x3b90aa01	0.0044147973
65	0x3bf95796	0.007609318
66	0x3ab5001b	0.0013809236
67	0xbbdcafe4	-0.006734835
68	0xba0f12ff	-0.0005457848
69	0xbc7a12d7	-0.015263281
70	0xbb9cd11d	-0.0047856704
71	0xbc4797f4	-0.012182225
72	0x3cac30bd	0.021019334
73	0xbc15268c	-0.009103429
74	0xbcd237e7	-0.025661422
75	0x3bee2bc6	0.007268402
76	0x3af08423	0.0018349927
77	0xbba9c66d	-0.005181125
78	0x3c515a56	0.012777885
79	0x3c78706a	0.01516352
80	0x3ba91415	0.0051598647
81	0xbb17462e	-0.0023082602
82	0x3b083433	0.0020783066
83	0x3b542295	0.0032369245
84	0xbc8c1229	-0.017098503
85	0x3b4cfedd	0.003127984
86	0xbb7b9c7b	-0.003839283
87	0xbc81f8a7	-0.015865637
88	0xba2a8ec5	-0.00065062597
89	0xbaa28154	-0.0012398162
90	0xbc488d1c	-0.012240674
91	0x3a908a57	0.0011027557
92	0x3c055925	0.0081389295
93	0x3bd7f2a9	0.0065902066
94	0x3c9e6737	0.019336326
95	0xba8a123e	-0.0010534001

encoder.layers.0.self_attn.out_proj.weight f4 [32, 32]
0	0x3bac19b6	0.0052520884
1	0xbdba9a51	-0.09111465
2	0x3e2e062e	0.16994545
3	0x3e12ec3b	0.14347927
4	0xbdfa9097	-0.122346096
5	0xbe15c0af	-0.14624284
6	0xbe325146	-0.17413816
7	0x3e13cacd	0.14432831
8	0xbe0976d9	-0.13424243
9	0xbdde3ad1	-0.10851062
10	0x3e17bf92	0.14819172
11	0xbdd36549	-0.10322053
12	0xbc4168ed	-0.011804801
13	0x3e1c88bd	0.15286537
14	0xbd0bcff2	-0.03413386
15	0xbdd21d5d	-0.10259507
16	0x3e49dbdb	0.19712774
17	0xbd288680	-0.041143894
18	0xbb38a4d1	-0.002817441
19	0x3e2d55b9	0.16927232
20	0xbd86bd21	-0.06579042
21	0xbe20ca4e	-0.15702173
22	0x3e50f5ef	0.20406316
23	0x3dfbbf0c	0.12292299
24	0x3cdfbe88	0.027312532
25	0xbde2b8b3	-0.11070385
26	0xbe471772	-0.19442537
27	0xbc295928	-0.010336198
28	0xbd9ee636	-0.07758753
29	0x3e2ee945	0.17081173
30	0x3dae9aa5	0.0852559
31	0xbd92e26a	-0.07172091
32	0x3de68681	0.11256123
33	0x3dfa98f6	0.12236206
34	0x3cbc3505	0.0229745
35	0xbd295fd8	-0.04135117
36	0xbe303c3e	-0.1721048
37	0xbe787f30	-0.24267268
38	0x3dc93d7b	0.098261796
39	0xbde1e9f3	-0.110309504
40	0xbe045744	-0.12923914
41	0xbe42a527	-0.19008313
42	0xbe21574c	-0.15755957
43	0xbcced4ae	-0.025247898
44	0xbe0337a6	-0.12814197
45	0x3e0c8ca6	0.13725528
46	0xbddb6a1e	-0.107135996
47	0x3ded58bf	0.115891926
48	0xbe0549a4	-0.13016373
49	0xbd35f318	-0.044421285
50	0xbd42c98a	-0.047555484
51	0x3e12dba9	0.14341606
52	0xbe2ac868	-0.16678011
53	0x3d2d77a4	0.042350426
54	0x3c8ef835	0.017452339
55	0xbe6ac55a	-0.22926846
56	0x3bb0c450	0.005394496
57	0x3dcdd0b6	0.10049574
58	0x3d8249e3	0.06361749
59	0xbe374b8c	-0.17899913
60	0xbd8abe05	-0.067745246
61	0x3dafbd98	0.08581084
62	0xbe0ad042	-0.13556007
63	0xbd76b740	-0.060233355
64	0xbda72b2d	-0.08162532
65	0xbe01e753	-0.126859
66	0xbdabd723	-0.083906434
67	0x3d3b130d	0.045672465
68	0xbd99638b	-0.074896894
69	0xbdde78a5	-0.10862855
70	0x3e0000b9	0.12500276
71	0x3e1c0925	0.15237863
72	0x3d67b2b7	0.05656692
73	0x3e1fdefd	0.15612407
74	0x3df1ad09	0.11800582
75	0x3e1bc60f	0.15212272
76	0xbdaba339	-0.083807416
77	0xbdf98f0d	-0.12185488
78	0x3baf9660	0.0053585023
79	0xbd8be9bf	-0.06831693
80	0xbdfae89e	-0.122513995
81	0x3d5e8d0f	0.054333743
82	0x3d4bb1d9	0.049730156
83	0x3cec31a1	0.028832259
84	0xbcd767b1	-0.026294561
85	0xbd84c9f0	-0.06483829
86	0x3e30c499	0.17262496
87	0xbdd6fe42	-0.104977146
88	0xbdd1dd56	-0.102472946
89	0x3ca08b0d	0.019597555
90	0xbc8da857	-0.017292185
91	0xbdd9bd84	-0.1063185
92	0x3adc7327	0.0016818986
93	0xbe12c59a	-0.14333192
94	0xbe0c6292	-0.13709477
95	0xbe05f200	-0.13080597
96	0xbe05e356	-0.13075003
97	0x3e0a1170	0.13483214
98	0x3dbff072	0.09372033
99	0xbcee2736	-0.029071432
100	0xbd8cae53	-0.06869187
101	0xbd010fe6	-0.031509303
102	0x3e6f8463	0.23390345
103	0xbd2afbfb	-0.041744214
104	0x3e803535	0.25040594
105	0x3e2459b2	0.16049841
106	0x3b6e3eb6	0.0036353297
107	0xbd14b6db	-0.036307197
108	0x3e2b57b4	0.16732675
109	0x3dc74285	0.097294845
110	0x3d9f60c3	0.07782128
111	0xbe085b5d	-0.13316102
112	0x3d70a7ff	0.058753964
113	0xbe78f0b8	-0.24310577
114	0x3e3111c2	0.1729193
115	0xbd1c68da	-0.03818593
116	0x3c98a383	0.018632656
117	0x3dd84d02	0.10561563
118	0xbdd57a73	-0.10423746
119	0x3e48e2b1	0.19617726
120	0x3e0b9e64	0.1363464
121	0x3dcbc6c4	0.09950021
122	0x3e4f9c8d	0.20274563
123	0xbdacbfdb	-0.08435031
124	0x3ddbbb12	0.1072904
125	0xbcfe10ac	-0.03101381
126	0x3e2b0cd8	0.16704118
127	0x3dc0947a	0.0940332
128	0x3de87d58	0.113520324
129	0xbd6720a0	-0.056427598
130	0xbe3c6a18	-0.18399847
131	0xbca8caad	-0.020604456
132	0x3de789c5	0.11305574
133	0x3e0f3b1f	0.13987397
134	0xbcccc7f6	-0.024997693
135	0x3dfaec11	0.12252057
136	0x3e077d75	0.13231452
137	0x3e3f85c3	0.1870337
138	0x3dc0b771	0.09409989
139	0xbceacee6	-0.02866311
140	0x3dcf07e1	0.10108925
141	0x3c9ad599	0.01890068
142	0xbd011a40	-0.031519175
143	0x3cac8870	0.021061152
144	0xbd1fd828	-0.039024502
145	0xbdafc1d6	-0.08581893
146	0xbdf1df3a	-0.11810155
147	0xbe071340	-0.13190937
148	0x3d945a44	0.07243779
149	0xbdcaa721	-0.098951586
150	0x3e1738bc	0.14767736
151	0x3be1dda0	0.006892875
152	0x3e14323b	0.14472286
153	0xbe486435	-0.19569476
154	0x3dac03fb	0.08399197
155	0x3d92bfe4	0.071655065
156	0x3e314bc9	0.17314066
157	0xbdd713ea	-0.10501845
158	0xbdd9b385	-0.10629944
159	0x3dcac39e	0.09900592
160	0x3e0470a5	0.12933595
161	0x3e24d381	0.16096307
162	0xbc0b0d09	-0.008486995
163	0x3e2f0418	0.17091405
164	0x3dd64e76	0.10464184
165	0x3db1c7b7	0.08680671
166	0x3e50fad7	0.20408188
167	0xbd71fc98	-0.059078783
168	0xbe1132c3	-0.1417952
169	0x3dc2350a	0.09482773
170	0x3e1eaf97	0.1549667
171	0x3dbba681	0.091626175
172	0x3dd07152	0.10177864
173	0x3d4c1c5c	0.049831733
174	0xbdc86466	-0.097847745
175	0x3d285b2d	0.041102577
176	0x3dc7ef19	0.09762401
177	0xbdd9de63	-0.1063812
178	0x3e001aa9	0.1251017
179	0x3e213372	0.15742281
180	0xbc02b623	-0.007977995
181	0xbe12a403	-0.14320378
182	0x3dd26ae3	0.10274293
183	0xbc809a66	-0.015698623
184	0xbd2b708c	-0.04185538
185	0xbdb1ce36	-0.0868191
186	0xbde74c6a	-0.11293872
187	0xbdc7d366	-0.09757118
188	0xbce3079d	-0.027713591
189	0xbdee40fa	-0.11633487
190	0xbd4bc7e8	-0.049751192
191	0xbdef128c	-0.116734594
192	0x3df0e520	0.11762452
193	0x3ddcc4a5	0.107796945
194	0x3e1dd430	0.15412974
195	0x3dd2ec0a	0.10298927
196	0x3d2a3936	0.041558467
197	0xbd3b60ec	-0.04574673
198	0xbd8507f3	-0.06495657
199	0x3d158f54	0.03651364
200	0xbe38cba5	-0.18046434
201	0xbbb7ae96	-0.005605529
202	0xbdbb30fe	-0.09140204
203	0xbddfb968	-0.10924035
204	0xbd5f3027	-0.05448928
205	0xbe265306	-0.16242608
206	0x3e1289c0	0.1431036
207	0xbe1aeab8	-0.151286
208	0x3cb344cc	0.02188339
209	0xbc8f493b	-0.017490974
210	0xbc160737	-0.009156994
211	0xbe1ca8cd	-0.15298767
212	0xbd2e4367	-0.04254475
213	0x3d0029fb	0.031290036
214	0xbdc3b108	-0.095552504
215	0x3dd3a433	0.10334053
216	0xbdf846fb	-0.121229135
217	0x3da7f59c	0.08201143
218	0xbe02698d	-0.12735577
219	0xbd872cc7	-0.066003375
220	0xbc2b0539	-0.010438257
221	0x3b067c92	0.0020521027
222	0xbe0fe559	-0.14052333
223	0x3c70d5ab	0.01469938
224	0x3e14c8d3	0.14529733
225	0xbdf81b4c	-0.121145815
226	0x3c515aee	0.012778027
227	0xbdcb0656	-0.09913318
228	0x3de82588	0.113352835
229	0x3c85e353	0.016343748
230	0xbdc0c6fb	-0.094129525
231	0xbc0649b2	-0.008196281
232	0x3db082cd	0.08618698
233	0x3e2d4aaa	0.16923013
234	0xbe29e9bc	-0.16593069
235	0xbc33c987	-0.010973341
236	0xbce6eacd	-0.028188134
237	0x3d0a25a8	0.033727318
238	0x3d941ba1	0.07231832
239	0xbe289c76	-0.16465935
240	0x3d673c55	0.05645402
241	0x3cc5acd4	0.024130262
242	0xbc1c4e83	-0.009540203
243	0xbd759722	-0.059958585
244	0xbdc26ec0	-0.0949378
245	0xbdaf8440	-0.085701466
246	0xbe3884fb	-0.18019478
247	0x3d97eefb	0.07418629
248	0xbdfed2ca	-0.124425486
249	0x3da5c7cd	0.080947496
250	0xbdacd249	-0.08438546
251	0x3ddd8eb1	0.10818232
252	0xbdda1ba0	-0.106498
253	0x3e036694	0.12832099
254	0x3dda98f4	0.10673705
255	0x3d5bbe46	0.053648256

encoder.layers.0.self_attn.out_proj.bias f4 [32]
0	0xbc415fe9	-0.011802652
1	0x3c9ef7d5	0.019405285
2	0xbc863a54	-0.016385235
3	0xbc63a1d2	-0.013893561
4	0xbc621482	-0.013798835
5	0x3b91dfd9	0.0044517335
6	0xbbc5f813	-0.0060415356
7	0x3c1ef584	0.00970209
8	0x3c7ccc3e	0.0154295545
9	0x3c4e4dcb	0.0125917895
10	0x3ba6018d	0.005066103
11	0xbb57574d	-0.0032858432
12	0x3c4e5499	0.012593412
13	0xbc339ef0	-0.010963187
14	0x3c9ced79	0.019156205
15	0xbc966683	-0.018359428
16	0xbbc91e40	-0.0061376393
17	0xbcb00841	-0.02148831
18	0x3abe33a6	0.0014511242
19	0xbcc0255a	-0.02345531
20	0xbc217020	-0.009853393
21	0x3ba53736	0.005041982
22	0x3ba39c8c	0.004993027
23	0xbbd75599	-0.0065714833
24	0x3ba0741e	0.0048966547
25	0xbb55248a	-0.0032523
26	0x3c0de2d4	0.008660037
27	0xbc0a59a2	-0.008444222
28	0x3c56d64c	0.013112616
29	0xbc3e6256	-0.011620125
30	0xbc4e0e6f	-0.012576683
31	0x3c680b8c	0.014162909

encoder.layers.0.linear1.weight f4 [64, 32]
0	0x3d9a5503	0.07535746
1	0x3b1986cb	0.002342629
2	0x3bb1dff0	0.0054283068
3	0xbe3159cc	-0.17319411
4	0xbe15a40a	-0.14613357
5	0x3dcdafe7	0.10043316
6	0xbe26fc8e	-0.1630728
7	0xbd785355	-0.060626347
8	0xbd11e544	-0.035619035
9	0xbc8af83f	-0.016964076
10	0xbcf8c62a	-0.03036793
11	0xbc14c565	-0.009080266
12	0x3d11f36d	0.03563254
13	0xbe27647a	-0.16346923
14	0x3da8d61b	0.082439624
15	0x3def95ba	0.1169848
16	0x3dd64a17	0.1046335
17	0xbd170e49	-0.036878858
18	0xbe201881	-0.15634347
19	0x3de6b219	0.11264438
20	0x3c49cfbd	0.012317595
21	0x3e3e8bf8	0.18608081
22	0xbc5e7332	-0.013577269
23	0x3dd6af20	0.10482621
24	0x3dff7fd1	0.12475551
25	0xbe08f691	-0.13375308
26	0x3e0097ff	0.12557982
27	0x3da44fbb	0.0802302
28	0xbd1e4a0d	-0.03864484
29	0xbe0a279d	-0.13491674
30	0xbc539e64	-0.012916181
31	0x3cd6a6ff	0.026202677
32	0x3d95e9ac	0.0731996
33	0x3ba633bc	0.005072085
34	0xbd272214	-0.040803984
35	0xbe118df7	-0.14214312
36	0x3d1134df	0.035450812
37	0x3d2ebbce	0.042659573
38	0xbdc7b8c7	-0.0975204
39	0x3d9ff942	0.07811214
40	0x3d3d56fc	0.046225533
41	0x3d357448	0.044300348
42	0xbe13439c	-0.1438126
43	0x3dee3c7c	0.1163263
44	0xbd2a734f	-0.041613873
45	0xbd699d94	-0.057035044
46	0x3e23c692	0.15993717
47	0x3d7ca70c	0.061682746
48	0xbe16dcfa	-0.14732733
49	0xbd481784	-0.04885055
50	0x3e39f72d	0.18160696
51	0xbda4b9d3	-0.08043256
52	0x3e5682ae	0.20948288
53	0xbc0c782e	-0.008573575
54	0xbe0fcbd2	-0.14042595
55	0x3e0b9ba4	0.13633591
56	0xbcce7a61	-0.02520484
57	0x3dcc3efd	0.099729516
58	0xbdd15866	-0.10221939
59	0x3e68fa68	0.22751772
60	0x3e0a373a	0.1349763
61	0x3e079087	0.13238727
62	0x3e242c67	0.16032563
63	0x3e2ccfec	0.16876191
64	0x3dde2b63	0.10848119
65	0x3d097351	0.03355724
66	0x3d998639	0.07496304
67	0x3cd2471d	0.025668675
68	0xbdf537cb	-0.11973532
69	0x3d388e12	0.045057364
70	0x3e2fd2ee	0.17170307
71	0xbdd3e19f	-0.10345768
72	0xbdaf97ac	-0.08573851
73	0x3e171a2b	0.14756076
74	0xbd0348ae	-0.032051735
75	0xbe241b92	-0.16026142
76	0x3d0f4e42	0.03498674
77	0x3d5bea9c	0.053690538
78	0x3e2c782b	0.16842715
79	0x3e2ea4f5	0.17055114
80	0xbd8a6ba5	-0.06758813
81	0xbdc0c8ce	-0.094133005
82	0xbd4c3a37	-0.049860206
83	0xbdc502e0	-0.09619689
84	0x3d8916e1	0.06693817
85	0x3e0063bf	0.1253805
86	0xbdedc830	-0.11610448
87	0xbe18f988	-0.14938939
88	0xbd0585e8	-0.032598406
89	0xbbf5b148	-0.00749794
90	0x3d756977	0.059915032
91	0xbdba6695	-0.09101597
92	0x3b3f6f98	0.0029210802
93	0xbc3c2360	-0.011483043
94	0x3e44b4fa	0.19209662
95	0x3d91bc5a	0.07116003
96	0x3df74deb	0.120754085
97	0xbe148670	-0.14504409
98	0xbd90bb2d	-0.07066951
99	0x3e16ae88	0.14715016
100	0x3df8b3d1	0.12143672
101	0x3c27fdca	0.010253379
102	0x3da8ac16	0.08235948
103	0x3e051a7e	0.12998387
104	0xbe33faa5	-0.17576082
105	0xbe659b4d	-0.22422524
106	0xbd87c002	-0.066284195
107	0x3e0ede83	0.13952069
108	0x3c175b14	0.009238023
109	0xbe399063	-0.18121485
110	0xbd6eb0fb	-0.05827425
111	0x3e150b29	0.14555039
112	0x3d1cf484	0.038319126
113	0x3de09a18	0.10966891
114	0xbdcf110e	-0.10110675
115	0x3d074804	0.033027664
116	0xbdb51c85	-0.0884333
117	0x3d4acf7d	0.049514282
118	0xbcfe5019	-0.031044053
119	0x3c38bf98	0.011276148
120	0x3c254026	0.010086095
121	0xbde31d82	-0.110896125
122	0xbdf49864	-0.11943129
123	0x3e1cb96d	0.1530511
124	0x3d964938	0.07338184
125	0xbcd94f48	-0.026527062
126	0x3d80e14f	0.06292974
127	0xbdcb2fba	-0.099212125
128	0xbc29e77c	-0.010370132
129	0xbe144dd2	-0.14482811
130	0xbd0c9633	-0.03432293
131	0x3dbf01c2	0.09326507
132	0xbd3d716a	-0.04625074
133	0x3d8fe661	0.07026363
134	0x3d2f59d6	0.042810284
135	0xbe07bee1	-0.13256408
136	0xbe019b51	-0.12656905
137	0xbe82942e	-0.25503677
138	0x3e72460b	0.23659532
139	0xbe5b34b3	-0.21406822
140	0x3d5f296c	0.054482862
141	0xbd2ebc9e	-0.042660348
142	0xbe1b64e3	-0.15175204
143	0x3e46e48f	0.19423126
144	0x3dfe0efa	0.124052
145	0xbd9d32c7	-0.07675701
146	0x3dc21e26	0.094784066
147	0x3d09ee24	0.033674374
148	0xbda6600a	-0.08123787
149	0x3cc3ce47	0.023902072
150	0xbc2c520d	-0.010517609
151	0xbe00e71b	-0.1258816
152	0x3d3850ff	0.04499912
153	0x3d405111	0.04695231
154	0xbd95161e	-0.07279609
155	0xbcb88104	-0.022522457
156	0xbe08c716	-0.13357195
157	0xbc40268f	-0.011727943
158	0x3d8a78cb	0.06761321
159	0x3e039b09	0.1285211
160	0x3dd330ea	0.10312064
161	0x3d5ffb54	0.054683045
162	0x3e2a8c7e	0.16655156
163	0x3d8da999	0.06917114
164	0x3de480d6	0.11157386
165	0x3e13bb6e	0.14426968
166	0xbe04c435	-0.12965472
167	0x3e167a93	0.14695196
168	0x3e0308b1	0.12796284
169	0xbe072611	-0.13198115
170	0x3dc4154b	0.09574374
171	0x3dbf02a6	0.09326677
172	0xbe196a9d	-0.14982076
173	0xbe06416a	-0.13110891
174	0x3dece5ff	0.11567306
175	0xbdd0582a	-0.10173066
176	0x3da30391	0.079596646
177	0x3d850e81	0.06496907
178	0x3c9e1123	0.01929528
179	0x3ddeb4a6	0.108743
180	0xbd594793	-0.053046774
181	0x3c806295	0.015672008
182	0x3e383263	0.17987971
183	0x3d963264	0.0733383
184	0x3dcb31cd	0.09921608
185	0xbd94782e	-0.07249485
186	0x3e180bd7	0.14848267
187	0x3e3695a6	0.17830524
188	0xbdf37cbe	-0.11889027
189	0xbddf82d6	-0.10913627
190	0xbe2f2fbc	-0.17108053
191	0x3d8ecd24	0.06972721
192	0x3e39a6f2	0.18130091
193	0x3e0910ff	0.1338539
194	0x3c01b699	0.00791707
195	0xbe2bacf4	-0.16765195
196	0x3c0fb78e	0.00877179
197	0x3e07c616	0.13259158
198	0xbd6a1705	-0.05715086
199	0x3db407af	0.08790528
200	0x3ced40be	0.028961536
201	0xbc309c7f	-0.010779499
202	0x3e44ca3c	0.19217771
203	0xbd17a5a8	-0.037023216
204	0xbe902bd6	-0.28158444
205	0x3d402d87	0.04691842
206	0x3d85eca0	0.06539273
207	0x3c6082b9	0.013703042
208	0x3da85391	0.08219064
209	0x3d1fc4a7	0.0390059
210	0xbbeb58a9	-0.0071822
211	0x3e63b352	0.22236374
212	0xbdb0fba5	-0.086417474
213	0xbe58cea7	-0.21172582
214	0x3ceebc1b	0.02914243
215	0xbe59376b	-0.21212547
216	0xbc6a76dd	-0.014310566
217	0x3d6b68ce	0.057472996
218	0x3e425f09	0.18981566
219	0xbde9fb87	-0.11424928
220	0xbe8b10da	-0.27161294
221	0xbe3ced64	-0.18449932
222	0x3bc56cde	0.006024941
223	0x3e5d3e00	0.21605682
224	0x3d6c0af5	0.057627637
225	0xbceddb6e	-0.029035296
226	0xbb829925	-0.0039855414
227	0x3cbdf99e	0.023190316
228	0xbdcebc41	-0.100945
229	0xbde9242c	-0.11383852
230	0xbd8814ca	-0.0664459
231	0x3df13d28	0.11779243
232	0xbe37649e	-0.17909476
233	0x3d26403c	0.040588602
234	0x3d778b00	0.060435295
235	0x3e1c051e	0.15236327
236	0x3d4a6ab4	0.049418166
237	0xbdfa7b87	-0.12230592
238	0xbb3bc9b5	-0.0028654162
239	0x3d642018	0.05569467
240	0xbd62f39d	-0.05540811
241	0xbe4becf3	-0.19914608
242	0xbe1f9c48	-0.1558696
243	0xbe1f35ba	-0.15547839
244	0xbd67160f	-0.05641752
245	0xbdd6e5b7	-0.104930334
246	0xbd80ac56	-0.062828705
247	0xbe3134dc	-0.1730532
248	0x3db5f291	0.088841565
249	0xbd81c868	-0.063370526
250	0xbe1eb3e0	-0.15498304
251	0x3dda5b39	0.106619306
252	0x3df6726e	0.120335445
253	0x3e2319c0	0.15927792
254	0x3d8b656c	0.06806454
255	0x3da4edc1	0.080531605

encoder.layers.0.linear1.bias f4 [64]
0	0x3d8f4a11	0.06996549
1	0xbc32270b	-0.010873566
2	0xbc5c4713	-0.01344468
3	0x3e0f5db8	0.14000595
4	0x3d10e4de	0.035374515
5	0x3d14db2d	0.036341835
6	0x3ddc7b46	0.107657
7	0x3e26ddf6	0.16295609
8	0xba3e300b	-0.0007255084
9	0x3e48e877	0.19619928
10	0xbc569280	-0.013096452
11	0xbe33866c	-0.17531747
12	0xbd9ede9f	-0.07757305
13	0x3c516b95	0.012781997
14	0xbe34a359	-0.17640437
15	0xbd01018d	-0.03149562
16	0x3d9127f0	0.070876956
17	0x3dc9bc08	0.09850317
18	0x3da46e39	0.08028836
19	0x3d15aa5c	0.03653942
20	0x3e12840a	0.14308181
21	0xbe1f07b0	-0.15530276
22	0xbe39ae58	-0.18132913
23	0xbe020145	-0.12695797
24	0xbcf7a053	-0.030227816
25	0x3dfd1f55	0.12359492
26	0x3e3c6d19	0.18400992
27	0x3e22addf	0.15886639
28	0x3d84df42	0.064878955
29	0x3dc1a535	0.09455339
30	0xbdc239a3	-0.094836496
31	0xbc958d80	-0.018255949
32	0x3de48eae	0.111600265
33	0x3e2ba6bf	0.16762827
34	0x3c2113b4	0.009831358
35	0x3d1cb03e	0.038254015
36	0x3d92843e	0.071541294
37	0xbde5f116	-0.11227624
38	0x3d91b26c	0.071141094
39	0x3d3b0c20	0.04566586
40	0xbe38c23a	-0.18042842
41	0x3e0fbf66	0.14037856
42	0xbd879025	-0.0661929
43	0xbdac7534	-0.08420792
44	0x3c8d2293	0.0172284
45	0xbdf8d62e	-0.121502265
46	0x3df23363	0.118262075
47	0xbd8eb4c8	-0.06968075
48	0xbb58edca	-0.0033100718
49	0x3e00da87	0.12583362
50	0xbe2d4451	-0.16920592
51	0x3de87a4c	0.11351451
52	0x3e07bb60	0.13255072
53	0x3e2df370	0.16987395
54	0x3cd1c97e	0.025608774
55	0xbd197c14	-0.037471846
56	0xbdac3a21	-0.08409525
57	0xbe19dec3	-0.15026383
58	0x3d3d4261	0.046205882
59	0xbc34fb38	-0.011046223
60	0xbcb37cc3	-0.021910077
61	0xbd1f56a9	-0.038901005
62	0xbdc73b6a	-0.09728129
63	0xbe0a1886	-0.13485917
