pabbo_method/results/PABBO/PABBO_GP1D_quick_20251103_210753/ckpt.tar (torch, 445563 bytes, 152 tensors)

x_embedders.0.0.weight f4 [32, 1]
00000000: c2e9 41be 83df 013f e759 423f 6f51 37bf
00000010: f046 bdbd aa9d cd3e c13e 103f 836c 543f
00000020: 860e cbbe fec3 38bf 4199 123f c85d 64be
00000030: 881b 60bf 5be6 973d 433a 883e b067 da3d
00000040: ef5b fdbe 94cc cf3e e4a0 bb3e 0a55 5bbd
00000050: c42d 57bf b812 9ebe 50bb d53d 5564 15bf
00000060: 6dbc 773f 5055 82bf ba98 8c3f 9816 21bf
00000070: c927 4a3f 7662 6f3e 0479 40be bfb4 4a3f
-0.18936828 0.50731677 0.7591843 -0.7160863 -0.09242046 0.4015935 0.56345755 0.82978076
-0.39659518 -0.7217406 0.57265097 -0.223014 -0.8754201 0.07416984 0.2660695 0.10664308
-0.49484202 0.40585768 0.36646187 -0.053547896 -0.8405421 -0.30873656 0.10436118 -0.5835622
0.9677189 -1.0182285 1.0984108 -0.629251 0.7896696 0.23377404 -0.18796164 0.79182047

x_embedders.0.0.bias f4 [32]
00000000: 2005 003f 4901 923d 4379 d4be 5181 dcbe
00000010: b0f1 7fbf 4b4d 813c db20 f53e c5e4 4a3d
00000020: f91c fd3d ec18 9b3d 5c0e d63e 8367 103f
00000030: 0116 d9be 7c68 5c3e f0c7 883e c26b 283f
00000040: d723 01be a840 7cbf f26d 13bf 1763 e63d
00000050: 288f ff3e 7cc9 febe b808 f6be 9319 fb3e
00000060: c59a 7b3f b47b 963d 8f9a 43bf ce2e ea3e
00000070: a91d acbe 5b53 26bd 216e 563e 35c5 e8bd
0.5000782 0.071291514 -0.41498765 -0.4306741 -0.9997816 0.015783926 0.4787663 0.049534578
0.12359042 0.07573113 0.4180783 0.56407946 -0.423996 0.21524233 0.2671504 0.65789425
-0.12611328 -0.9853616 -0.5758964 0.11249369 0.49913907 -0.49763095 -0.48053527 0.4904295
0.98283035 0.07347813 -0.7640771 0.45738834 -0.3361638 -0.040606838 0.20940448 -0.11365739

x_embedders.0.2.weight f4 [32, 32]
00000000: 73fe 72bd edda 26be d5bd 13be 7994 493e
00000010: f426 2f3e 6afe c4bc 59a9 efbd 6b04 39bd
00000020: 1834 6a3e ac2a 7e3e 75c0 71bd e344 fd3d
00000030: 49a0 c63d a728 e93d 50dc 33be 91f5 8dbc
00000040: 105e 933e 3679 eebd 10c3 973d 9c2e 86bd
00000050: fbce d93d 03b4 2bbd a73f 0e3e f7a0 413d
00000060: 22fe 2dbe 754f 3c3e 1fbb 1ebd 2c02 a4bd
00000070: 0300 28bb 0290 fcbd 56a1 633e e657 9dbd
00000080: 7477 16bd 7491 b7bc d201 06be 347d e9bd
00000090: f1ae 1f3e f12d f6bd 3a19 fd3d e73c 41be
000000a0: 4a82 193e 8786 613d c5c4 a6bd 6d8d 71bd
000000b0: 01b0 0ebd 502c b3bd cd5e 59bd 1f73 e43d
000000c0: 8830 02be 9830 003e fa2d 2e3c 51d7 103e
000000d0: fc78 b4bd 3617 ca3d de10 12bc 4f03 c9bd
000000e0: 57b6 aebd 1281 8a3c d3fd ecbb 8e4c 2bbd
000000f0: 2896 73bd 1108 33be 27cc e0bd 7094 3dbe
00000100: c89f eabd 00c0 823d dfa9 71bc 57e2 f03d
00000110: 8f32 f4bd 9d9c 13bd b989 9b3c eb41 3a3e
00000120: e9fa 183e ce29 10be 16aa 09bb 4b7b 92bd
00000130: 6a94 ce3c b879 c4bd 0fa4 5b3d 4153 493d
00000140: 7948 9c3d 2186 10be e324 0e3d ab36 bc3c
00000150: ee8d 183e 7a08 d2bd c359 1f3e 9104 323d
00000160: 6f3b 98bd 2ffc bf3d 8b27 e13c c370 203e
00000170: 087f 4c3d c5c2 ee3d 5ed8 debd d573 293e
00000180: f4b0 03bc 297e d439 ed2f 13bd c51d 1e3c
00000190: cc1f f8bc 03ab 3cbd 1c68 62bd 0769 213e
000001a0: e92e f03d 03a5 533e f227 6a3d cf7c a4bd
000001b0: 537f eabd d0e5 8f3a ab8d 913d 6350 c13d
000001c0: bd0d 413e e083 df3c 22a0 183d eaa3 1b3e
000001d0: c115 f8bc 3aee 21be 4869 e33d 257e 9f3b
000001e0: ed2c 42be 03b1 523e 4387 943e e489 413e
000001f0: c891 8b3d b3c5 9e3d 040a 0d3e 1ca3 553d
00000200: d35b d63d 639f 19be e6a6 48bd eb9b 9ebd
00000210: e65a 1bbe 0b03 eebd bcd5 48bd ca68 45be
00000220: 6c8a f5bd 2574 8d3d 097f 37be 81f1 e3bd
00000230: 2db3 5d3e fc13 083e d711 9e3d 4f25 043d
00000240: 8cc8 c63d abdb 27be 433f fd3c ff37 1a3e
00000250: 2958 fdbd 7873 0f3e a804 643d 1140 77bd
00000260: 4898 09be 45ed 2f3e 9b0f 0d3e 6b0e 10be
00000270: 1b8d 83bd 1c7c 32be 2576 75bd 172f 86bc
00000280: d586 31be 896d 943d 2698 453e a345 f4bd
00000290: efd6 79bd d440 893b 2207 f33d f48f 953d
000002a0: a07c d7bd 78d1 053d 3329 b1bd a1a3 37be
000002b0: aa82 06be 5ce5 203e bea3 9f3c 09f3 063e
000002c0: 0dc0 8abd 5851 843d b03d 343e 5053 1f3e
000002d0: 7c50 153d 8a31 643c 1dd5 ab3c fd59 97bd
000002e0: b1ca 2fbd 2817 e03d b2ba 013d 1b08 88bc
000002f0: be27 493e b5d2 023e 2fca 7cbc 8907 293e
00000300: 2c9f 2cbe 3668 babc 6554 14be b59e f8bd
00000310: 4704 f43d ec7e e33d 98f4 23be 2c63 28be
00000320: 8065 61bd c1b4 c03b 11d7 323d 87dc cabb
00000330: d3d2 a1bc 5f6d 5abd f164 a63d af6b 6abd
00000340: 5142 b2bd b5e4 2fbe 6259 0e3e d342 febd
00000350: f581 82bd 3618 0ebe f310 b93d f024 75bc
00000360: 3ca5 9a3d 6a7c 263d 0465 58be 7dfd e03d
00000370: aa31 923d b5ee 013e e242 123e 9221 8f3d
00000380: 158b 29be 0b45 3fbd ccb5 133e 03e8 f73d
00000390: b2db a3bd e57e 873e c475 133e 0a66 203e
000003a0: edc5 61be 049f 6bbe 60dd 193e 8ffd 7c3d
000003b0: 2ecf d1bd e98a d8bd 90ce 3d3d cf28 7dbd
000003c0: a0c8 37bc 86ea 17be 7749 ae3c bb65 dd3d
000003d0: f54f 4fbe d42b 183e 2562 24be c415 b4bd
000003e0: 0fca 663e d344 81bd f761 25be 6222 dbbb
000003f0: d57d 95bd be3d 23bc d316 20bd 39c9 15bc
-0.059324693 -0.16294451 -0.14427884 0.19685544 0.17104703 -0.024047095 -0.117022224 -0.04517023
0.22871435 0.24820966 -0.059021432 0.12366655 0.09698541 0.11384707 -0.17564511 -0.01732901
0.28782701 -0.11644213 0.07410252 -0.06551859 0.106351815 -0.04191972 0.13891469 0.04727265
-0.16991475 0.18389685 -0.03875267 -0.08008227 -0.0025634773 -0.12332155 0.22229514 -0.07682781
-0.036735013 -0.022408225 -0.13086632 -0.11400834 0.15594079 -0.120204814 0.12358327 -0.18870889
0.14991108 0.055059936 -0.081429996 -0.058972765 -0.03483582 -0.08748686 -0.053068925 0.1115477
-0.12713826 0.12518537 0.010631079 0.14144637 -0.088121384 0.098677084 -0.008915154 -0.09815084
-0.08530872 0.016907249 -0.0072324066 -0.041821055 -0.059469372 -0.17483546 -0.10976439 -0.18513656
-0.11456257 0.06384277 -0.014749973 0.11761921 -0.11923706 -0.03603803 0.01898657 0.18189208
0.14939465 -0.14078447 -0.002100592 -0.071524225 0.025217254 -0.095935285 0.053623255 0.049151663
0.076310106 -0.14113666 0.034703147 0.022975286 0.14897892 -0.10255523 0.15561585 0.043461386
-0.07433211 0.09374272 0.027484676 0.15668015 0.049925834 0.11658243 -0.108811125 0.16548093
-0.008037794 0.00040529788 -0.035934377 0.009650652 -0.0302886 -0.046061527 -0.055275068 0.15762721
0.117276974 0.20668416 0.057167 -0.08031618 -0.114500664 0.0010978524 0.07107099 0.09439161
0.18852897 0.027284563 0.03726209 0.15199247 -0.03028381 -0.15813532 0.11104065 0.0048673325
-0.1896245 0.20575337 0.29009447 0.18900257 0.06814915 0.07752552 0.13773352 0.052157506
0.10466733 -0.15002207 -0.04898729 -0.07744583 -0.15171394 -0.11621674 -0.049031958 -0.19278255
-0.119892925 0.069069184 -0.17919554 -0.111300476 0.21650381 0.13288873 0.077182464 0.032262143
0.0970622 -0.1639239 0.030913955 0.15060423 -0.12370331 0.14008892 0.055668503 -0.060363833
-0.13436997 0.17180355 0.13775484 -0.14068 -0.06423398 -0.17430156 -0.059927125 -0.016379876
-0.1733659 0.07247455 0.19296321 -0.11927345 -0.060995992 0.0041886363 0.11866595 0.073028475
-0.10521817 0.032670468 -0.08650436 -0.17933513 -0.13135782 0.15712494 0.019487258 0.13178648
-0.06774912 0.064608276 0.17601657 0.15559125 0.03645371 0.013927827 0.020975644 -0.07390211
-0.04291791 0.10941917 0.031672187 -0.016605427 0.19644067 0.12775691 -0.015429064 0.1650678
-0.16857594 -0.02275477 -0.14485319 -0.12139646 0.11914878 0.11108193 -0.16011274 -0.16444081
-0.05502844 0.0058809225 0.043662135 -0.0061908397 -0.01975385 -0.05332696 0.08124722 -0.0572316
-0.08704055 -0.17177089 0.13901284 -0.124150895 -0.063724436 -0.13876423 0.09036436 -0.01496242
0.07551047 0.040645994 -0.21132284 0.10985849 0.07138379 0.12688716 0.14283326 0.06988825
-0.16556962 -0.046696704 0.14424819 0.121047996 -0.08000888 0.26464 0.14400393 0.15663925
-0.22048159 -0.23009878 0.15025854 0.06176525 -0.102445945 -0.1057337 0.04633957 -0.061806496
-0.011217266 -0.14835557 0.021275265 0.10810419 -0.20245345 0.14860469 -0.16053064 -0.08793214
0.22538017 -0.06311955 -0.16150652 -0.0066874484 -0.07299391 -0.009963451 -0.039084267 -0.0091422135

x_embedders.0.2.bias f4 [32]
00000000: 298f 65bd bc33 243e 94d2 f03d f02c 1d3e
00000010: 5f30 0cbd 10c2 353d 833c aebd f533 3bbd
00000020: 0837 83bd 570a 093d 4084 2f3d 4913 803d
00000030: d94c 31bd 6a47 23be a7eb 823d 3f0b cc3c
00000040: 3d70 9fbd a57d ffbd 7f59 d8bd 732e f2bd
00000050: f2b3 1ebd 5499 2d3d 6baa e73d 7bdd c23c
00000060: d4bb 0abd ce4a 203e e242 183e e3ff 233d
00000070: 5051 293e f8ed 4a3e 8e56 c4bd 788b 2dbe
-0.05604473 0.1603536 0.117589146 0.15349174 -0.034225818 0.044374526 -0.085076354 -0.045703847
-0.06406981 0.033457126 0.042850733 0.06253678 -0.04328618 -0.15945211 0.06392603 0.024907706
-0.0778508 -0.12475137 -0.10563945 -0.11825266 -0.038745828 0.042382553 0.113118015 0.02378725
-0.033870533 0.15653536 0.14869264 0.040038954 0.16534925 0.1981734 -0.095868215 -0.16947734

x_embedders.1.0.weight f4 [32, 1]
00000000: 88eb 693e 04fc 6fbf ec42 6a3f 3f2a 603e
00000010: f0a8 84be d0eb 5d3d 1b8e 5c3f e083 b73d
00000020: ac36 14bf 3b3c 673f 0b08 0cbf 6d6d 3f3f
00000030: 8f77 413c d0e0 d43e b422 413f 3dc4 463f
00000040: 2115 7c3f 8d8e 723f 353f fa3e 1a0f 15bf
00000050: 38c9 2c3e cb58 70bf 3974 ab3e 626a 19bf
00000060: e97c 52bf f581 8cbe 78c0 163e 752f 363f
00000070: 5816 62be 711b 803e bcde a8be bf86 813f
0.22843754 -0.9374392 0.91508365 0.21891116 -0.2591014 0.054179966 0.86154336 0.089607
-0.5789592 0.9032628 -0.5469977 0.74776345 0.01180829 0.41577768 0.7544358 0.77643186
0.9846974 0.94748765 0.48876348 -0.5822617 0.16873634 -0.9388549 0.33487108 -0.5992795
-0.8222185 -0.274429 0.14721859 0.71166164 -0.22078836 0.25020936 -0.32982433 1.0119246

x_embedders.1.0.bias f4 [32]
00000000: 98dc 34bf 9caa 8d3e 7332 543f 3a25 8d3e
00000010: fa03 6abf c138 d13d f349 0b3f 404b 1ebf
00000020: 16ba 7fbf 56aa 813e 1576 0bbe b3c6 ddbe
00000030: 508f d43e 40b4 f03d 5834 57bf 9ab2 503f
00000040: eb55 3a3f 4b58 4f3e 3eb9 733f 94c5 15bf
00000050: 1d55 e93d 93c2 393f fd86 b53e 75a2 6d3e
00000060: 514b aebe 74dd 9d3d 981d a2be ccaf 533f
00000070: 1c95 86be 8ce4 543f e682 b73e 2e15 8fbe
-0.706491 0.27669227 0.8288948 0.27567464 -0.9141232 0.10215903 0.5440971 -0.6183357
-0.9989332 0.25325269 -0.13619263 -0.43315658 0.4151559 0.1175313 -0.84064245 0.81522524
0.7278735 0.20248525 0.9520453 -0.58504605 0.11393187 0.7256252 0.3545455 0.23206504
-0.34041837 0.077082545 -0.31663203 0.8269012 -0.26285636 0.83161235 0.35842055 -0.27945846

x_embedders.1.2.weight f4 [32, 32]
00000000: c7ca b63d f228 9e3d b52e ba3d 3df6 53bc
00000010: 31cb 85bd 8647 dcbb 98e7 3abe 6726 18bd
00000020: 47a5 763c 5319 9b3c cf9b e83c ebd7 963c
00000030: 619e e23d a50a 9b3d 6fe2 343d cc1a 3cbd
00000040: d479 e0bc 28d4 fcbd ae89 5b3d 9a99 1f3e
00000050: 4319 273d bb44 5c3d 6ae6 3fbe b15e ff3d
00000060: dfbc 8cbd ac31 033e 2581 663d 5d68 79bc
00000070: 6be5 ab3c 8912 4dbd fc0e b13d 2e6c 68be
00000080: 7a8c 12bd 11b2 f93d d621 f6bc c986 1b3e
00000090: 5b11 853d 89e4 e9bc 9916 453e 3f3f 22be
000000a0: cd32 39bd 5267 1f3e 1344 dcbc e129 923b
000000b0: 4d71 e9bc d1fc 7b3d f9c8 ee3d 698f f73d
000000c0: ad6d 533e e0bf 2e3e 4791 eb3d 1673 8ebb
000000d0: 8e0e 69bd cec7 83bd d017 30bc 2c0b 633d
000000e0: 7275 be3d db63 6b3d 2453 bdbd 8451 213e
000000f0: 389c 0c3e 22ed 58bd 33ff a0bc 1987 f43d
00000100: 0a8d c3bb ab85 55bd 59f1 d9bd 9f2a 0bbe
00000110: 614d 643d 798f b33d 6d46 14bd c9cc b93d
00000120: ca86 073d 1828 b2bd 7fa6 e03d c633 43be
00000130: bdf6 dd3d e7e3 c93d 09ca 633c f2f2 1fbe
00000140: 32b1 0f3c 5fb6 353c 8d9a 3a3e 2de3 423d
00000150: 3c49 42be 921d ce3c 6c4f 6d3d c3e5 9fbd
00000160: a8e9 febd c360 bfbd bca2 9e3b 3408 30be
00000170: d414 263c 7a3d 863d 3034 bd3b 06d4 9cbd
00000180: e518 1bbe 679b 223c 77ab 1a3e 765f cebd
00000190: 7ad6 86bb e40b e33d 4c00 353e c113 31bd
000001a0: d2bc 8f3c 45e4 513d f708 4abe b3ee 303e
000001b0: 39e1 86bd 502f d637 ba1e dbbd 5220 0b3e
000001c0: 6e18 adbd f8ca c3bd 252a 943d c381 f5bd
000001d0: 8743 003c a316 fdbd fede 233e 0929 5bbe
000001e0: 270a d4bd 843c 14be fac8 73bd 8e2c c0bd
000001f0: 7fe8 bb3d 77d8 5a3c ac87 ec3d c24d 243e
00000200: 2e68 e73d 8f43 a5bd 63a6 bc3c fc62 c4bd
00000210: 95b4 c3bd 198e 0a3d f091 863b 7987 a9bc
00000220: 6ff9 dfbc 547f 543e e5a2 b23d 83c2 d43d
00000230: 14e1 9ebd 5c2c 00be bc23 c53d 5bed e2bd
00000240: cdf3 e53d 62ee 0e3e 9a90 dc3d ab9e 7abd
00000250: 5d05 0d3e 1ca9 efbd b34c 033e 9aff efbd
00000260: 3533 aebd eaff b4bd 96b5 d43b 898e 0b3e
00000270: 2f40 3b3b cf03 e93d 9f36 c33c d5b6 293e
00000280: a28e 12be 0cb1 bcbd e357 813b f07a cb3d
00000290: 268b 1b3d 1d0e a73d 1526 eebd 5f07 003e
000002a0: f28c 89bc f050 5dbb f81f 0fbe af37 09be
000002b0: 3d84 1a3e eca7 e6bd 4e23 de3d 0a45 71bd
000002c0: 216f 80bb ad7d 0b3e 0493 493c 8d51 223e
000002d0: 3ac2 5d3d a682 a0bb d71b 9d3d 653b a53d
000002e0: c2ef ad3d d917 d8bd 3562 d73d 3543 cf3d
000002f0: d873 d0bd 32a7 30be 07f3 8ebd cc4d 9dbc
00000300: 3775 bbbd 4fab 903d c37f 45be f7f3 fe3d
00000310: 785c 883d 1d0a 21be e966 dbbd ec13 f43d
00000320: b85f 0a3e 8f82 cdbd efcc 373e c74f c93c
00000330: 8211 10be 3282 f53d 45ea 3abb 91ab 2f3d
00000340: 5052 ecbd c3ed c3bd 132b c43d 4064 e8bb
00000350: 9a46 31be 4c60 0e3e 6da5 c3bd 82fb 57bd
00000360: 9058 013e e176 f2bb ac01 9d3d 1e44 bd3d
00000370: e110 4fbc d3f5 d1bd 83e1 18be b4cf 123c
00000380: 797e 763d 8730 173e b46a 29bd 7607 cc3d
00000390: 14ff 8dbc ae8a dd3d a65c 38be 75a9 94bc
000003a0: 5e0c 04be b530 1fbe 2c81 d4bb e7eb b33b
000003b0: a2c6 853d fd3e 1cbd b806 15be ce32 f33b
000003c0: 0385 29bd df1a e5bd f651 8ebd 00e0 243d
000003d0: e363 ba3d b354 003e f5ac 0e3c 7711 ff3d
000003e0: 10e9 bebd e332 1c3e 6a6e 023e 1ec4 b23d
000003f0: 67f8 9a3d e841 38be 998a d63c 44ea 303c
0.089253955 0.077226534 0.0909094 -0.012937126 -0.06532896 -0.0067223934 -0.18252409 -0.037146
0.015054054 0.018932974 0.028394608 0.018413505 0.11065365 0.0757039 0.044161256 -0.045923993
-0.027401842 -0.12345153 0.0535981 0.15585938 0.040795576 0.053776484 -0.1874024 0.12469233
-0.06871962 0.12811917 0.056275506 -0.015222636 0.020983418 -0.050066505 0.08645436 -0.22697517
-0.0357785 0.121921666 -0.030045431 0.15188135 0.06497451 -0.028551357 0.19246902 -0.15844439
-0.045214463 0.15566757 -0.026887929 0.0044605588 -0.028496409 0.0615204 0.11659426 0.120879
0.20647307 0.17065382 0.11502319 -0.0043472154 -0.056898646 -0.06434594 -0.010747865 0.055430576
0.09299745 0.057468276 -0.092443734 0.15753752 0.13731468 -0.052960522 -0.019652938 0.1193983
-0.005967741 -0.05212943 -0.106417365 -0.13590477 0.055737857 0.087675996 -0.036199976 0.09072263
0.03308753 -0.086990535 0.109692566 -0.19062719 0.10838077 0.09857922 0.013903149 -0.1562002
0.008770274 0.011090844 0.18223019 0.047579933 -0.18973249 0.025160585 0.05793707 -0.078074954
-0.1244691 -0.09344628 0.004841177 -0.17190629 0.010136802 0.065546945 0.0057740435 -0.07657628
-0.15146215 0.009924746 0.15104471 -0.100768015 -0.004114923 0.11086252 0.17675894 -0.04323173
0.017546091 0.051243085 -0.19729982 0.17278557 -0.065859266 2.553282e-05 -0.1069922 0.13586548
-0.08451925 -0.095601976 0.07234601 -0.11987641 0.0078286 -0.12357833 0.16003034 -0.21402372
-0.10353499 -0.1447621 -0.059517838 -0.09383498 0.091752045 0.013357273 0.11549315 0.16045287
0.112991676 -0.080695264 0.023028558 -0.09589192 -0.09555928 0.03382692 0.0041067526 -0.020694481
-0.027340619 0.20751697 0.08722476 0.10388663 -0.07757774 -0.12516922 0.096259564 -0.11080428
0.11228142 0.13958123 0.10769768 -0.061186474 0.13771577 -0.11702177 0.12822227 -0.11718674
-0.08505861 -0.08837874 0.0064913733 0.13628592 0.0028572192 0.113776796 0.023829756 0.16573651
-0.14312223 -0.092134565 0.0039472445 0.09935558 0.0379745 0.08156989 -0.11628357 0.12502812
-0.01679084 -0.0033770166 -0.13977039 -0.13400148 0.15089507 -0.11262497 0.108465776 -0.05890373
-0.0039194976 0.1362216 0.012303118 0.15851422 0.054140307 -0.004898387 0.07671326 0.08067969
0.08492996 -0.105514236 0.105167784 0.101202406 -0.101783454 -0.1725128 -0.069799475 -0.019202136
-0.09153216 0.070639245 -0.19287018 0.12448876 0.06658262 -0.15726514 -0.10712988 0.11917862
0.13513076 -0.10034668 0.1794927 0.024574174 -0.14069179 0.119877234 -0.0028520983 0.042888228
-0.11539137 -0.09566834 0.09578528 -0.007092029 -0.17312089 0.13903922 -0.09553037 -0.05273009
0.1263144 -0.0073994254 0.076663345 0.09241508 -0.012638302 -0.102519654 -0.14929776 0.008960653
0.060179207 0.14764605 -0.041361526 0.099623606 -0.017333545 0.10817467 -0.18004093 -0.01814721
-0.12895343 -0.15545924 -0.006485125 0.0054907682 0.06532027 -0.038146008 -0.14553344 0.007421828
-0.041386615 -0.11186766 -0.069492266 0.040252686 0.09101083 0.1253231 0.008708228 0.12454503
-0.09321797 0.15253787 0.12737432 0.08728813 0.0756691 -0.17993891 0.026189135 0.010798041

x_embedders.1.2.bias f4 [32]
00000000: a204 cbbd 2bf2 ed3c bba4 b1bd 8fc4 dcbd
00000010: d1cf 5839 5954 9ebd 49e9 36bc 7ad4 bebd
00000020: cb85 cc3d c7d4 23be 3b06 03be ab4a b13c
00000030: ba2b 5fbd 555e 553c d3b7 5d3c bb41 213e
00000040: 8423 b8bc 85d7 fe3d 90eb 0bbe c888 c13d
00000050: 39c1 a6bc b652 a43d a932 9d3b 62ff b9bd
00000060: 1ca5 88bc 2a32 393d 466f 30bd 3aba 033c
00000070: f7d9 2ebd 9f22 aabd 989e cc3c d384 1e3e
-0.09912993 0.029046139 -0.08673998 -0.10779678 0.00020676783 -0.07730932 -0.011164018 -0.093178704
0.099864565 -0.15999137 -0.12795345 0.02164205 -0.05448506 0.013022979 0.013532597 0.1574773
-0.022477873 0.12443451 -0.13664079 0.09449917 -0.020355808 0.08023588 0.004797299 -0.090819135
-0.016680293 0.045213856 -0.04307487 0.008040005 -0.042688336 -0.08307385 0.024977967 0.15480356

c_embedder.weight f4 [3, 32]
00000000: 6a7b d83e 0932 babf 7bcc 893f 7c15 473d
00000010: 12df aebf 2307 b93f 32fd f93e d1a0 c93e
00000020: 2b6f d3bf 1a36 413f 262c 543f 06e5 26bf
00000030: 6fa3 7ebd 3751 b33c 2444 debf 56de 74bf
00000040: a75f 463f b1a0 523f 513a ff3b b84e 103f
00000050: 0056 e33c d60e 5f3d 2b03 24bf 3955 df3f
00000060: cf9f 0bbe eefc 1abe 7324 0e3f eb9c c4be
00000070: ad2a 1d3f b5e3 cf3f 7fb2 af3f 98a5 9dbc
00000080: a1e0 13bf 82a1 b53e ea30 cebf 141b cd3d
00000090: d6d7 ab3d 2167 5ebe aa2b ac3f 2307 963f
000000a0: c4a4 0bc0 2263 86bf c5a4 9bbf ca60 a7bf
000000b0: 81ea 75be 8ddb aabf 0842 c33f 6857 17bf
000000c0: 0f10 00be acaa d7be b4e6 debf 7b31 5bbf
000000d0: dc0e bcbf 1da8 7a3f d78f 593f 8017 2f3f
000000e0: da7c c73f c93c 93bf 8d83 33bf ac44 34bd
000000f0: c4d1 c6bf a39a d2bf 5ce3 9fbf 9581 463f
00000100: af3b 8cbf 7617 61bf df3a 913e 10e5 863f
00000110: e947 a1be c94e c2bf c9c2 013f 648f bd3d
00000120: 583d d6be f89b b23f a201 a23f 54a0 25bf
00000130: 3cc5 b2be 1ac5 463f 38e1 383f 088a afbe
00000140: 7060 acbf 4d11 ca3e ab23 5fbf 1431 c63e
00000150: 36c7 1d3f a6a2 1a3f 903d 9abf ff33 58bf
00000160: ce00 5fbf a3ac 583f dd9a 92be 18be 053f
00000170: a3e7 1dbe 5ab7 143f 4a4f 58be 23e6 39bf
0.42281657 -1.454652 1.0765527 0.048604473 -1.3661826 1.4455303 0.48825985 0.39380506
-1.6518301 0.7547318 0.82879865 -0.6519321 -0.06216758 0.021889312 -1.7364545 -0.9565176
0.77489704 0.82276446 0.0077889343 0.56370115 0.027750969 0.054457508 -0.64067334 1.7447883
-0.13635181 -0.15135548 0.5552437 -0.3840097 0.61393243 1.6241366 1.3726348 -0.019244
-0.5776463 0.35474783 -1.6108677 0.1001493 0.08390777 -0.21719028 1.3450825 1.1720928
-2.1819315 -1.0499003 -1.2159659 -1.3076413 -0.24015237 -1.3348252 1.5254526 -0.59117746
-0.12506126 -0.421224 -1.7414155 -0.85622376 -1.4692035 0.9791277 0.8498511 0.68395233
1.5584977 -1.1502925 -0.70122606 -0.044010803 -1.5532765 -1.6453441 -1.249126 0.77541476
-1.0955714 -0.87926424 0.28365228 1.0538654 -0.31500176 -1.5180293 0.50687844 0.09255865
-0.41843677 1.3953848 1.2656748 -0.64697766 -0.34916103 0.77644503 0.72218657 -0.34284997
-1.346693 0.39466324 -0.871638 0.3870932 0.61632097 0.6040443 -1.2050037 -0.8445434
-0.871106 0.8463842 -0.28633776 0.52243185 -0.15420394 0.5809227 -0.21123996 -0.72616786

encoder.layers.0.self_attn.in_proj_weight f4 [96, 32]
00000000: 62dd 56be f1d3 22bd 9052 583d b8e4 83bc
00000010: 5cc4 46bd 1155 8d3d c8cd e4bd 3ef3 023d
00000020: 334c 61bd 1bb7 263e 2f88 bcbc 5db6 b73d
00000030: 57c2 0abe 20ea 06bd 98c3 d5bc 40e0 2a3d
00000040: 6055 933d 6b9f da3d 58aa 1a3e a6ac 08be
00000050: 8ff7 a53d 480c 1cbe dadb 503d 84ee fd3d
00000060: d50e 2d3e 1fe9 253e 911a 02bd 0383 733e
00000070: 285a 523e b2b3 7dbe bfce f03d 2dad 5c3d
00000080: 50e2 853e eb86 863d 25c9 82bd c359 9dbd
00000090: 44b6 07bd 4862 433e 9ea6 983d 36a9 a63d
000000a0: 0ccb 6fbd 3681 0dbe 89a3 123e e7ad 25be
000000b0: 1383 033e 33e9 833e 65c9 70bd 0f7a d43b
000000c0: 2c26 90bd 2add 413e 54b4 7c3c af73 f03c
000000d0: 937f 023d 1074 8e3d 764f 6c3c 7f70 8fbd
000000e0: 4208 21be 79b6 0f3d c6ae d4bd 5198 7e3d
000000f0: b72c 88be 3b10 ddbd a894 763e 4070 7b3e
00000100: a90b 49bd eccd 9d3d caa0 89bd ae61 6abc
00000110: b9ac f63d 5fd6 413e b912 8c3d 8558 44be
00000120: e748 e5bd 8ada 1d3e 1a26 3a3e 267a 253e
00000130: 00ca 213e 6597 473e 6e93 13be e239 a8bd
00000140: ab07 863d 9302 293d 527b e13d 39f2 1c3e
00000150: 7014 573d 8f19 793d ddf7 7c3e 7025 1abe
00000160: 1fec 27be 3548 eb3d 3cb3 453e 165e 08be
00000170: f071 e3bc abea 9dbd 422b 463e 55ed 263e
00000180: a87c 0bbe 4ab6 483d 5f9f 013b d76a 64bd
00000190: a822 f63d 3345 013e eef0 883c 355d 393e
000001a0: 860f 0fbe 9335 d53c e7ae 42bd 4553 593e
000001b0: 4be0 f53d 09ce 443e 58c8 0b3e 436c b43d
000001c0: c70a 6dbd 9d40 a53d b816 a9bd 70bc 73be
000001d0: fa81 223e e160 86be 7a82 093e 6418 5ebe
000001e0: 1dce dc3d d8f9 453e 41be 3ebe 6e98 133e
000001f0: 3527 71bd 4dc3 4abe eb09 293e 3b05 d13d
00000200: 04c4 45be 75e9 d63c d191 5fbe 1909 943d
00000210: 5eb7 1b3e cdab 51be bf15 913d 3c87 883c
00000220: 8d01 05bd 8a69 52be 52a9 66be 07ec 91bd
00000230: c3d9 ea3c c04a 983d ded3 9ebb 0dda 50be
00000240: 9b7a 663e 2a45 843b 1452 c4bd f451 78be
00000250: 8d9d 433e 49df 89be 1915 1cbd b6bc 1e3e
00000260: fa1f 343d 16c1 1c3d ed19 53be ebab 383e
00000270: 9d98 e5bd 7a9f 45be 8094 183e b8a6 903d
00000280: 1b6a 6d3e 5498 4fbd 0b30 06bd f83f 11be
00000290: 441e acbc a84a 463d 04cb debd 4126 6cbe
000002a0: 9cd8 e53d 1853 9f3d 664f b33d d074 42be
000002b0: 9510 323d 6608 67ba d4ef 013e 7bdf 613d
000002c0: 3adb 233e d2ae 8a3d eb5b c73d 77aa 723e
000002d0: bf97 b4bd fe04 4b3e c67d 60bd 6905 ee3d
000002e0: 8096 3fbe 5eb8 033e 7cbb a33c 56b7 6cbd
000002f0: dd67 75be 0849 8d3c 76fd 2e3e 5aa1 4a3d
00000300: 663b 83bc c019 b93d 3163 48be 753b 1b3e
00000310: 564b 73bc 3584 8e3d d204 dcbd b06f d13d
00000320: 226d 483e 97be 80be d6a2 18bc 77a4 1dbe
00000330: ab52 6c3e 1e8d bebd d922 39be 49a1 9ebd
00000340: 5dec 7fbc 625b c5bc 4742 2a3e fddd 87be
00000350: 03dc 8abd f05b 68be 4638 5cbe b7e4 82be
00000360: 238c aabb 8955 853d f386 a33c 421d 3a3e
00000370: 7c37 18be 2e6b 6bbe f484 d6bd ccd2 a23c
00000380: b91a 643e d270 1d3d e715 c4bb 990d 57bc
00000390: 97e6 3f3e b857 143e c8f2 3f3d 681c 37be
000003a0: 6d24 27be 5e56 763e 1e31 443d 083c d33d
000003b0: b26b bd3d a3e4 3d3e c261 413e b511 513d
000003c0: b955 273e 5dd2 9abd b506 edbd e248 8cbd
000003d0: c8be 253e 1987 8a3e 3c67 283e e84a f9bd
000003e0: 16db 02be 5d3d 49be 8e31 33bd 7de0 893c
000003f0: b480 71be 537c d0bd a51d 3e3e fe0d 13be
-0.20982888 -0.039752904 0.052813113 -0.016100273 -0.048527107 0.06900991 -0.11172062 0.031970255
-0.05500431 0.16280787 -0.023014156 0.0897033 -0.13550697 -0.032938123 -0.026094243 0.041717768
0.07194018 0.10674938 0.15104043 -0.1334711 0.08103859 -0.1523906 0.050990917 0.12399009
0.16900189 0.1620221 -0.031763617 0.23780446 0.20542204 -0.2477558 0.11758184 0.05387609
0.26149225 0.06568702 -0.063860215 -0.07683136 -0.033132806 0.1908046 0.07453655 0.08137743
-0.05854325 -0.13818821 0.14320196 -0.1617962 0.1284297 0.25763854 -0.058785815 0.006484277
-0.07038531 0.18932024 0.015423853 0.029352037 0.031859946 0.06955731 0.014423242 -0.07003879
-0.15725806 0.03508613 -0.10384898 0.06215698 -0.26596615 -0.10794111 0.24080145 0.24554539
-0.049083386 0.07705292 -0.06720121 -0.014305515 0.12044663 0.18929432 0.068395086 -0.19174393
-0.11195546 0.15415397 0.18178597 0.16159877 0.15799713 0.19491346 -0.14411709 -0.08214165
0.06544431 0.04126222 0.110098496 0.15326776 0.052509725 0.06081539 0.24703927 -0.15053344
-0.16398667 0.11488382 0.19306654 -0.13317141 -0.02776429 -0.07710775 0.19352439 0.16301472
-0.13621771 0.04900197 0.001977883 -0.055765953 0.12018329 0.12624054 0.016716447 0.18101962
-0.13970765 0.026026523 -0.04753008 0.21223171 0.12005671 0.19219221 0.13650644 0.08809712
-0.057871606 0.08068965 -0.082562864 -0.23802352 0.15869895 -0.26245788 0.13428679 -0.21688992
0.107815005 0.19333589 -0.18627264 0.14413616 -0.05887528 -0.19801064 0.1650769 0.10206076
-0.19313055 0.026234368 -0.21832968 0.07228298 0.15206668 -0.20475693 0.07084226 0.016666047
-0.032472182 -0.20548072 -0.22525528 -0.07125097 0.02866829 0.074361324 -0.004847034 -0.2039568
0.22507708 0.0040365653 -0.09585968 -0.24250013 0.1910307 -0.26928166 -0.038106058 0.15501675
0.043975808 0.03827008 -0.20615359 0.18034332 -0.11210749 -0.19299117 0.14900398 0.07063049
0.23185007 -0.05068238 -0.03276066 -0.14184558 -0.021010526 0.04841104 -0.10878566 -0.23061468
0.112229556 0.07779521 0.087553784 -0.18989873 0.043472845 -0.0008813202 0.12689143 0.05514477
0.16001597 0.067716256 0.09734329 0.2369784 -0.08818006 0.19826123 -0.054807447 0.11622126
-0.18709755 0.12863299 0.01998686 -0.05779203 -0.23965402 0.017246738 0.17088875 0.049470283
-0.016019534 0.090381145 -0.19569089 0.151594 -0.014849504 0.0695881 -0.10743107 0.10226381
0.19572881 -0.2514541 -0.009316167 -0.1539477 0.2307841 -0.0930426 -0.180797 -0.077456065
-0.015620318 -0.024091426 0.16626845 -0.2653655 -0.06780245 -0.22691321 -0.21505842 -0.2556512
-0.005204694 0.06510455 0.01996181 0.18175223 -0.14864916 -0.22990105 -0.104745775 0.019875906
0.22275819 0.038437672 -0.0059840563 -0.0131258005 0.18740307 0.14486587 0.046862394 -0.1788193
-0.16322489 0.24056384 0.047898404 0.103141844 0.09249057 0.18544249 0.18884948 0.051042277
0.16341294 -0.07559655 -0.11573545 -0.06849839 0.16186059 0.27056196 0.16445631 -0.1217249
-0.12778887 -0.19652314 -0.04374843 0.016830677 -0.23584253 -0.10179963 0.18565996 -0.14360806

encoder.layers.0.self_attn.in_proj_bias f4 [96]
00000000: e456 85bc d121 9abd d23f d13c 4a53 03bd
00000010: 00c5 f8bc c4aa a63c aafc 74bc b27d b13c
00000020: 18f8 613a 746f d8bd 1f8c 4ebc ec80 653d
00000030: c57a 47bb 51f2 f2bc 04c2 6a3d 8996 6f3c
00000040: cba9 5c3d c46d c0bc f5df 83bb 7e83 f83c
00000050: 2242 9b3c 3f37 19bd 5ddc aa3b 03a5 a7bc
00000060: e844 8cbc a83d 663d 4099 e93c 0fd2 5d3c
00000070: e5dc b3bc 2e4b 023d b9d4 293b 6ae0 a4bb
00000080: 37e0 d538 ace0 0138 27b3 79b7 e615 8237
00000090: 467f 03b9 d4b2 68b9 f1ea 1738 1e66 46b9
000000a0: 6c02 d2b7 f9a3 3fb8 938e a737 b8db 3539
000000b0: 7116 aeb8 73a9 3939 b022 95b9 8ca6 4638
000000c0: 38ed 62b7 5fbc d138 04b3 6838 4c76 4e38
000000d0: eafe 8fb7 a308 bd37 6036 bdb7 73c0 a135
000000e0: c456 4238 c98b 8536 9dfe 4938 16d1 4ab7
000000f0: ed40 9037 2a7d db38 b2ab 1737 81d7 e637
00000100: 994a 68bc e9d8 133c 36fb 933c 161b 223b
00000110: 8dea 10bc a511 cd3a 3067 413c 89f6 70bc
00000120: 73ac 7f3b b2d6 5ebc f1f4 c6bb a8ec 2cbc
00000130: 8bdb e83a 5a29 543c 6d77 ca3b 5d36 35bc
00000140: 7ed9 1b3b b27f a1bc a5fd 8f3c c747 3aba
00000150: e97c 4d3c 6ceb 7ebb f6c5 4d3c 390e db3a
00000160: 1b89 853a 25ee a13b 13a7 51bb 6aed 323b
00000170: c2d2 5f3b f482 4c3c 7208 a4bb c7ab 74bc
-0.016276784 -0.07525981 0.025543127 -0.032061853 -0.030367374 0.0203451 -0.014952818 0.021666382
0.00086200377 -0.10568133 -0.01260665 0.056031153 -0.0030438167 -0.029656561 0.057313934 0.014623293
0.053872865 -0.02348984 -0.0040245005 0.030336138 0.018952433 -0.037406202 0.0052142576 -0.020464426
-0.0171227 0.056211144 0.028515458 0.013538851 -0.021955917 0.03180998 0.0025914146 -0.005031635
0.00010198395 3.096524e-05 -1.4883269e-05 1.5507405e-05 -0.00012540547 -0.00022191863 3.622001e-05 -0.00018920793
-2.5035079e-05 -4.569066e-05 1.9974343e-05 0.00017343357 -8.3011466e-05 0.000177061 -0.0002844534 4.7361988e-05
-1.35258815e-05 0.000100009835 5.547983e-05 4.92244e-05 -1.7165632e-05 2.2534578e-05 -2.2555876e-05 1.2051445e-06
4.633401e-05 3.979982e-06 4.815926e-05 -1.208882e-05 1.7196371e-05 0.000104660474 9.040277e-06 2.7518488e-05
-0.014177942 0.009023883 0.018064123 0.0024735383 -0.008844984 0.0015645517 0.011804387 -0.014707216
0.00390127 -0.013600992 -0.0060716798 -0.01055447 0.0017765624 0.012949312 0.0061787874 -0.0110603245
0.0023780758 -0.01971421 0.017577002 -0.00071060326 0.012541988 -0.0038897647 0.012559405 0.0016712613
0.0010187955 0.004941719 -0.0031990453 0.0027302154 0.003415272 0.0124823935 -0.0050058896 -0.014933533

encoder.layers.0.self_attn.out_proj.weight f4 [32, 32]
00000000: 7e95 1b3d 4098 9c3d 8a98 24be 1845 d8bd
00000010: c987 28bd 4ef3 d93d b18c e63d 6a4f 1fbe
00000020: 276f abbd c4f7 d63d 6333 8e3d 7a2d c83d
00000030: 0409 cbbb ed7a 153e 3793 97bd cfdf 11bd
00000040: 1072 e43d b68f 3cbe 8fa4 a8bd 7e04 e33d
00000050: f6a6 1a3e 3a83 e7bd 9abd d33d 722a fcbd
00000060: adc0 ff3d 73a7 1dbd 8eca e0bd 2656 66bd
00000070: 299b 12be 1987 3dbe 0e9e 31be 6b69 0d3e
00000080: 0fdf bcbd dadf 1fbe 30ef f63d 1fcd 0ebe
00000090: 3570 3fbd d6f7 34bd 732d 1cbd aafa 1d3e
000000a0: b625 edbd b9f3 02be 6ad3 bdbd 5ffc fe3d
000000b0: 7031 103c 5a1c f0bd 0493 8cbd 2d90 f13d
000000c0: 3c23 b8bc 1e5b bfbd 476f 8dbd 9111 59bc
000000d0: 3f91 acbd 9d0a 813d 641d e8bd 46e6 f43d
000000e0: 775d b9bd 6049 1b3e 6bf1 96bc aaa4 ed3d
000000f0: 0ee5 c73c ac3b 93bd d987 c13d 4154 0e3e
00000100: c789 37be 8cab 18bd 8970 84bd a5d4 2abe
00000110: 1c29 093e 3671 70bd 1de0 163d d965 cfbb
00000120: f4a0 903d af1a 42be b391 e8bb 60b4 053e
00000130: 5354 cdbd 222e 44bd 21d0 bfbc 2dc5 c53d
00000140: 44db 063e 31b8 893d b5ff 25be 1c1a 9dbd
00000150: 187f f2bd ba44 343e df06 70bd 35c5 0fbe
00000160: 89c7 f73d a995 cd3d e95e 003b 48b7 0c3e
00000170: 313f 0bbe 32e2 e33c 9d03 e4bd 53c0 39bd
00000180: 3423 483d 20a5 46bd b41c 213d 5cb5 2bbe
00000190: 8fd1 8bbc 58fc abbd d823 a3bd 6812 0f3e
000001a0: d2b4 0b3e da63 3d3d 4052 4dbd df29 42bb
000001b0: 4568 c8bd d6c3 7f3d 991e c4bd 7322 513d
000001c0: 368e 4ebd 6079 ae3d d4ce 55bd b552 f33d
000001d0: 3aa4 243e 4828 583e 8d7f 183d 69ee 7e3d
000001e0: cef1 07be 38c9 f4bd 8399 a93c bf9c 243e
000001f0: 5c93 8f3d d25b c93c ed66 a83d 2142 81bd
00000200: c11b ec3d 646c 0abe c64d 383e 4ff0 f83b
00000210: 5085 203e b5f3 eabd b4f0 863d d7c7 f83d
00000220: 9ced f3bd 406a c2b8 9b34 c33d 0338 1f3e
00000230: ae76 433d 11d3 cdbd 195c 0dbe 559f 063e
00000240: a554 30bd d93b 453c 8459 a33d ffc2 9ebd
00000250: da5a a23c df04 8e3d 3451 dcbd d419 3ebe
00000260: 029e 0a3e cde9 663d 2c50 adbc 2b6e 143e
00000270: 6198 4a3e 0f3d 023d 5bc3 773b 5e6c e6bd
00000280: 3093 d0b8 ba7f 94bb f0d2 303e f0e3 483e
00000290: 1c2e 24be 8665 48bc 1c5d ebbd c47f 013e
000002a0: 94fa 10bd 45c1 a53d 4103 6b3c 9290 1e3d
000002b0: 8564 8e3d 24d7 64bd c9d6 1bbe f781 243e
000002c0: c5b4 debc 1796 183e 7fca bdbd fec6 0d3e
000002d0: 4ec6 d23d 2bc9 16be a69e 1d3d a3a0 1a3e
000002e0: 1d7e 953d c315 1b3c cf5d 213e f1f6 fb3d
000002f0: 1220 19be fe61 c43c a0d3 05be 0eae 393d
00000300: 3d13 943d 2607 aaba 7173 cdbd e36c af3d
00000310: d410 8e3d ef3b 813d 8520 a5bd ab14 11be
00000320: efc4 fb3c dfbd 13be 94e7 05bc 8cb0 823c
00000330: fb5e 06be 9732 cb3d 3c8e 2dbe 3e2c 2f3e
00000340: 0ad3 d63d 45ca f8bd 2a6c dd3d 8162 2cbe
00000350: 7a9b 0ebe a0c2 ab3b 6b4d 24be af47 fa3d
00000360: 4003 2cbe 9362 01be 83f3 f9bc 28b2 503d
00000370: 8239 ea3b fabf b13d b306 b3bc 2d30 3a3e
00000380: e82d e0bd 8a5a ea3c 6f6f 863b a87b c8bd
00000390: f457 b33d 7638 c93d f7a5 153d 708d 6fbd
000003a0: d77f 1bbe eb9b 173d ecb1 0abe 8b04 2bbe
000003b0: 62e8 873b 0f91 963d 4361 46be 4b93 7dbd
000003c0: f28e 4e3d 97b2 2dbd becf 4cbd be20 ba3d
000003d0: 1793 e63b d3b7 b5bd 8c0b eebc f077 8d3d
000003e0: 35ab 18bd 6fde 173e 1e4f de3d ba1f 00be
000003f0: bed1 0b3d 0cd7 a8bd 913c 413e c86a 0f3d
0.037984364 0.07646227 -0.16073814 -0.105600536 -0.04114512 0.1064211 0.112573035 -0.15557638
-0.0837081 0.10496476 0.06943395 0.09774299 -0.006196143 0.14597674 -0.07401126 -0.03561383
0.11154568 -0.18414196 -0.08234512 0.11084841 0.15102753 -0.11304326 0.10338898 -0.12312783
0.12487922 -0.03848977 -0.10976134 -0.0562345 -0.14317001 -0.18508567 -0.1734545 0.13809745
-0.092222326 -0.15612736 0.1205734 -0.13945435 -0.04673787 -0.044181667 -0.03812928 0.15427652
-0.115794584 -0.12788285 -0.0926884 0.1245048 0.008800849 -0.11724158 -0.068639785 0.117950775
-0.022477739 -0.09343551 -0.0690599 -0.013248817 -0.08426141 0.063008524 -0.11333731 0.11957984
-0.0905103 0.15164709 -0.018425664 0.11603673 0.024401214 -0.07189116 0.09449739 0.13899328
-0.17923652 -0.037272975 -0.06466777 -0.1668268 0.13394588 -0.058701716 0.036834825 -0.00632928
0.07061949 -0.18955491 -0.007097447 0.13057089 -0.10025849 -0.04789556 -0.023414673 0.09656749
0.1316958 0.06724585 -0.16210826 -0.076709956 -0.118406475 0.17604342 -0.058600303 -0.14040072
0.12098605 0.10038311 0.001958782 0.13741791 -0.13598324 0.02781782 -0.11133502 -0.04534943
0.048861697 -0.04849732 0.039334014 -0.16768402 -0.017067699 -0.0839774 -0.07965821 0.13971865
0.13643196 0.046237804 -0.050127268 -0.0029627008 -0.09785513 0.062442623 -0.095761485 0.051058244
-0.05042859 0.08519244 -0.0521992 0.118810095 0.16078272 0.21109116 0.037231017 0.062239084
-0.13275835 -0.11952442 0.020703083 0.16075419 0.070105284 0.024579916 0.082227565 -0.06311441
0.11528731 -0.1351791 0.17998418 0.0075970064 0.15675855 -0.11472265 0.06588879 0.121474914
-0.11910555 -9.2704315e-05 0.09531518 0.1554871 0.047720604 -0.10050023 -0.13804664 0.13146718
-0.043049473 0.012038195 0.07976058 -0.07752036 0.019818712 0.06934523 -0.10757676 -0.1856454
0.13536838 0.056375314 -0.021156393 0.1449515 0.1978469 0.03179651 0.003780565 -0.11251138
-9.945629e-05 -0.0045318278 0.17267966 0.19618201 -0.16033214 -0.012231236 -0.114923686 0.12646395
-0.03539522 0.08093504 0.0143440375 0.03871209 0.06952766 -0.055869237 -0.15218653 0.16065203
-0.027185807 0.14901005 -0.09267139 0.13845441 0.1029173 -0.14725177 0.038481377 0.1510034
0.07299445 0.009465638 0.15758441 0.1230296 -0.1495364 0.023972508 -0.1306901 0.045332007
0.07230232 -0.0012972101 -0.10031784 0.0856569 0.069368035 0.063102596 -0.08062843 -0.1416804
0.030733554 -0.14427899 -0.008172888 0.015953325 -0.1312217 0.099217586 -0.1694879 0.17106721
0.10489471 -0.12147955 0.10811646 -0.16834451 -0.13926497 0.005241707 -0.16045158 0.12220704
-0.16798115 -0.1263526 -0.030511623 0.050951153 0.0071479687 0.08679195 -0.02185378 0.1818244
-0.10946256 0.028607626 0.0041026394 -0.097892106 0.0875701 0.09825222 0.03653523 -0.058484495
-0.15185486 0.03701393 -0.13544434 -0.16700952 0.0041475752 0.073518865 -0.1937304 -0.061908048
0.050429292 -0.042406645 -0.050002806 0.09088276 0.0070365774 -0.08872952 -0.02905824 0.06907642
-0.03727265 0.14830945 0.10854934 -0.12512103 0.034135573 -0.08244142 0.1887076 0.035013944

encoder.layers.0.self_attn.out_proj.bias f4 [32]
00000000: 41a1 353c 26ff 2b3a dee0 d3bb 2e89 7c39
00000010: 8a57 adbb 2124 e8bb 55e4 f83b f58f 933a
00000020: b3c3 c5bb ac0e a0bb 228a a03c 5d78 623c
00000030: e21d fcbb aa47 e33b dc57 2c3c 7c8b 9c3b
00000040: f4b7 dabc 889a c03b fb29 b2ba 0c30 ae3c
00000050: 0575 23bc 3f3c 693a 2ba0 a9bc 7ea8 c83c
00000060: 1097 09bc fcc0 bcba d291 8abc e90d 46bb
00000070: d1e1 553c 120e 473c 880e 643b 9fec 293c
0.011085809 0.00065611524 -0.0064660152 0.00024083696 -0.0052899765 -0.007084385 0.0075955787 0.0011258112
-0.006035292 -0.0048845615 0.019597117 0.013822642 -0.007693992 0.0069360333 0.010518994 0.00477737
-0.026699044 0.0058777966 -0.0013592833 0.021263145 -0.00997663 0.0008897222 -0.020706257 0.024494406
-0.0083978325 -0.0014400776 -0.016915236 -0.0030220693 0.013054327 0.012149351 0.00347987 0.010371356

encoder.layers.0.linear1.weight f4 [64, 32]
00000000: 46bf cb3d 3ba4 8cbd 4423 423e 0662 00be
00000010: 6975 043e e9f7 00be dec2 1c3d acd7 c8bd
00000020: bb37 d13c e711 32bd 476f 0e3e ebc9 e2bc
00000030: 2bf3 37be 6fc6 4dbd bada 4dbd a24b 703d
00000040: 1d6e f93d 84f6 403d 18c3 cbbd 6585 1dbe
00000050: 3ac0 9f3b 1384 f7bd 70c0 0d3e 6491 84bd
00000060: 97b1 843d bf09 323d 1cf4 e23d 373e 9f3c
00000070: 33fd 18be ecab e13d 9809 90bd 8b5f 06be
00000080: 2aa1 3dbd e288 4d3d 1225 fd3d e3cf 533d
00000090: 37f4 8e3d d5de edbc d8d1 0b3d 5ef8 263e
000000a0: d8ad 9fbd 4113 cbbd 638a 08be 214b 363d
000000b0: 4229 51be 81bd 2abe 1c67 173e 687d 743d
000000c0: 4c55 203c 6cd3 423e cced 37be 3a9a 043a
000000d0: fcd5 483e b090 efbb 293e 92bc 2f1c 6cbd
000000e0: 0bae e3bb 550d 05be 0ccf 83be c7b3 443d
000000f0: 600a 803d 8b95 b33d eab0 943d 68a4 d4bc
00000100: d998 c0bd b634 7abd 6df7 8ebd fd36 93bd
00000110: 0816 843d eb28 1c3e c798 9dbd 0432 8e3d
00000120: 8802 0abe ce7e 393c 4ca4 1a3e cf75 063e
00000130: 1c68 44be 0bb3 a23d 23ca 463e 2413 e9bd
00000140: bba3 823d 8d9d da3c 2d03 6b3d 0e6f d53c
00000150: 37e9 fabd 27d7 17bd d906 bb3d 4e83 213e
00000160: 4c95 2a3e 1f78 aabd d992 3dbe f4bb 133e
00000170: 35b9 20be f9e3 b43b cc47 53be 0302 17be
00000180: bbc6 023e 3c52 fcbd dbbf 6f3e 4f83 203e
00000190: 3bec 9bbd 3e01 303e a79f c6bd 6f03 adbd
000001a0: 2306 943d 3a83 41bd 141f 38be 7408 1e3d
000001b0: f5fc 3bbb 72a7 0b3e a71c c53b 233b 9dbc
000001c0: a890 2e3e 8700 a13d 81e1 37bd f99a 42be
000001d0: cb18 9cbc f705 293d cdea d8bd 10dc d8bd
000001e0: 4f3e 49be 39b6 d63d 597e 483d a9a2 023e
000001f0: 914a 3cbd 256f 473c 579f 9e3d f657 b73d
00000200: 96f7 b7bc a0aa 593e 39f6 f3bc 1493 2bbd
00000210: 393a adbd a557 3b3c 394b 08be 8b59 dfbd
00000220: 752c b23d c96f f4bd d563 11be fc1b 073e
00000230: f365 503e cedc 8bbd 8134 35be d37c ac3d
00000240: f8a3 9b3d abca 24be 72a6 c43b 8d4a 63bc
00000250: a9aa e13b 0bed 623d 9a79 2d3d 9bdb efbd
00000260: 1981 1a3e c0e9 01be 5816 e0bd 7d42 003d
00000270: 241d 4b3e e608 b6bd 7eeb 123e f6f4 213e
00000280: 92a4 bb3d 53ea ccbd d63e fabd 1bca fc3d
00000290: 3736 d33d aeea 64bc b518 d9bd 28f2 1a3e
000002a0: 9b2b 553c 2810 a0bd dd4e 8bbd d2bc 183e
000002b0: 1258 07be eed4 143e 1051 0bbe 0478 72bd
000002c0: 8525 053e 60a3 2ebe bd23 153e a76a ae3d
000002d0: d46d 2dbc a44b febd 669a abbb 62b2 033e
000002e0: cb40 073e b9d8 db3d 5e86 9d3d be28 083e
000002f0: 63ee dd3d e730 103c 9317 0fbe a584 2ebe
00000300: c725 d0bd 7d94 86bd f74b b93d 4885 bb3d
00000310: da48 173e ebd4 e63d 18b6 dcbd 99d7 103e
00000320: c63d 28be 3058 abbd f4f1 13be d488 da3d
00000330: 6ae1 253e 59c5 3b3e fbd2 b9bd b2b7 b4bd
00000340: 41e7 263e aa66 003e 03a1 ecbd 76b4 813d
00000350: 35b2 c03d 034c 00be 7a6b 0b3e a32d 893d
00000360: 1f51 4fbc b113 7dbd 5b71 35be e288 8a3d
00000370: 1192 093e 59e1 d43d c787 adbc 7d99 0e3d
00000380: f56e 703c 62e8 13be e3c3 e13d 0a5a 9a3d
00000390: 9839 9abc e52d ef3d 3152 f4bd ab7c 9d3d
000003a0: 0a46 9dbd f4e9 ebbd 6029 16bc d689 8a3c
000003b0: c027 223e 128e 3abd 18ac 2c3e 6a68 bfbd
000003c0: 59a8 103e 2f3e 203e 7cc9 0fbe 5ba8 39bd
000003d0: 96e2 2d3e ad33 943d 77a7 1fbe 1e11 253e
000003e0: 472e 4bbd fd43 0e3e 4c6c 11be 85db 223e
000003f0: dcfb 4dbc bc35 d73d 1507 37bd d97c 58be
0.09948592 -0.06867262 0.18958765 -0.12537393 0.12935413 -0.1259457 0.038271777 -0.09806761
0.02553927 -0.043474104 0.13909636 -0.027684173 -0.17963855 -0.05023807 -0.050257422 0.05866588
0.121792056 0.047110096 -0.099493206 -0.15382917 0.00487521 -0.12085738 0.1384294 -0.064730436
0.06479185 0.043466326 0.110817164 0.019438846 -0.14940338 0.110191196 -0.0703308 -0.13122384
-0.046296276 0.05017937 0.12360586 0.051711928 0.06980174 -0.029036919 0.03413567 0.16305682
-0.0779683 -0.09915782 -0.1333404 0.044505242 -0.20425895 -0.16673853 0.14785427 0.05968991
0.009785961 0.19025964 -0.17961806 0.0005058382 0.19612879 -0.0073109493 -0.017851906 -0.057644065
-0.006948238 -0.12993367 -0.25743902 0.04802301 0.06251979 0.087687574 0.07260306 -0.025957301
-0.094041534 -0.061085425 -0.069807865 -0.071882226 0.064495146 0.15249984 -0.076951556 0.069431335
-0.13477528 0.0113217365 0.15101737 0.13130878 -0.1918034 0.07944306 0.19413047 -0.11380604
0.06378885 0.026686454 0.057376076 0.026053932 -0.122515135 -0.03707042 0.091321655 0.15772745
0.16658515 -0.083236925 -0.18513049 0.14427167 -0.15695651 0.0055203405 -0.20632857 -0.14746861
0.12771122 -0.123203725 0.23413031 0.1567509 -0.07613417 0.17187974 -0.0969842 -0.084479205
0.07227733 -0.047244288 -0.17980605 0.03858228 -0.002868471 0.13638094 0.0060153785 -0.019193238
0.1704737 0.07861429 -0.04489279 -0.1900443 -0.019054791 0.041265454 -0.1059166 -0.105888486
-0.19652675 0.10483975 0.04894862 0.12757362 -0.04596955 0.012172495 0.077452354 0.08952324
-0.022456925 0.21256495 -0.029780494 -0.04188831 -0.08458371 0.01143447 -0.13309945 -0.10905751
0.08699886 -0.11935384 -0.14198239 0.13194269 0.2035139 -0.068292245 -0.1769581 0.08422246
0.07599634 -0.16092937 0.006001287 -0.013872755 0.0068867994 0.055401843 0.042352296 -0.11711808
0.1508831 -0.12686825 -0.10941762 0.03131341 0.19835335 -0.08888416 0.14347646 0.15816101
0.09162249 -0.10005631 -0.12219016 0.12343236 0.10313075 -0.013971968 -0.106004156 0.15131438
0.013010885 -0.078155816 -0.06802151 0.14915779 -0.1321719 0.14534351 -0.13605142 -0.059196487
0.13002594 -0.1705451 0.14564414 0.08516436 -0.010585267 -0.12416771 -0.0052369116 0.12861016
0.1320831 0.10734696 0.07691644 0.13296792 0.10836484 0.008800722 -0.13973837 -0.17042787
-0.101634555 -0.06571291 0.09047692 0.09156281 0.14773884 0.1127108 -0.10776919 0.14144744
-0.16429815 -0.0836643 -0.14447767 0.10670629 0.1619927 0.18337001 -0.090734445 -0.088240996
0.16299154 0.12539163 -0.11554148 0.06333248 0.0940899 -0.12528996 0.13615218 0.06698158
-0.012653618 -0.061786357 -0.17719023 0.067643896 0.13434626 0.10394544 -0.021182908 0.034814347
0.014674892 -0.14444116 0.110236906 0.07536705 -0.018826291 0.116786756 -0.11929739 0.07689794
-0.076793745 -0.115192324 -0.009165138 0.016911428 0.15835476 -0.045545645 0.16862524 -0.09346087
0.1412672 0.15648721 -0.14041704 -0.045326572 0.16980967 0.07236419 -0.15591227 0.16119811
-0.04960468 0.13893123 -0.14201468 0.15904053 -0.012572255 0.10508296 -0.04468449 -0.21141376

encoder.layers.0.linear1.bias f4 [64]
00000000: 68e0 22be 3a03 f1bd db47 dfbd 427c e9bc
00000010: a9e9 33ba 78c7 013e 4e8e a13d 6f34 63bd
00000020: 0e66 083e ed4b 493c 01a2 283e ce82 0b3e
00000030: 70a0 4fbc 98f2 673d 1b87 763d 5e79 1fbd
00000040: ef8e 37be 7e5a 983c f106 a23d f2c5 dcbd
00000050: d88c 203c 5441 9f3d ecf1 0bbe 93b9 f1bd
00000060: 6002 ff3c ae0f 08be 7086 b03d 7a64 afbc
00000070: d558 d4bd 29c2 a8bb 323c 183e cb86 b6bd
00000080: 6578 f83d 9cd8 1a3e e06e cabc 94dd 8abd
00000090: b79f e63d 28ef 0d3e 5c12 9ebd 47da f53d
000000a0: b192 b63d 4401 9a3b 5e7b 21be f0ed babd
000000b0: bb07 9fbd bcb8 033d caa6 753d 84b6 a4bd
000000c0: d13c a8bc 713d 7a3b 220e 093e 6023 b4bd
000000d0: 68b8 fd3d 6a84 eebb 3cbd dabd 12e1 33bd
000000e0: 25ad a43a 3912 653c 1eec 023e 50f0 143d
000000f0: f261 e5bd ac9a b4bd bc14 8bbd 2933 5e3d
-0.15905917 -0.117681935 -0.10902377 -0.028501634 -0.0006863126 0.12673748 0.078884706 -0.055469926
0.13320181 0.0122861685 0.1646805 0.13624117 -0.012672529 0.05662784 0.06018744 -0.038934104
-0.17925619 0.018597838 0.0791148 -0.107799426 0.009799205 0.07776132 -0.13666505 -0.118029736
0.031129062 -0.13287231 0.08619392 -0.021410216 -0.10368506 -0.005150099 0.14866713 -0.089124285
0.121323384 0.15121692 -0.024711072 -0.06780544 0.11260932 0.13860762 -0.077183455 0.12004524
0.08914698 0.004699858 -0.15769717 -0.09127414 -0.07765146 0.0321586 0.059973516 -0.080426246
-0.020536812 0.0038183595 0.13384297 -0.0879581 0.12388688 -0.0072789686 -0.10680625 -0.043915816
0.0012563808 0.013981395 0.12785384 0.036361992 -0.11200322 -0.08818564 -0.06791064 0.05424801

encoder.layers.0.linear2.weight f4 [32, 64]
00000000: 7107 2d3c 016d f33d dd16 063e 3ac9 8d3d
00000010: dd7c 98bd 4db7 4d3d 2a7e 653d ad74 03bd
00000020: b0e3 ec3d 1b7b 80bd 251e a0bd a97c bdbd
00000030: a227 a43c de3b cb3d 8caf 6e3d 55f5 0d3e
00000040: c322 af3b 6ffa f13b e9ea 0c3e 1d50 bdbd
00000050: d7ee 903d f9a9 e93d 0075 a1bb 3c82 0e3e
00000060: 6811 b9bc edc9 f3bd 1f2c 5abc 3969 d33c
00000070: 2fc3 243c 17c2 123c 1173 de3d 4d87 b33c
00000080: 9e43 98bd e4ed 173e e82f ad3c c43d 9fbd
00000090: 87fc 983d 63fd e8ba bade 97bd ab0f 343e
000000a0: 486e 763b 39ec ba3d 40e3 693d 78c6 2d3d
000000b0: baf7 adbd a9c5 0fbe a1c5 33bd 309e 6f37
000000c0: b890 423b e1f4 373d 508f 843d f2d1 793d
000000d0: e18c 93bd ab6b 0c3d 96ef a6bb 352c 41bd
000000e0: f5ad 183c dfb8 513b a354 0abe 1294 74bd
000000f0: efee d3bd ba1b 0e3e e396 173d 5a7b 1d3e
00000100: edbd a3bb 78ab 35bd ab77 dfbb 50d5 aabd
00000110: 36a3 0b3e a1fa 8cbd d45b 0ebd 4b65 873d
00000120: e0dd cebd 3ac1 a3bd 2765 bbbd 98c3 81bd
00000130: f859 bfbd 8672 4abe 548a 583d 89e1 67bd
00000140: 9423 d23c 0fd4 5ebc 85e9 c0bd 0700 a4bd
00000150: 0122 a93d f9a8 dabc 07b8 483c 6bab e2bd
00000160: bd51 013e 8192 7f3d 9841 58bc 2d0b a03d
00000170: 3cf8 ef3d 06e6 9abd 2a17 013d 477a ca3c
00000180: 44e4 32be 935c f6bb 9aed dd3c e549 8ebd
00000190: 39d5 bd3d f34f a8bd 5100 a53d 0919 cf3d
000001a0: b976 3e3d 2a01 03be 3bae 843d 6f2a bc3d
000001b0: 702a cabd c38e 213e c680 b1bd 9a4c 0abe
000001c0: 0e99 3ebc ed52 92bd 0470 f1bb f2c6 693c
000001d0: 5488 c9bb c127 e7bb 6629 c1ba b1f0 a3bd
000001e0: 846d a73a fcbf 25be b2bf 4f3d 3a63 ebbd
000001f0: 8ad7 8dbd 826f a63c 187c df3d 2623 143d
00000200: e278 29bd 94b8 373d 9ca0 d0bc e345 433d
00000210: cf02 30bc 0dd7 8bbd 4d1d 8a3d 7cf4 dbbd
00000220: 66de 1bbd c2bd bdbd d27d 023d 6d55 033d
00000230: de1f 15bd c8a4 6cbd 72ae 5e3c 995d cdbc
00000240: b075 743d 2af7 a03c 42dd 8f3d 5917 093e
00000250: fc37 1c3d 7b25 a9bd 3706 603d ebca 8dbd
00000260: 81d1 d6bd 54d0 bd3d 3a48 963d 2f2f 93bd
00000270: a658 88bd 31ba 2d3d b2ce 8e3c 6b02 3dbd
00000280: a5bc 37bc c729 253e 7309 9abd cec0 1dbd
00000290: 36a2 aabd 7214 ce3d 4c3c cabb 8b8f b93c
000002a0: 0fce c03d a60e c83d 4af4 263e 5c37 cdbd
000002b0: bb54 c1bd c17e b1bd 42b6 24bc fe88 1c3e
000002c0: 8242 d23d 9b20 2dbc 2464 f03c 7853 6a3d
000002d0: 7b35 1f3e f3b4 e0bc dd61 883d 338e 7d3d
000002e0: 3e9d 273e 3fde 1c3e be0d 1a3e 4bc6 853d
000002f0: dd31 083e 00a0 603d 94b6 3fbd c0bd 89bc
00000300: 22b6 733d 312b c1bb 93c7 87bd 196e dc3d
00000310: 750a 513c 5758 9fbd f49c 27bd 4294 0a3e
00000320: 19e5 f7bd 349e 003e 13da 4abd a924 a43d
00000330: 451b 073c 4d61 dfbd 7c98 b1bc 7a6e 663a
00000340: 16f3 d43d 7bb6 d33d 4f41 bcbc ed14 8fbd
00000350: 8cd3 9b39 d3d2 93bd e43f 753d eaf3 27b9
00000360: 4821 1c3e 43a9 a9bd 064d 2cbd 9f76 6e3d
00000370: e063 603c c420 97bd cdd2 813c 7fdc ff3d
00000380: 7632 c4bd 911e 983d 18b6 313d 1cef eebd
00000390: 1b23 fabd 1968 c33c f190 343b 1294 983d
000003a0: 6a29 2d3d 4b04 2dbd 5f95 f53d 67a6 d9bd
000003b0: 3c21 1b3e f5f5 cebc 7770 523d 3c61 8d3c
000003c0: afa5 24bd 171e 07be 0ba4 87bd 0d5f d63d
000003d0: e907 be3d 60bd 68bd 2ffe d93d 2240 9a3c
000003e0: a5c6 b83d 80b2 81bd 8126 59bd cddc d2bc
000003f0: 17d2 723d 29c6 e4bd e6f2 f0bb 7035 b43d
0.010560856 0.11886025 0.13094659 0.069231465 -0.07445691 0.050223637 0.056028523 -0.032093693
0.115668654 -0.062734805 -0.078182496 -0.09252293 0.02003843 0.09923528 0.058272883 0.13863118
0.00534472 0.0073845903 0.13761486 -0.09243796 0.07076805 0.11409373 -0.0049272776 0.13916868
-0.022591308 -0.11903749 -0.013316183 0.02580701 0.010056301 0.008957407 0.10861791 0.021915102
-0.07434772 0.14836842 0.021141008 -0.07775453 0.07470041 -0.001777571 -0.074155286 0.17584102
0.0037602354 0.09127087 0.057101488 0.042425603 -0.08494516 -0.14040245 -0.043889645 1.4282341e-05
0.002968831 0.04491127 0.06472647 0.060991235 -0.07204605 0.034282368 -0.005094479 -0.0471613
0.009318818 0.003200106 -0.13508849 -0.059711523 -0.10348307 0.13877764 0.03700913 0.15379086
-0.004997006 -0.04435298 -0.0068196855 -0.083414674 0.13636479 -0.06883741 -0.034755543 0.06611117
-0.10100913 -0.079958394 -0.09150153 -0.06336135 -0.09343332 -0.1977025 0.052866295 -0.05661157
0.02565173 -0.013600363 -0.0941954 -0.08007818 0.08258439 -0.0266919 0.012250907 -0.11067852
0.12628837 0.062395576 -0.0131992325 0.078146316 0.11717269 -0.07563405 0.03151623 0.02471651
-0.17469889 -0.00751836 0.027090836 -0.06947688 0.092691846 -0.08218374 0.08056701 0.10112197
0.04649994 -0.12793413 0.06478544 0.09187781 -0.098713756 0.15777116 -0.0866714 -0.13505784
-0.011633171 -0.07144723 -0.0073680896 0.014268624 -0.006150285 -0.0070542996 -0.0014737069 -0.080048926
0.0012773727 -0.16186517 0.050719924 -0.11493535 -0.069258764 0.020316843 0.10912341 0.036166333
-0.04137505 0.04485376 -0.02546721 0.04767407 -0.010742857 -0.06828127 0.0674387 -0.10739991
-0.038053893 -0.09264709 0.031858273 0.03206389 -0.036407344 -0.057774335 0.013591396 -0.025069045
0.059682548 0.019649107 0.070246235 0.13387813 0.03813933 -0.08259102 0.054693427 -0.06923469
-0.104891784 0.09268251 0.07337995 -0.07186734 -0.06657533 0.042413894 0.017432544 -0.046144884
-0.01121441 0.16129218 -0.075213335 -0.03851395 -0.083317205 0.100624934 -0.0061717387 0.022651454
0.094143026 0.09768419 0.16304126 -0.100203246 -0.09439989 -0.086667545 -0.010053219 0.15286633
0.102665916 -0.010566856 0.029344626 0.05720851 0.15547745 -0.027430033 0.06659291 0.06190319
0.16368577 0.15319155 0.15044305 0.06531962 0.13300271 0.054840088 -0.04680498 -0.016814113
0.059499867 -0.0058950414 -0.06629863 0.10763187 0.012758841 -0.07780521 -0.040921167 0.13533118
-0.12104244 0.1256035 -0.049524378 0.08014805 0.008246248 -0.109072305 -0.021679156 0.0008790266
0.103979275 0.1033754 -0.02298036 -0.06986413 0.00029721519 -0.07217946 0.059875384 -0.00016017226
0.15247071 -0.08284237 -0.042065643 0.058218595 0.013695687 -0.073792964 0.015847588 0.12493228
-0.09579937 0.07427705 0.04338655 -0.116667 -0.12213727 0.023853349 0.0027552212 0.07450117
0.042275824 -0.042240422 0.11991381 -0.10627442 0.15149397 -0.025263766 0.051376786 0.017258279
-0.04019707 -0.13195072 -0.066230856 0.10467348 0.092788525 -0.056821227 0.10644185 0.018829409
0.090222634 -0.06332874 -0.053015236 -0.025740052 0.05928239 -0.111706086 -0.0073531745 0.08799255

encoder.layers.0.linear2.bias f4 [32]
00000000: bcc4 b2bd 737f d0bd 806a d7bc dfad ffbc
00000010: b822 f13c 9f7b ee3d 755b 8fbd 618c 94bc
00000020: f2eb 163e 6114 403d 32ee 893b 88fd ea3c
00000030: 2804 bb3d 26ef 09bd 73c2 0abe 6b68 2dbd
00000040: 1a13 e23c 8232 d13d 98fc 1c3e 2385 cd3d
00000050: ef59 90bc 9a88 493d d693 c03c 17a5 03bd
00000060: a43c e4bd 911c d93d 352a 613c 1ede 0abd
00000070: cfb0 e13c 4dbd 74bc ffca c93d 56ac f1bd
-0.0872893 -0.10180559 -0.0262959 -0.031210838 0.0294355 0.116446726 -0.06999866 -0.018133344
0.14738443 0.046894435 0.0042093033 0.028685346 0.09131652 -0.033675335 -0.13550739 -0.04233591
0.027596999 0.10214712 0.15330732 0.100351594 -0.017621009 0.04920254 0.023507994 -0.032139864
-0.11144379 0.10601152 0.013742973 -0.033903234 0.02755013 -0.014937711 0.098531716 -0.118004486
